package_metadata/openml/phoneme/ground_truth/shap_kernel_3_ann.npz (npz, 155360 bytes, 2 tensors)

exp_values f8 [3, 1351, 5]
0	0x3fb745d5f368924a	0.09090935890760324
1	0x3fbafe8cdb9be398	0.10544662820383477
2	0x3fbb1527f66fef48	0.10579156652960109
3	0x3fb6d8a061b0219a	0.08924295792542694
4	0xbfa8a748508e90c0	-0.04815126403198766
5	0x3fceb6e48ad2d269	0.23995644358150806
6	0x3fc3860dafa6259c	0.1525284869824589
7	0x3fd197ab4e07c097	0.2748821508421399
8	0xbfb058d3672a865e	-0.06385537403778005
9	0xbf90a6951c24b6a0	-0.016260461657273795
10	0xbf89fb8a64e5b040	-0.012686806873453915
11	0x3fc2a747dbd7315d	0.1457300017776885
12	0x3f9871955cc7fa1f	0.023870786464607826
13	0x3fb456991ef87c09	0.07944638258094029
14	0x3fa5713034bf8bc9	0.04187918323420765
15	0x3fb432d20229d1d2	0.07890045693222383
16	0xbfb97400aaab7d66	-0.09942630926842852
17	0x3fa8a275ef609c71	0.04811447665297742
18	0xbf990fc4db1392d8	-0.024474216338506632
19	0x3fb5759ce3322f39	0.08382587954309607
20	0xbf89a6955d085798	-0.012524763967160443
21	0x3fbb1085c78bc63e	0.10572086450317728
22	0xbfc162c3e5210808	-0.1358265751642309
23	0x3fc3b21ad605359e	0.15387282800876972
24	0xbfb31f6e0217294f	-0.07469832945858922
25	0xbfa62a8833a02a7c	-0.04329324369617368
26	0x3f80222f014944c0	0.007877700068237181
27	0x3fcbede40ff9be53	0.21819735317284258
28	0x3fc3ff8383494668	0.15623515997372128
29	0xbfb43fe5f1432fa9	-0.07910000934788165
30	0x3fba7e902e6ab398	0.10349370129797675
31	0x3fc421d697eccfe7	0.15728266161170198
32	0x3fcbf74eee221eb1	0.21848475101091006
33	0xbfa26eafe7d5fd40	-0.03600072579410574
34	0x3fd16f93ee0feb0e	0.2724351715875607
35	0x3fbd77daa14373fb	0.11511007725808035
36	0x3fc527f0767b1445	0.1652813509482788
37	0x3fc408fb5290aff5	0.15652410060408753
38	0x3fc5d42f2ca682d6	0.17053785019108741
39	0xbfa5718b1b958770	-0.04188189231605477
40	0x3fb33b600c9277d8	0.07512474352776566
41	0x3fb7e8f9f9aad33f	0.09339868874924394
42	0x3fcb36f1fa294991	0.21261429514795485
43	0x3fb443c43d32fa81	0.07915903562659744
44	0x3fd0026a31c69969	0.2501473890391908
45	0xbf83563381266e20	-0.009441759470795452
46	0x3f9607f393fdd5ee	0.021514707477271182
47	0x3fc10cb89542b74a	0.1332007149516648
48	0x3fb2455981a38d9b	0.07137069144260126
49	0x3fad21f1b530927e	0.05689959847248803
50	0x3fc63c022ed0a3b3	0.17370631490601127
51	0xbfa19517cafbc880	-0.03434061386896392
52	0x3facc6097a9762b1	0.05619840260960041
53	0x3fa7114a3619fa36	0.045053786377128466
54	0x3fa3fd25563fb720	0.03904072454302665
55	0x3fc6c524e1196432	0.17789135924502514
56	0xbfa7bfde2e5a47c0	-0.04638571086719834
57	0x3fb287b332a14939	0.07238311754307326
58	0x3fa5d187a401cf09	0.042614210863488884
59	0x3fa10b7497e82fd1	0.03329052309354064
60	0xbfb072c9d7bf5d44	-0.06425153271935807
61	0x3fa4bcf3e781ff84	0.04050409508727085
62	0x3fc931d98f4ddf87	0.19683379647517205
63	0x3fa744d220742d67	0.04544693609394806
64	0x3fa316376188e9d0	0.037278872161966015
65	0x3fa3631129778976	0.03786519652546165
66	0x3fb5f75b59522e49	0.08580561571778235
67	0xbfb22e50896e8fc0	-0.07101920466681033
68	0x3f9e784e0563f272	0.029755801276211753
69	0xbf981487a971cae0	-0.02351581546504178
70	0x3fd08593bf6c86d1	0.25815290158980725
71	0xbfb4545275ceb76d	-0.07941165329131446
72	0x3fcf45e8599bccdf	0.2443209111730544
73	0x3fb84a5a4db5c1ad	0.09488453290192096
74	0xbf3b5089f380e000	-0.00041678779553278034
75	0xbfb9be7d1e2410d9	-0.1005628775201929
76	0x3fc1b20ae3d76518	0.13824592709605876
77	0xbfb6b91f0c0434b3	-0.08876222651834346
78	0x3f99ba27a0e2f892	0.02512418670152578
79	0x3fa86452ebb954bf	0.04764041068544022
80	0x3fb8681a72a28efd	0.09533849047380367
81	0x3fb3a3d000265178	0.07671833041815102
82	0xbfb030825951acd0	-0.06324019127503111
83	0x3fae6ea49076cd8c	0.05943788779714074
84	0x3fbbb09c99e952bf	0.10816363103487968
85	0x3fc0ad12bc1e3ebb	0.13028177438217434
86	0x3f991c08464954c0	0.024520997323936866
87	0x3fc43508fc5ee9af	0.15786850283423123
88	0x3fa266866667af91	0.03593845367490112
89	0x3fd1fe5352473025	0.2811477950569972
90	0x3f916513016599a3	0.016987130127199667
91	0xbfb08369339bf5aa	-0.0645051718710962
92	0x3f3eaf6b2857e300	0.00046821943428158874
93	0xbfab08a14c88e0d1	-0.05280021723996387
94	0xbf9057415815ac4b	-0.01595785236478901
95	0x3f9f3e920b1016da	0.030512124943945597
96	0xbf959434aaa708e0	-0.021073172488976222
97	0x3fc0d9bdbc7f5b49	0.13164493278483239
98	0x3fb25e847a6fa537	0.07175472249186475
99	0x3fada49560269bc1	0.057896297442588736
100	0x3fcbb32a46977b66	0.21640518614637044
101	0xbfa3795955ebdca8	-0.0380351941475337
102	0x3f9e6b29d1140871	0.029705670724986925
103	0x3fa393648d6eacf4	0.03823389269322233
104	0x3fa12b5ebccd1834	0.0335340123624949
105	0xbfa92e7998ae9a1f	-0.04918270100397514
106	0x3fbe98f0977343b4	0.1195211763145057
107	0x3fba6d8d01b7e2a5	0.10323411266279921
108	0x3fb284f9002b629d	0.07234150175225769
109	0x3f9273a4ba72c510	0.01801926982870322
110	0xbf5039691b986800	-0.0009902502482703746
111	0x3fc12809284bb97e	0.13403429477279966
112	0x3f9498f51d885e12	0.02011473648789603
113	0x3fb5148b2f1aa735	0.08234472179415493
114	0x3fa627cdb1ec3a25	0.04327242657574385
115	0x3fc37b46878dcee9	0.15219956988186503
116	0xbfa42002c71bdef0	-0.039306723408968014
117	0x3fb8877cffc01fd9	0.09581738704593991
118	0x3fa3fcd03f2d0c17	0.03903818865958202
119	0x3fa060fa616f31cf	0.031989883798448575
120	0x3fcfce7f4b4105e2	0.2484892957163956
121	0x3fa70e0f8a4d2150	0.04502914965866245
122	0x3fcc89c7f1e3c0a8	0.22295474349039535
123	0x3fb0f7881aa1b81f	0.06627703333080646
124	0x3fc0ba58d265b441	0.13068685792259951
125	0x3fd5325ecd83a056	0.3311993605589171
126	0x3f9dd5659a73bee9	0.02913435702515602
127	0x3fd6ed3f70b6c74b	0.358230457374806
128	0xbfa5a4beec97c10b	-0.042272535687404376
129	0x3f78bee15a290b00	0.006041412622439735
130	0x3fcb6fb86ebcca9b	0.21434693724730355
131	0xbfa791483b634238	-0.04603028988788477
132	0x3fab34920b502454	0.05313545597170646
133	0x3f9af6edfb04e722	0.026332586713784363
134	0x3fa06d996ed55a38	0.032086176661938415
135	0xbfb1f7d03a52a7ca	-0.07018758224390279
136	0x3fc2c80136b8b16d	0.1467286603159538
137	0x3fc0276fd5e6334c	0.12620351738260138
138	0xbfc42c7b80c18aff	-0.1576074961368121
139	0x3fb848cf1e33e180	0.09486097800607318
140	0x3fc7af9509193907	0.1850458425928496
141	0xbfab881ff5094fa0	-0.053772925054232035
142	0x3fc7ae3d8d7ac406	0.18500489624196365
143	0x3facea3bb982bfc1	0.05647455825362569
144	0x3fc93d9777bc461e	0.19719212862450858
145	0xbfb156013be6e9a6	-0.06771857941104162
146	0x3f85ff84176778f0	0.010741264309157533
147	0x3fbfbe84b421cd23	0.12400082967524333
148	0x3fb23d90e841d140	0.07125192327823004
149	0x3fa21e7a30649297	0.03538877335293938
150	0x3fc34d0fadc4d873	0.15078922257243085
151	0xbfb0057cc2e5e60c	-0.0625837302995011
152	0x3fa70641d4850349	0.04496961325867816
153	0x3fadf7e1ee59031d	0.05853181871908062
154	0x3fb131b981891f1a	0.06716498768321025
155	0x3fa37e7664f9365a	0.03807420713984007
156	0x3fc2accbc8b4c4ab	0.14589831638435177
157	0xbf95869eca3949c0	-0.021021348088035685
158	0x3fc10994cd759101	0.1331048968523945
159	0xbf9a1966b596d6ce	-0.02548752291996586
160	0x3fcf2df1e32a4fcc	0.2435896262364835
161	0xbfba8b887a05d4e9	-0.10369160632201936
162	0x3fc244543cc87fba	0.14271023719720494
163	0x3fbfe693aaa94cb9	0.12461207310234358
164	0xbf8191638d5ec400	-0.008578088523650607
165	0xbfa9eb14f32a2798	-0.05062165706938443
166	0x3f9b892a542c2814	0.02689043177364432
167	0x3fbe7f1713df1a13	0.11912674174445952
168	0x3fb962816bb62596	0.09915932540584146
169	0x3faeaa54c1216e8d	0.05989327294875322
170	0xbfb05ff966ab4990	-0.06396445042199717
171	0x3fa1b9fd0fb75384	0.03462210480544228
172	0x3fc8ed235a180fc0	0.1947368802940428
173	0x3fad18b7d1bf16bb	0.05682920871144633
174	0x3fa70ad27ab7c439	0.045004441719250506
175	0xbf9d49b0fda91efa	-0.028601422769752617
176	0xbfabcb5f3ea3b212	-0.05428598060266067
177	0xbfa86c625b873261	-0.047701905892243664
178	0x3f976916dcc57b47	0.022861821389024397
179	0x3f4cdca875242700	0.0008807966753760776
180	0x3f818ffff9ba6dff	0.008575439270592787
181	0x3f877e4fa8001431	0.011471388163054015
182	0xbfaa9b43a5fa32e5	-0.05196582223024907
183	0x3f65883e705b0ec0	0.0026284427175101432
184	0xbfc16ea18c909111	-0.13618869174491313
185	0x3fc3630c9804e1cd	0.15146024153524565
186	0xbf96a77335841560	-0.022123146191935006
187	0x3faf1ac7a75f1221	0.0607511894045596
188	0x3fa8bd007662854f	0.04831696934821627
189	0x3fa502ed1424c65c	0.04103794928449808
190	0x3fbc6be3afe7683e	0.11102126163987777
191	0x3fa1cc3984a2e703	0.03476123565765301
192	0x3fa69dd95cbf26a5	0.04417304284249938
193	0x3fb3c7c27aefbb07	0.07726684094789614
194	0xbf9d51c272abaee0	-0.028632200478496794
195	0xbf9a262308c03f23	-0.025536105546108644
196	0x3f876fcfa9d5ad30	0.011443731661265305
197	0x3fc63692000d199c	0.17354035379885324
198	0xbfc195013a318c23	-0.13735976544839543
199	0x3fab2ab479b458b2	0.053060188156608304
200	0x3fbcd13e4e01a97e	0.11256780056434043
201	0xbf8ca85eb7a92740	-0.01399301527012009
202	0x3f9992e2c9e7539a	0.024974387715548475
203	0x3fa0287d2f936587	0.0315589066100968
204	0x3fbecec33a4be0e5	0.12034244702579462
205	0x3fb6d691c61df85a	0.08921156966059254
206	0x3fb2b0587dbfb3d4	0.07300332136192306
207	0xbfa73be066e5e098	-0.04537869697645752
208	0x3fac5ff200758503	0.05541950469592829
209	0x3fb9543aeaf66ec5	0.09894150005714682
210	0xbfb0f5b50d42f5c8	-0.06624919484871505
211	0x3fa9b1d57ce2f813	0.050184890265413305
212	0x3fc7041218f1a8a9	0.17981172769515766
213	0x3fac4f0ce89adb72	0.05529060687461297
214	0x3fa63e9348794fbb	0.04344616183939772
215	0x3fcb0445a901e935	0.21106787445371258
216	0x3fb7508ae78cfa99	0.09107273247807725
217	0x3fc2ebec52e94af9	0.1478248028602918
218	0x3fb72e5e49e57e20	0.09055127433884325
219	0x3fc155a2eaca2ea6	0.13542591537804077
220	0x3fba06d29af94906	0.10166660579242057
221	0x3fbe05ee84d992d3	0.11727801078229598
222	0x3fa3c22b02e4d680	0.03859075937581924
223	0x3fc84f59215cf2cc	0.1899215138345397
224	0x3fbea51c1ade11b0	0.11970687538093361
225	0x3fc5cdf1b3dca39f	0.17034741670911743
226	0xbfa2e4cf8fe7fe98	-0.03690193778674916
227	0x3fb396292d6098b7	0.0765100227150438
228	0x3fa0ebce9efea097	0.033049065502667556
229	0x3fa2dbcbbded786c	0.03683315938427331
230	0x3fba16a68e88740d	0.10190812091646269
231	0xbfa3b8b386875678	-0.038518533870655014
232	0x3fc04798e06e5544	0.12718497236770976
233	0x3fa8408487828db7	0.047367230931992514
234	0x3fa51024577265e9	0.04113877837626118
235	0x3fc8465258019c93	0.18964604661161796
236	0x3f91136a44824f2b	0.016675625258883258
237	0x3fa45028a0b85036	0.039674062365662996
238	0x3f60e84e7e7af980	0.002063897427290573
239	0x3fa038a7ec5040a0	0.03168225059209928
240	0x3fb2230f24e2af34	0.07084746027493055
241	0x3fa0367fe047fd4c	0.031665798309399834
242	0x3fac9538249f4803	0.055825952978594294
243	0x3fa24629558de272	0.035691539472229375
244	0x3fa142fa52fd5423	0.03371412528091635
245	0x3fbe8b4e52b7fa76	0.1193131401014201
246	0x3fc3529237f80bb7	0.15095737202508783
247	0x3fc2195b45f33aa7	0.14139882007153412
248	0x3f4b7a725aac0000	0.0008385713930181282
249	0x3fbd5885cb995f2c	0.1146319982593666
250	0x3fabe243735acc28	0.0544606283487144
251	0x3fc4e43deeb30f47	0.16321539073225663
252	0xbfba87bee70a5ff8	-0.1036338151992594
253	0x3fa8c4ae9c6169d1	0.048375565137309125
254	0x3fb0736dfd621394	0.0642613166438209
255	0xbf6b761eba4e2140	-0.0033522224570711467

times f8 [3]
0	0x40630ea09a000000	152.45710468292236
1	0x4063704d71800000	155.50945353507996
2	0x4062f5e5fe000000	151.68432521820068
