package_metadata/openml/phoneme/ground_truth/shap_kernel_3_xgboost.npz (npz, 153588 bytes, 2 tensors)

exp_values f8 [3, 1351, 5]
-0.08046805878318494 0.03940922167605315 0.1156880437842478 -0.05577682353024927 0.09922215997099251 -0.20928436968537104 -0.0721052427917476 -0.014758614910815857
0.11111577269826793 0.09213290055563372 -0.0643446669302366 0.09071126187874276 0.03541610024238969 0.16680774599600337 0.05549990574489438 0.1435161933777153
-0.1556465274429361 0.1048630392319059 -0.06915563451576148 0.055268019856919794 -0.1009346242866319 0.2310717708228287 -0.14316360597371564 0.08466614107349753
-0.04433180683782159 -0.09420078752542609 0.037255317706577244 0.2350251966300145 0.08546176475784929 0.01565877109611602 0.17466698961579635 0.1603170496302695
0.0673340971841571 -0.0691771500126106 0.36334846032216567 0.08561939643990209 0.07247299639912255 0.06541034431648196 0.25404380874849036 0.021330317198543558
0.10309497422313041 0.11632018278733733 0.13802191305759157 0.20854881099326314 0.14564445675358975 -0.03643414546185705 -0.017829849790295726 0.12563390964391716
0.18702818118008116 0.025686946546563012 0.1727176036925597 -0.028433915773438345 0.01937103849368561 0.0931363349413226 0.027394354986080803 0.22146560346053706
-0.0890706169408169 0.03393795160034799 0.09654735542949643 0.020956972060512724 -0.1024780298276438 0.03647071219964221 0.18308011318485579 0.15010792866786735
0.012065195598307432 0.026208629779188863 0.07366554702163529 -0.07794148778212488 0.14610207954983645 0.07065179981024886 0.26024133505703695 -0.07513032824769163
0.08783587223505614 0.16406397209779777 -0.015605423109696648 -0.07379626125545699 0.154548219113976 -0.030959831938136007 0.1637156555277891 0.06398331802802455
0.04282780127218854 0.08307207131750409 0.04514051032542773 0.04273993680131877 0.06921628198372602 0.25069613449132844 0.08000076630862543 0.10698714998028852
0.029517588460628352 0.23321539596173677 -0.013899911575446377 0.046775233889071254 -0.0322264816264886 0.23032653332631373 -0.0024861008423975595 -0.019715527961084223
0.015342684387573156 0.07676082232646615 0.17959972349193837 0.032255709414683385 0.17286929774440193 -0.02786547942438533 0.028360738356173323 0.09064575138060808
0.020209678977382045 -0.09567682623657231 0.15484718070731945 -0.0398624845920829 0.23916978974960657 0.02274165077398177 0.0031913638828189317 0.07063463346004688
-0.03472048265607998 0.22510171211518787 0.01823558814358326 0.16668193963922306 -0.029720552643229314 0.041057399976350474 0.08558205556434179 0.020651807842830945
0.2249203084837186 0.023337423739183905 0.1257426633804253 0.23328971349431962 0.10829452006095373 0.3501585456478453 -0.004899621172237785 0.2586846563914351
0.08518926686663485 -0.00141297277505803 0.20360508006486 -0.05200019558800059 0.024970847260884724 0.09107908533144805 0.016447093163687865 -0.20371307991564566
0.17993237247238747 0.13294110832951408 -0.3204548968206704 0.225093335622098 0.24616799427593447 -0.10888996641149641 0.030636799048975302 0.023584403719086044
0.06377034983149121 -0.12465189451601197 0.0362028087998737 0.16681565893025788 0.2200804916945563 -0.027077362450911857 -0.04352250038151029 -0.17680032732102527
0.06044616462961995 0.2214470173322564 0.1167517293324564 0.05913220711264111 0.23897374949561836 0.13443255683669678 0.17599576251140828 0.034605675849331385
0.32230828879372 -0.08076208424020742 0.20792397621860845 0.16967285827373582 0.016766809743939515 -0.06945317320593691 0.03595046955451478 0.08177340888562297
0.20617928433838964 0.029652516706737297 -0.021902537232648123 0.0891798928405758 0.05050337001949615 0.13957276570335078 0.026904940699285635 0.0555760925040556
0.0902053486255253 -0.08158782788141171 -0.01394232723732404 0.059421982425922795 0.0993554765689008 0.0924033069269399 0.031749171842887905 0.04255084502102831
-0.06359260370414738 0.13328304340625763 0.006318945041150936 0.022604892910071166 0.10324648623183504 0.01864437031843099 0.24368449539411036 0.09237974152319156
-0.1400161991632563 0.17621213720656384 -0.016181795229803675 -0.019173026312847286 0.19215360566580278 0.06468535913028096 -0.2678537514587406 0.21589425640387974
0.1050822244833469 0.0427462002619564 -0.028781010688102626 0.10138249686403705 0.06385516438503701 0.15435067680024345 0.10641623213721782 -0.06537645105782809
0.020350941231069175 0.0684106386284338 -0.0945386353022608 0.04147877096100413 0.20874027383862762 0.13281757143098083 -0.006151308274817413 0.26424682399532373
0.08842743263387554 0.0966420309959662 0.15715525304067343 0.10779278600634258 0.04754919683385461 0.12178818277570859 0.05073267911923156 0.40444434474319413
0.0848444609351781 0.1802295631357048 -0.028903804199948646 0.03450088599214738 0.08106166555900383 0.017338054244263677 0.13222438486864116 -0.055715397844453174
0.04810426151079099 0.12742702983689203 0.03198176163700996 0.18330315706717012 0.039657470822893386 0.042350403170011264 0.010481354847915098 0.008432488707061814
0.06171197123787037 0.02032159487612344 -0.02508557099796676 0.08534827898997435 -0.012156558792707578 0.1629920753923795 0.08747616658872541 -0.05994661796075268
0.05413942039801194 0.08368782405145536 0.044556815089515825 0.10187015019535615 -0.0621908766338623 0.1387340136047003 0.04399159830233485 0.02360778938927578
00000000: aeac d800 8e99 b4bf 48d8 840c 722d a43f
00000010: 8070 974c bb9d bd3f 91d6 dfa1 c78e acbf
00000020: 1a28 1d9c 9f66 b93f 116b ae89 d4c9 cabf
00000030: 5a23 a93b 7d75 b2bf 787b 02c3 c339 8ebf
00000040: 830f cf51 1572 bc3f 30a6 c592 0596 b73f
00000050: 442b 2360 e478 b0bf 56e9 256f da38 b73f
00000060: cbf9 9520 0f22 a23f 09db e2ca f459 c53f
00000070: 7ff7 35d0 7b6a ac3f 3579 8016 bd5e c23f
00000080: 763b 8db4 39ec c3bf 5269 0fdc 4dd8 ba3f
00000090: 9a4e 9404 2fb4 b1bf 25ad 9903 174c ac3f
000000a0: 875a 58fe d9d6 b9bf e03e 5b81 c293 cd3f
000000b0: 9238 d15e 2f53 c2bf d53b fd22 aeac b53f
000000c0: 4402 1599 a8b2 a6bf c3dc adf5 8a1d b8bf
000000d0: d7bd 4d06 2113 a33f 5785 a13e 4e15 ce3f
000000e0: 3183 b17c d2e0 b53f 0073 0357 da08 903f
000000f0: 5699 0be8 7c5b c63f 989c 93e2 4485 c43f
00000100: abc7 4fb1 ce3c b13f 2045 effc 97b5 b1bf
00000110: 93ae 88e6 1941 d73f ddd5 9c1b 27eb b53f
00000120: 7a9a 601d 978d b23f c0cd a879 bbbe b03f
00000130: ebdd 94f6 4042 d03f d0cb 1f5b 9dd7 953f
00000140: 5099 aba6 6e64 ba3f 06b5 efd4 28c7 bd3f
00000150: e35a 5bb9 b3aa c13f dff9 6a39 bab1 ca3f
00000160: 69d8 4c41 7aa4 c23f bbc9 6e0e 7fa7 a2bf
00000170: f0b7 f7f6 fc41 92bf 1f39 989e c514 c03f
00000180: d9a5 cc18 8af0 c73f c206 68cd ad4d 9a3f
00000190: c7c9 a645 9c1b c63f 4065 60c9 c71d 9dbf
000001a0: 839d 4763 00d6 933f a36c a468 c8d7 b73f
000001b0: 267a 0a0b 440d 9c3f 06a5 0622 fc58 cc3f
000001c0: 339c cbfa 54cd b6bf a4f6 6eb0 5060 a13f
000001d0: efc0 15d6 53b7 b83f c00a 7e96 be75 953f
000001e0: f311 ab0a 003c babf a88e 5108 4aac a23f
000001f0: c6a5 564d 2b6f c73f 63d8 3f92 bc36 c33f
00000200: c0d8 1d24 a3b5 883f 902d 195f 6fd6 9a3f
00000210: 87c4 4ccb bedb b23f 7b9b 062d f9f3 b3bf
00000220: 50a6 c512 79b3 c23f baab 9681 3c16 b23f
00000230: 60ca c845 cba7 d03f f1f6 c2be bd3b b3bf
00000240: 954a aa66 697c b63f ac52 4e59 0c00 c53f
00000250: 60ce 2b6f bcf5 8fbf 3ec5 a8d0 4fe4 b2bf
00000260: e1f1 5f6d 3cc8 c33f a0e2 a726 efb3 9fbf
00000270: 1ce3 2a75 a2f4 c43f b580 6bf2 3561 b03f
00000280: bfb3 a58b 86ed a53f 6b08 8515 3644 b53f
00000290: cb19 252f a81c a73f 38ec 964d 02e2 a53f
000002a0: 7b87 7883 28b8 b13f 8aed b7cc 670b d03f
000002b0: fa52 f322 ee7a b43f 2cf1 4186 8263 bb3f
000002c0: 6078 61d4 db39 9e3f 2328 4a89 00da cd3f
000002d0: 9317 128d 8e77 8cbf a3f3 a167 ecf2 a73f
000002e0: 8644 4d49 fd7f a0bf 25cf 0400 577b cd3f
000002f0: 4046 013a bb5d 64bf e0d1 43af 4e30 94bf
00000300: cc78 6b3d fc6b 8f3f dd98 81e5 98a6 b33f
00000310: ce5e 62ad 1ffd c63f 6337 1702 d283 a03f
00000320: 7fb8 25c6 9420 c63f 80a8 42ab c488 9cbf
00000330: 94b3 ebee 980a 9d3f 9378 b359 8f34 b73f
00000340: c801 1599 d8b1 943f acd0 abc7 467e b8bf
00000350: be03 824c 08d2 c33f d612 5207 db68 a4bf
00000360: 8037 959c 1d9d ce3f 9041 5359 9649 973f
00000370: 00f6 3370 c624 6a3f 6b04 ad80 1c15 b23f
00000380: b2b5 0413 e2c6 a1bf a677 e705 22d0 cc3f
00000390: dad0 cc9a 59ac 923f a4ca ca73 d555 c53f
000003a0: 30a3 7c86 106f 9ebf ad7e 50bc 7905 a53f
000003b0: 2cf7 c5a1 b4e8 b53f 2227 275d bf25 953f
000003c0: 2168 924c 30ca cc3f 0046 eefe c3e5 973f
000003d0: 8926 77e9 5518 c03f 9dc4 f9f4 6fdc cd3f
000003e0: 9f70 ff8d 30b9 bb3f 1c3c 7e63 ff68 d63f
000003f0: ae2a 290b a011 74bf d067 cb16 4a8e d03f
00000400: e793 29bb f6ce b53f 0010 faf6 6f26 57bf
00000410: dcc9 1634 bb0f ca3f 0c44 df06 c59f aabf
00000420: 810b 5b31 f591 993f 3121 d97c f550 b73f
00000430: 205c 02bd 81d7 903f 2fa8 002c 4513 cabf
00000440: 2c5b a123 0608 c73f 63dd 48d8 3604 c13f
00000450: 7805 6c41 5582 d4bf f4b0 85c1 dbcf cc3f
00000460: c757 5ece 6e82 cf3f 1194 997c 36e0 bbbf
00000470: 7cbd e0c7 405f 9f3f d031 ad8a 8226 983f
00000480: 6011 fbee 4053 b03f 9ea9 54c2 2fe9 bfbf
00000490: 9039 a3af 2c89 a23f 8977 c82b 375a c53f
000004a0: 7a69 28f9 982b cc3f a021 c108 2bba 9bbf
000004b0: 40b6 8ec7 9448 a6bf f908 e2a3 64a1 c6bf
000004c0: 8275 81b8 ccf2 ae3f 8e90 9e38 6058 cc3f
000004d0: fafd 3bfb 70e3 bd3f b0d0 609f 9346 ae3f
000004e0: a9d4 571b b196 ce3f 95cd 9005 1635 c13f
000004f0: 654c 1c76 0787 c63f 20c6 0ecc d5b7 a13f
00000500: ee51 e6f1 b2a0 d43f 6c88 91ee d2ac b4bf
00000510: e7e3 f4ba 409d ca3f 1dfb a618 d7b7 c53f
00000520: 80ad 088e 512b 913f 40de 85e3 aec7 b1bf
00000530: 6464 0696 1968 a23f ad9f d824 1aef b43f
00000540: f94b ac31 1564 ca3f e084 ffb5 3a5d 9e3f
00000550: a05f 7464 9e6d 96bf df07 3653 7ed4 b63f
00000560: a49e 24e5 93db a93f 41d8 0d38 85dd c13f
00000570: 05f4 9d01 f88c 9b3f a120 7d37 7874 ac3f
00000580: 575a 459e b217 b73f 5f99 809c f0e2 b4bf
00000590: 0891 1d7c cb8d 8cbf 429b 5dde 8e6c ae3f
000005a0: 7bbb 8a4a 5c6f b93f 0220 4b3d bea7 b73f
000005b0: fa06 7b6d 6d41 a03f 5aa1 906f 39c9 a53f
000005c0: dc42 2dd9 9a47 b0bf dc46 4534 6b0f c13f
000005d0: 005e c0e4 e4e1 793f 9e04 1daf bc25 973f
000005e0: d5ea ca99 5c6e ba3f d6b4 1683 8217 933f
000005f0: 9646 21b5 0d31 cf3f c4b0 a7e0 32a6 b73f
00000600: 1280 2802 0dec c1bf 3df0 3a8b 1e8e c63f
00000610: 60d6 35e5 f591 90bf f085 ea03 18a2 93bf
00000620: 3551 1246 7d98 c83f 419c fe3d 388f b03f
00000630: b613 a80f 8424 d1bf 390f 5349 6ca2 cb3f
00000640: ff01 8c2d abe6 ba3f 6e86 4e78 d4e2 a53f
00000650: 50db 9aee c478 9dbf fcf8 6a0c 34f4 b93f
00000660: 67e5 b6e2 cf58 b03f 427b 7c52 c3c1 c33f
00000670: 26fb ca1c 183e bb3f 81cf 38d7 82bc b0bf
00000680: 80fc 1e8c e0d6 943f 828b 9b0f 5c83 b13f
00000690: 0fe9 d41a af33 b8bf 8bf6 8299 b43c a53f
000006a0: d55b bf54 00b8 ca3f 9caa d08a 2a00 c13f
000006b0: c024 e33d 1d32 79bf 246f c882 6be9 d03f
000006c0: 3853 3b23 2ea3 b63f 15f4 8b3a 88bd b83f
000006d0: 6726 1ad0 a91d c43f 0158 a4da 4e98 bb3f
000006e0: 4077 b44a 5e58 a83f b199 0fa6 822d bf3f
000006f0: c6a5 4f3b a2f9 a93f c658 6e88 6ae2 d93f
00000700: 6b9d f6d8 5db8 b53f 1b59 b827 c311 c73f
00000710: a037 1377 f598 9dbf 5de1 09a2 19aa a13f
00000720: 9703 8912 75c0 b43f d650 d21f 11c1 913f
00000730: cb4c 5f88 baec c03f c848 4087 ba86 acbf
00000740: 6662 f92b 1fa1 a83f a04f e366 874f c03f
00000750: 434e 99d8 e95f a03f b7b3 6d54 7a76 c73f
00000760: dfea 73e8 fb4d a43f a0db 2cb9 f3ae a53f
00000770: 3008 51a2 3f77 853f c008 c479 0d45 813f
00000780: 7808 7a24 b698 af3f ed00 9525 2fcf 943f
00000790: cea8 262c 08b0 99bf 9a25 0883 62d9 b53f
000007a0: b098 92b3 89e5 88bf c1a1 a8a0 ecdc c43f
000007b0: f392 ad8a d664 b63f e862 4bb7 52b1 aebf
000007c0: a755 1180 29b8 ab3f e0d8 5fb3 906c b53f
000007d0: f22c 3f9f 26d0 a63f e714 8783 2914 ba3f
000007e0: 5807 818a 7bd7 afbf 6d33 a341 09c2 c13f
000007f0: 79bc 0318 1186 a63f e361 6eed a32c 983f

times f8 [3]
195.86392331123352 193.7336437702179 197.17204523086548
00000000: 0000 8042 a57b 6840 0000 8002 7a37 6840
00000010: 0000 0065 81a5 6840
