package_metadata/openml/electricity/ground_truth/shap_kernel_3_ann.npz (npz, 753649 bytes, 2 tensors)

exp_values f8 [3, 4096, 8]
00000000: cff1 96c1 61ce c13f 0c4e b1b4 bd6f b23f
00000010: c3b2 e661 11fa cabf f9ef 2b27 91fe bc3f
00000020: dd17 5c46 3844 a23f 8f44 1516 a7f6 c13f
00000030: 0094 f47f ab80 6cbf 7796 9b5b 94db b0bf
00000040: e38b 98f3 fa59 9ebf 748e b401 c502 98bf
00000050: 7f6d 48f7 4eb6 c93f 99df 5cef 437f c23f
00000060: 6100 91a9 34ac 9c3f cba7 52fd d50e 8b3f
00000070: 8032 d6e7 bff2 633f 9a21 9d62 34fa 9d3f
00000080: 0021 a7e0 296f 553f 2041 737a 51f2 cb3f
00000090: 65fb b00e a5a6 9bbf 3781 8043 9778 c33f
000000a0: ab16 eae7 7425 9d3f 1d60 19d8 85ea af3f
000000b0: cf55 bc37 73a1 a73f 2bb0 db67 4d41 c2bf
000000c0: 1ab8 8251 1e92 b73f a01d fc02 4540 af3f
000000d0: b049 181d 42e1 c73f 167d 906f 544a a63f
000000e0: 1c86 bfa8 e214 963f 49e3 a5ea efac a33f
000000f0: 2162 8f80 e74d ab3f 683a d8d2 5b08 b8bf
00000100: ac64 d95e 1e6d b6bf 8c43 f1a2 7f54 b2bf
00000110: fdb7 fcf3 5498 d73f 0cc8 d5a7 88b7 a9bf
00000120: cb01 6727 55e0 b0bf 61e8 4a1a 2ce5 9a3f
00000130: 24d1 a99d 3168 a7bf e0fc 5e1d 81af 973f
00000140: 57e1 7694 d525 b4bf 9991 b969 5a03 b0bf
00000150: 2e30 bbb2 4e39 d43f 12f0 935a 7543 b1bf
00000160: f2dc 849e 599d a3bf 32ba 15b2 fd49 a1bf
00000170: f389 e321 16fb a0bf 7e95 0219 1324 b53f
00000180: 1dbd 6568 1b12 b1bf 436c 4fff df95 b5bf
00000190: e9be ef78 f135 dc3f 560a 2e79 429f 9ebf
000001a0: c058 e974 296c 8dbf 25c9 ed8e f214 91bf
000001b0: 3b90 17f9 f577 a63f 7091 d953 fb35 96bf
000001c0: c313 802a 14d0 adbf 3054 6106 6e29 b33f
000001d0: 7e06 1599 da45 d13f e10d 9af1 49bc 90bf
000001e0: 09b3 c2ea 0041 a0bf 607a 0196 f26f 853f
000001f0: 7850 b573 074e 9d3f deaf 217d fa3d a83f
00000200: dca3 eb36 7868 c03f 6324 d649 f3ac b13f
00000210: 806b df06 5840 6b3f 7a1f 9944 a96f a5bf
00000220: 28df 56a0 1531 aa3f 9eef 683d 3080 a43f
00000230: c8c1 14f6 667a 993f 16f3 ee4f e3fc b13f
00000240: 2550 d43f 3863 b93f 033a 6fe1 b709 a93f
00000250: 2e86 fe53 2df4 c83f 3173 b2c4 41d9 b33f
00000260: c04c a6ba c501 933f 89cb 480c 9d1a 9a3f
00000270: 8438 fa75 d63f a63f 5e6c 08b8 63a3 babf
00000280: 1f44 0ebd 66a7 a2bf 0d3b 77c9 0242 9dbf
00000290: 52c8 e153 f839 c23f aad7 c710 be6b b1bf
000002a0: 3607 9787 d4b1 823f b0f1 fca6 61dd a8bf
000002b0: 003d 3066 f134 7e3f a2ae fd77 6a72 b53f
000002c0: 7c7b 51c6 a471 9b3f 22c1 f670 228b ac3f
000002d0: 838a 21c2 2891 da3f 40c0 b1fb 8ad2 793f
000002e0: 8eaa 8864 a15b 8fbf 20e8 7927 80ab 80bf
000002f0: d009 7181 37ec 9fbf c72a 3514 a17f 8c3f
00000300: 0032 ccd7 da55 82bf a9dd 631b 62d8 8ebf
00000310: 708b 6588 23ce db3f e239 0029 5e0d a23f
00000320: 2fc3 f9c0 c6a1 84bf 508f 835a 9705 b33f
00000330: b344 5f0a 2c43 ae3f 235f 4962 0fbc 83bf
00000340: a51f 1de7 4e5e 8cbf 35e6 ad68 d2da 903f
00000350: 8a2c e819 01ef e13f 2094 f049 c8d3 973f
00000360: 0a1f 03bc dbd8 a5bf fd50 7aa4 2226 953f
00000370: 77ee 1295 c390 9f3f 0027 818d c3a8 67bf
00000380: d904 a097 e078 b1bf 5eb0 c16f b80d ad3f
00000390: 45a0 502b 6424 da3f aeb3 94e3 f80c 9c3f
000003a0: 9f62 8ef5 6cba 90bf 4083 0a5c a544 86bf
000003b0: de2c 7b1e 98f5 a0bf 3a14 b5a4 7746 bf3f
000003c0: 0000 0000 0000 0000 d159 05d4 10a0 9ebf
000003d0: 21ac 7d6b a6c7 d13f b416 a1ac a7f5 b33f
000003e0: 18d9 08c4 9d57 94bf 2780 4b91 8e5b a6bf
000003f0: ba61 b5f4 5f96 c0bf c6ae a03d 3dc2 9a3f
00000400: 518b b24c e56d c03f d513 5a36 033d 89bf
00000410: 7c73 5906 31d4 913f c9e9 b629 3837 acbf
00000420: ef29 b26f 9f5f 913f a086 ec77 322f 7ebf
00000430: 68f3 5360 b23f b33f 6088 abee 82e0 8c3f
00000440: ba9b 77d4 ccb7 b0bf d12e 77bc 6435 85bf
00000450: afca c4b7 819a d23f 2793 ea12 dc7f a33f
00000460: bdad 6eb9 89e5 abbf b04d 702a b7ca 82bf
00000470: 477b 0ff0 ea5a abbf 2371 b87b fc43 8e3f
00000480: 7da5 d859 2097 a0bf 7fb2 21e0 e5a5 663f
00000490: 738a 243a 3970 e13f 0204 c7b2 052c 743f
000004a0: 6729 cc5f 834f 87bf 00b0 2856 4f67 59bf
000004b0: 6e3a c87f 4ed7 a1bf c81b a191 080a 80bf
000004c0: 7347 7c3d d6b9 bc3f 6f0d a949 fcaf 9fbf
000004d0: 0ad7 5382 8332 d5bf ef67 a2bd 1f05 b03f
000004e0: 8055 9581 a664 873f 743f 0b59 b193 a43f
000004f0: fd7f e4ed 8cf6 ae3f bf90 b8fd f19a a03f
00000500: cb1d c566 473d 80bf 00c2 d729 4d68 7c3f
00000510: 2fd2 3afc b6dd d53f 1ae0 399b 7d1e 983f
00000520: 01b0 7cbe b3fe 9bbf 9ac7 5e1b 0be2 98bf
00000530: 8a06 6d47 514a a9bf 4d55 35dd 2fa6 a33f
00000540: d994 94c6 962c b43f 5ad6 e248 9dd8 9e3f
00000550: 4c92 d3f1 8461 b43f 0062 84c4 93c7 4b3f
00000560: c338 ba2a d074 933f d065 ba98 8314 923f
00000570: b4a4 ca8f a910 b63f a361 343e 28be a23f
00000580: d298 1ad1 9ae2 8ebf 7ce2 6f96 4e17 a9bf
00000590: 68e5 5380 05ae d73f 0458 39f1 420f a6bf
000005a0: 74d7 f2af a28e a7bf 4098 5577 f005 7b3f
000005b0: de9d 5080 558d 983f 4650 08be 7551 a33f
000005c0: 1730 27fa 971d a5bf a0cc 1ff3 f548 8bbf
000005d0: 040c babd e060 c63f ce64 caa9 21c1 933f
000005e0: d194 8bd1 08c5 9c3f 1ede ed65 2b3f a03f
000005f0: 8ce7 41e1 248b ba3f 750e c2bd c7b5 a13f
00000600: 5e80 d4fc e23b a43f b9e7 7811 a4d1 a63f
00000610: edbb 3ce6 0546 de3f 4034 1345 aade 873f
00000620: 47df de15 6437 a9bf f749 73cc a63c 8f3f
00000630: 3391 d779 862a 93bf 1913 d4cb 5eed a1bf
00000640: 809c af1f cc2a 70bf c6e1 ec91 3b76 b23f
00000650: 27d9 2ec9 86e7 d43f 0a8f 0aae 195b 7a3f
00000660: cc1d bb05 2b95 95bf fe01 d46d 7a27 9cbf
00000670: b268 93e0 29b6 94bf 54e1 3a3c e19e c03f
00000680: f2b9 cbbd 70b5 9dbf 53f1 7c22 d20a a13f
00000690: 9c11 b4a8 9564 d73f 34d6 fa29 0ff6 b63f
000006a0: 84e0 cfb5 43b6 9abf b50b 6e48 666d 9cbf
000006b0: a4ec adf7 7506 99bf 30c8 4083 2883 973f
000006c0: 26e9 7a18 4f33 c93f 5dd5 79f5 98ca b33f
000006d0: 46d9 13d5 0a28 c6bf af3f c53e 7820 c33f
000006e0: a536 73dc 3c3f af3f 4048 6ec8 c98f 9f3f
000006f0: 3a4c 7a65 12a1 b43f fa4f b2e6 2953 a23f
00000700: b187 248b 5456 793f 041e da02 a228 ad3f
00000710: 40fb 1829 6f9f 93bf 47df 77f2 9725 903f
00000720: 7280 3408 1170 983f 6d99 7b7b c0aa af3f
00000730: 7caf c038 a893 bb3f e3ae 49e7 0c41 833f
00000740: 84e1 ec7f 84a1 98bf 8e35 a307 3a13 9b3f
00000750: 2b04 5ea6 9d3e d73f ecf0 1d4b 89b9 a23f
00000760: d4d6 d135 ac12 943f 80b5 a66c d044 69bf
00000770: 2ef6 a113 c1c1 7dbf 255d c564 6cc2 9d3f
00000780: b394 5935 9500 b13f 8a51 1b13 772b b4bf
00000790: 1bc1 a254 3388 943f 9035 d911 3a47 873f
000007a0: 8c91 9fb4 15aa 923f 1db1 4cbb 0d98 993f
000007b0: fbdf 7beb f0af a73f 761f 431a 4ddb 9b3f
000007c0: 8019 54e0 241b 69bf e9db 3969 6f88 a5bf
000007d0: d51b d631 2eed da3f d631 e1cd e5b6 a2bf
000007e0: b17f b174 a3f6 a3bf a211 75ab 6dfa 903f
000007f0: 7a23 842c ae6f adbf b1a0 84cb 3cb6 963f
0.13911077454203144 0.07201753293457375 -0.21075646667795497 0.11325938421572336 0.035676725949130385 0.14033974245333922 -0.003479323349568464 -0.06585051762120907
-0.029640122526085732 -0.023448065022547884 0.20087611269341818 0.14450883090625835 0.028000662660133794 0.013211890977192461 0.0024350879818427207 0.02927476741686661
0.00130824174503813 0.2183324668790272 -0.027002886792839038 0.1521176414107772 0.028463198332721856 0.06233614218643899 0.046153641275093464 -0.14261787005614343
0.09207334032063877 0.06103721295772435 0.186561836439592 0.043535841578199605 0.021564046430176828 0.03842878093104802 0.053328737681742185 -0.09387754342626808
-0.08760251823095427 -0.07160184600912894 0.36867259814141545 -0.05022837685363876 -0.06592304431888533 0.026264847855351884 -0.045716810699476335 0.02313043348089827
-0.07870230555170586 -0.06255116540120866 0.3159977670118249 -0.06743558369993277 -0.03830986080213873 -0.033767631520153066 -0.033165637623614595 0.08258170471761692
-0.0666825418354517 -0.08431816085014625 0.44079243478971236 -0.02990440239546851 -0.014366458778721003 -0.016681470845875474 0.043883978516334264 -0.0216902990272429
-0.058228140056634035 0.07485091834799174 0.26988854360033787 -0.016343264933778804 -0.031745937974255574 0.010467429354489244 0.028617969929954218 0.04734785821423747
0.1281881588140824 0.06904526283882854 0.003326579978403854 -0.04186753237132641 0.05115573484675756 0.04004050016052861 0.024880989808652193 0.07026501370905822
0.09917022283872308 0.048902269619805615 0.19495169259339334 0.07753382732557836 0.01856144859045794 0.025492147326257295 0.0434557932868396 -0.10405562632551965
-0.03643342073258559 -0.028572124048703396 0.14239410491751642 -0.06805026921924076 0.009128246677281387 -0.048564006456646935 0.0073747090964524364 0.08377709798304037
0.02680070362509522 0.0557490122695319 0.4151098151980152 0.006304304984141196 -0.01531148994498224 -0.008139611439435923 -0.03117453315304336 0.0139153084079643
-0.00895281764089706 -0.015061155758742855 0.4344567138670561 0.03525823832034171 -0.010074188961171153 0.07430406532108447 0.05910623194325506 -0.009636039912194477
-0.013851753643066742 0.016459739340893804 0.560425329780075 0.023268823159146135 -0.04267012281485279 0.02065328720944225 0.030825668309928802 -0.002888090075462979
-0.06825069143089325 0.05674530376640584 0.40847114782309674 0.027393235102113493 -0.016336157310066764 -0.0108731192315773 -0.03312373516163246 0.12216899653601923
0.0 -0.029907477322319857 0.2778106736865898 0.07796714748937 -0.019865479555130156 -0.04366727374667816 -0.1295890755525429 0.02613158882756641
0.12835375065795998 -0.01232340345019082 0.017411008846795792 -0.05510879048547996 0.016966334526424317 -0.007369229452508869 0.07519068576580212 0.01410009661544026
-0.06530456721485126 -0.010355746270668405 0.2906803412071594 0.03808486681854211 -0.05448561085298873 -0.009175711615205667 -0.053428022197968654 0.01477811100544863
-0.03240300270801819 0.0027646531826149285 0.5449491630173057 0.004924795397927008 -0.01138212810612478 -0.0015505099078252371 -0.034845784281164124 -0.007831637329344235
0.11221064568624488 -0.030944768901702554 -0.33120811202330513 0.06257818584199958 0.011422444181031777 0.04018930637323495 0.0604747810741628 0.03243213865451499
-0.007929380248824188 0.006935407085152168 0.34165739661992495 0.023553812598464764 -0.02733879900112868 -0.024299787087961634 -0.04939512249849283 0.03837728095337898
0.07880537365106778 0.030123193334210853 0.0796130266567811 0.0008477660676673993 0.019000294311404497 0.017656379887375284 0.08619174728905216 0.03660703429540326
-0.01508065176615184 -0.04900594316854254 0.36999642879489736 -0.043085185953415844 -0.04601009748277721 0.006597461052797071 0.023976646382065307 0.03773086495144233
-0.04124140671373782 -0.013322755319654711 0.17483147872926008 0.01929142569369873 0.028095376767755923 0.03173194522144861 0.10368566989373401 0.034589998163053894
0.039519399035498934 0.04456818307194461 0.473023867455537 0.011655168755533407 -0.04925072447752981 0.015252402414636086 -0.0187169086328975 -0.03501411665096139
-0.003947064741601669 0.07211658775930294 0.32663125654962005 0.006434536277683875 -0.021076843476093107 -0.027494347527865053 -0.02022614892198566 0.1298486274806786
-0.029012452682701757 0.03328568144795221 0.3655141971105651 0.0896920659532377 -0.026085908862996124 -0.027761076136367985 -0.0244387085362915 0.022961266528177926
0.19687832541769373 0.07731014245094543 -0.17309699443985432 0.14942839684453932 0.06102934065857583 0.030821946008991796 0.08058276154979263 0.03579073849792276
0.006185846565388718 0.05695062908949569 -0.019162880786321113 0.015768407987678115 0.023864999891089096 0.061849608491501985 0.10772181878627224 0.009401417549461616
-0.024053640659276634 0.02644053145995922 0.36319676634599557 0.03657177965121314 0.019602480683224524 -0.003084570959990429 -0.007264856534786852 0.02906197896058162
0.06641514351356896 -0.07878822533104404 0.02005081371379545 0.011366323156063257 0.01822694697320197 0.02499410110174082 0.04626419901427422 0.027203755119244964
-0.003064701103201617 -0.042056542963955064 0.4207263456996178 -0.03655164850406194 -0.03899107741813113 0.016580308523104777 -0.05749267857942804 0.022179555818326594

times f8 [3]
00000000: 0000 4607 e9e5 cd40 0000 e650 cef2 cd40
00000010: 0000 46d6 20f8 cd40
15307.820534467697 15333.611843824387 15344.256539106369
