package_metadata/openml/white_wine/ground_truth/shap_kernel_3_xgboost.npz (npz, 272980 bytes, 2 tensors)

exp_values f8 [3, 1163, 11]
0	0xbf9cbfa8596b0d64	-0.02807486577763764
1	0x3fcce02b23fe8d89	0.22559108026062472
2	0x3fa5f492cdd5eee0	0.04288157236712009
3	0xbfb7fd391f31d949	-0.09370762836065184
4	0x3fc4866364b4c185	0.1603512040833374
5	0xbf9bee32d1cd61f8	-0.02727584271937819
6	0x3fa852574a5e5533	0.04750321181124164
7	0xbfb3785a94608ffc	-0.07605520365228807
8	0xbfb06d76544fb4ec	-0.06417026098616291
9	0x0000000000000000	0.0
10	0xbfad10fd38157dd4	-0.05677024182909532
11	0xbfb003a6e7b487a7	-0.06255572468628988
12	0xbfbcb7ea9aacb855	-0.11218134189832203
13	0xbfb688184fd619c7	-0.0880141444123189
14	0x0000000000000000	0.0
15	0xbfbf1277db623a5d	-0.12137555223510206
16	0x3fb2b9320344c4c8	0.07313835696983795
17	0xbf9052c07e19ad58	-0.015940673538734046
18	0xbfc0659f05028911	-0.1281012320005819
19	0xbfa85464ed7bf1bd	-0.04751887701965838
20	0xbfbae1eeadfa1fd5	-0.10500995395170716
21	0xbfc4aa276c50e9a0	-0.16144268788214067
22	0xbfb5a46e4cb466e4	-0.0845402657763788
23	0xbfb806e7af478107	-0.09385536221771328
24	0xbf9c03a54e6d0330	-0.027357657348377973
25	0xbfb23350b84c062f	-0.07109550952375153
26	0x3f9dadbf6ef4d1b0	0.028983107707249267
27	0xbfb45e52b8d76699	-0.07956425678949088
28	0x3fa56d585b2d9874	0.041849862222805095
29	0x3fbf2ab76d9d5e2b	0.12174555231228427
30	0xbf9d3dcc31dde24a	-0.028556051772712622
31	0x0000000000000000	0.0
32	0x3fe4d2ed60a0cecf	0.6507479560154595
33	0x3f87c6682d8f2dc0	0.01160889996562886
34	0x0000000000000000	0.0
35	0x3fb2fa48ddd88b71	0.07413154045256733
36	0x3f91c9c695c7ec68	0.017371275798705815
37	0xbfb1e636bb369223	-0.06991903372415513
38	0x3fbb93dafce876cf	0.1077248446894956
39	0x3fa2b0d7b6fc82b7	0.036505452239230456
40	0xbfc1500f1e3333a2	-0.1352557084523172
41	0x3fd03946b3bf6163	0.25349586060976587
42	0x3fbb7871c63c6072	0.10730658616773939
43	0x3fdf49270bf16d8b	0.4888398758536929
44	0xbfa9a746f35d8108	-0.0501043483807298
45	0x3fc187d10f4a4936	0.13695729490843583
46	0xbfb59d32c41b71ff	-0.08442990577481878
47	0x3f85f5096f0b80c0	0.010721276952097347
48	0x3fbacf46b461ff0d	0.10472528365971474
49	0xbfd3212bd8dbe075	-0.29889961412073457
50	0x3fb1822f698af0ec	0.06839271857001322
51	0x3fdaa1c3f5c27141	0.4161233806605829
52	0x0000000000000000	0.0
53	0x3f883caf89ad2a9e	0.011834498776484733
54	0x3fe1fb92b3aba3d6	0.5619596013249246
55	0xbfc305dbfbcce6cf	-0.14861631197873357
56	0xbfb34a745458f741	-0.07535483416810697
57	0xbfbcf097e93f5d4a	-0.11304616398353065
58	0x3fc602aaa0f1e083	0.1719563756812513
59	0xbfb58661d59db6c1	-0.08408175912128525
60	0x3fb70274341a4e5a	0.08988119384803764
61	0x3fb8b3a80299fe9d	0.09649133742822831
62	0x0000000000000000	0.0
63	0xbfb271d5b4dbddc4	-0.07204948106288273
64	0xbfb7e541593ec8eb	-0.09334190777625266
65	0x3fda71ea23c60e34	0.4132027959205715
66	0xbfb94732f6b35f41	-0.09874266169515257
67	0xbfd0fc928a1c3f79	-0.26541579711282953
68	0x0000000000000000	0.0
69	0x3fcb69779353d97a	0.21415610021331216
70	0xbfbef00e5d18dc97	-0.12085046551588828
71	0xbfe1aabe28e3452d	-0.552092628344473
72	0xbfcdb5ff363d5e8c	-0.2321166052668001
73	0xbfb9003cd438d7e8	-0.09765987569048173
74	0x3fc21672aa55cacd	0.14131005589623272
75	0xbf9dad755d825960	-0.02898200400576323
76	0x3fd72132c3b78349	0.3614012633607229
77	0x3fb54c4bc6388d6a	0.0831954344690097
78	0xbfc8b6dce9b91cd4	-0.193080534098249
79	0x3f88f159f6a70ec0	0.012179091300715483
80	0xbfade3219a80a2e9	-0.05837349902168915
81	0xbfc24ec17e1e54ad	-0.14302843721512684
82	0xbfca665fcdbbf629	-0.2062492136537213
83	0x3fbc8193242a8d32	0.11135215409244806
84	0x3fcf945f67e0e9ec	0.24671547481723566
85	0xbfa097cfeae3c2f6	-0.03240823499971228
86	0x0000000000000000	0.0
87	0x3fe5777a4c749f26	0.6708346837303665
88	0xbfb32847b3fa42c4	-0.07483337539657514
89	0xbfe0db1fa150cbc1	-0.526748480863141
90	0x3fbd5efcb4d2c65d	0.11473063864357287
91	0x3fbfbbc473e59659	0.12395885304939593
92	0xbfd119f899297556	-0.2672101493570457
93	0x3fb919c4ade78213	0.09804944272719522
94	0x3fb95148c2e3dc22	0.09889654882486856
95	0x3fb265de456657b3	0.07186688608484708
96	0x3fccb47a11d11cb0	0.2242577158924397
97	0x0000000000000000	0.0
98	0xbfda1c9fec2803a5	-0.4079971128667757
99	0x3fb5710f49c66979	0.08375640441082578
100	0x0000000000000000	0.0
101	0x3fa4742c29c40426	0.0399488259299761
102	0x3fc1f3dcfba10add	0.14025461470199377
103	0xbfb85e457aac8890	-0.09518846745462128
104	0x3fc198018a0138ee	0.1374513553477707
105	0x3fb466f537dcb897	0.079696012628775
106	0xbfb0441775a4797b	-0.06353899595385386
107	0xbfc388ffacdf1449	-0.15261836949335564
108	0x3fb5595e62166f31	0.08339490790097838
109	0xbfd287014ec2ca46	-0.2894900578641323
110	0x0000000000000000	0.0
111	0xbfce02829f726f88	-0.23445160661219355
112	0xbfaeb5d482d40974	-0.05998100373291751
113	0x3fbac5e7031db198	0.10458225084375383
114	0x3fc718562a78904a	0.1804301936509794
115	0x3fc5d1d5a67f4e94	0.170466142938143
116	0xbfc231efb5ce414f	-0.1421489370081965
117	0xbfaabbd3c1b92256	-0.05221425761971392
118	0x3fd179275b896ed7	0.2730196374811675
119	0x3fb02ec942c6ceec	0.06321390037811242
120	0xbfd1852bca9b0eb5	-0.27375311647140715
121	0xbf9de578b66283cf	-0.029195676929365363
122	0x3fa98a6c261c46f0	0.04988420453277154
123	0xbfb3563d6fbbe438	-0.07553466775779405
124	0x3fc57ee08056bab8	0.16793447748701396
125	0xbfb9c5218a5c9f1d	-0.10066423061345771
126	0x3fab92cd4e8d8c4f	0.053854385222415695
127	0xbfb87d73ba348b9e	-0.09566424652125113
128	0xbfe064ead5e0b906	-0.5123190095235095
129	0xbfb7f0cb216a41b4	-0.09351796689794051
130	0x0000000000000000	0.0
131	0xbfd521e33679b785	-0.3301933319079285
132	0x3fc13b33f7e01f58	0.1346192322091564
133	0x3fc7156cbb7dbd98	0.18034133105127803
134	0x3fc4876916652678	0.16038240045081742
135	0x3fc7d33fcdfdc9e8	0.18613431509181955
136	0xbfc99717c36286ba	-0.19992348709370394
137	0x3fd11241b5e0641c	0.2667392994058575
138	0xbfc33f6d2c8bd1a5	-0.15037312197786182
139	0xbfc2c70fb89dbbc3	-0.1466998721548106
140	0xbfa60a932c8cc58a	-0.04304943007299318
141	0x0000000000000000	0.0
142	0xbfd1674fcc37b633	-0.2719306463539823
143	0x3fb664307675b741	0.0874662675102771
144	0xbfb9a2fe1a27c077	-0.10014331949764875
145	0x3fa8b8e73da2d637	0.04828570010560578
146	0xbfd17d618c2bda22	-0.27327765167811624
147	0x3fc6e2d8c8493930	0.178797815128243
148	0x0000000000000000	0.0
149	0x3f93d31fcd7da268	0.019360062520180327
150	0x3fa76c3043ab7b38	0.04574728799865685
151	0xbfa54585f5e340b1	-0.041546045556630225
152	0x3f99e3fc6a65478c	0.02528376006495807
153	0xbfc1036f108cbe24	-0.13291729267210528
154	0x3fa273d8b51adf5f	0.03604008875612296
155	0x3fc53c3dcfb9bae2	0.16590092318389
156	0x0000000000000000	0.0
157	0xbfc4834b0fea58c5	-0.16025675084228488
158	0xbfa8a3d8578be727	-0.04812503880198298
159	0x3fa192c1fc59b614	0.034322797827240376
160	0x3fc5bf332081cf4c	0.16989745223292585
161	0x3fd17eecdcdbe0f2	0.2733719021630484
162	0xbfc477b846d867c0	-0.15990355929608135
163	0xbfb5789c1fc9376f	-0.08387161041284029
164	0xbfaf8411098cdf2f	-0.06155446282940457
165	0xbfc1d3876106bc5f	-0.13926784741986162
166	0x3fccc9b51a615851	0.22490562236879666
167	0xbf96892e00a624e4	-0.022007674016582338
168	0xbfdb28a2919148ca	-0.4243551656301291
169	0x3fafebc34aca6910	0.06234560287448876
170	0xbfb04d7982accd61	-0.06368216934497674
171	0xbfb8feb83ca3e9e8	-0.09763671379543093
172	0xbfd5a8b84898c8f3	-0.3384228428796085
173	0xbfa70279513e01a0	-0.0449407493279097
174	0x0000000000000000	0.0
175	0xbfbf4f8a98931ce4	-0.1223074553009727
176	0x3fa080f51285569a	0.03223386622509601
177	0xbfafbf5672847155	-0.06200666568676875
178	0x3fb0e6b32bdbf38a	0.06602020092755204
179	0x3fae8607d020b719	0.059616321712708316
180	0x3fa44b0cd7347f1c	0.03963508727087925
181	0x3fbaf1a0569274ee	0.10524942506386356
182	0x3fa099fb3af75f12	0.0324247846107807
183	0xbfab0df732abea5a	-0.05284092420148019
184	0x0000000000000000	0.0
185	0x3fbaf51a8d5c10e6	0.10530248595393096
186	0xbfd1c9b792355e90	-0.27793683317347817
187	0x0000000000000000	0.0
188	0xbfad49e1e236f14c	-0.0572043026581662
189	0x3fb9fa4ebca8478c	0.10147564035312778
190	0xbfc5d2296e8a5ba8	-0.17047613046153498
191	0xbfa7aac9b8f6e164	-0.046224883869799865
192	0xbfc3ce603662f78b	-0.15473559051127625
193	0xbfae8735f32e7a7d	-0.05962532609486446
194	0x3fd1c712d36fa760	0.27777548454343126
195	0x3fb0fc5e284abcdd	0.06635082706155822
196	0x3fafde1243ca4fd0	0.06224114491956778
197	0x3fcbc972d59be531	0.21708522253155985
198	0xbfa0837d14e472a7	-0.03225317840608471
199	0x3fb19f680d47516f	0.06883859943565594
200	0x3fabcb79774a8e1f	0.05428676205817972
201	0x3fa016b57d761f02	0.03142325550567017
202	0xbfa57560d818a914	-0.04191115034002926
203	0x3fb7ad6ea967ef7a	0.09249011646164532
204	0xbfb0e4e175c7e862	-0.0659924423743248
205	0xbfb338846fcd587c	-0.07508113603157257
206	0x3fa77c1b39fb6e1a	0.04586873133458998
207	0xbfb411549f33b896	-0.07838944327133598
208	0x0000000000000000	0.0
209	0xbf94d295cd468bcc	-0.020334568647409942
210	0xbfcb3e7e5dda8907	-0.21284465391824645
211	0xbfadaede7228965f	-0.05797476905381126
212	0xbfb58064afd525d6	-0.08399037640369697
213	0x3fc22748b58fc50b	0.14182385316193122
214	0xbfd416776fe241b0	-0.31387124944833555
215	0x0000000000000000	0.0
216	0xbf918ae5ff586f80	-0.01713141795163109
217	0xbfb6396d20c0ef98	-0.0868137555088978
218	0xbf95f64e2244c07f	-0.021447392312609722
219	0xbfc3b62a9ddc2d3f	-0.1539967795182324
220	0x3fa119e6d4b13415	0.033400739158061445
221	0x3fe5198a3ba4a231	0.6593676724342626
222	0x3fc59d4cc5de5d2d	0.16886291181138216
223	0x3fd90c05ec3d66a5	0.3913588339833985
224	0x3fb286f5c7f2b49f	0.07237182742638247
225	0x3fb3a8b577c80bf5	0.07679304289199236
226	0xbfb041c86731498f	-0.06350376624440045
227	0xbfcdb73931ba037f	-0.23215403488213934
228	0x3fc5feaa178b5105	0.17183424138659845
229	0x0000000000000000	0.0
230	0xbf9d128be6592dc0	-0.028391061720226096
231	0x0000000000000000	0.0
232	0xbfa72b3b3cbcda19	-0.045251704372663855
233	0x3faf729e4c6283b0	0.06142134363586338
234	0xbfc5a8d25e7a3571	-0.1692145310702631
235	0x3fc057e5714a8f18	0.12768238097952955
236	0xbfc33c18bc38866d	-0.1502715033575898
237	0x3fae64eaf4fb4800	0.05936369171617173
238	0x3fd3444f90dd63ec	0.30104436060861306
239	0x3fb1a66b1512a6f2	0.0689455915877735
240	0xbfa175425cf78cb0	-0.03409774193621595
241	0x3fcf3aa8ea9c9bd4	0.24397765594150533
242	0x0000000000000000	0.0
243	0xbfbe7b1b988bd987	-0.11906597589754685
244	0xbfae4b32e2a0c089	-0.059167471088927455
245	0x3fb56dbadb44ae73	0.08370559552411709
246	0x3fc1e9c504cb06fc	0.13994658216511613
247	0xbfa0bc968baf174c	-0.03268881278158506
248	0x3fc8317d9df51a07	0.1890103360439783
249	0xbfa74bd4c5fd9fbf	-0.04550042073134319
250	0xbf7a9e973f4a8850	-0.006498900231834595
251	0x3fab38d9da41c2cd	0.0531681136061529
252	0xbfbd0c1b1878ccd5	-0.11346597049196146
253	0x3fb30d9cdea5cb4e	0.07442646442158926
254	0xbfccb651000b33ec	-0.22431385519158142
255	0xbfc76d06b97da521	-0.18301471764724744

times f8 [3]
0	0x40c82f9926560000	12383.196482419968
1	0x40c84c6a41780000	12440.830122947693
2	0x40c85cdabe440000	12473.708931446075
