package_metadata/openml/naval_propulsion_plant/ground_truth/shap_kernel_3_xgboost.npz (npz, 723126 bytes, 2 tensors)

exp_values f8 [3, 2984, 14]
0	0xbfc0aec7e70ce210	-0.13033388883356212
1	0x0000000000000000	0.0
2	0x0000000000000000	0.0
3	0xbfb08ae8fe7d2d38	-0.06461960042104387
4	0x3ffa1696e9cc4422	1.630515015862564
5	0x0000000000000000	0.0
6	0x0000000000000000	0.0
7	0x3fc6f46e8a541f7b	0.17933446649862703
8	0x3ffcb8e971fe75ed	1.7951445057764162
9	0xbff590b775091f9b	-1.347831208391631
10	0xbfb8dc1857e68f50	-0.09710838457118354
11	0xbfe3a0ffb5df073f	-0.6134031822368583
12	0x3fb1d94ec043d046	0.06972210115401464
13	0x3fa0241ef6311000	0.03152558093327684
14	0x3f9fe2f03a244d0a	0.031139138745015983
15	0x0000000000000000	0.0
16	0x3fde354259a46c62	0.4720006823933486
17	0x0000000000000000	0.0
18	0xbfa5ff6bf0b0be93	-0.04296433747401553
19	0x0000000000000000	0.0
20	0x0000000000000000	0.0
21	0x3fb5e315d53d766b	0.08549629646355476
22	0x3fe6f64f50d378e5	0.7175671175607731
23	0xbff3067578946294	-1.1890768728391423
24	0xbf952943d9a6a8cb	-0.02066522613464698
25	0xbfd473022106c7ad	-0.3195195505642186
26	0xbf8ea462075734b0	-0.014961973046320715
27	0x3fa4704ea98572dd	0.039919336503521065
28	0x3fa2aaead08b146d	0.036460245091384326
29	0x0000000000000000	0.0
30	0x3fc08bd496c3ab64	0.1292672859338736
31	0xbf7ca5bf60269700	-0.006994006691831478
32	0xbfb1337ecd0d4a24	-0.06719200616979798
33	0x0000000000000000	0.0
34	0x0000000000000000	0.0
35	0x3fb8529171e2cd7a	0.09500988989275597
36	0x3fe365da918249df	0.606183323094509
37	0xbff6b796fd1a82ca	-1.4198217284066907
38	0xbfab623e2a73d5c9	-0.05348390835016976
39	0xbfe02a5ac4844d03	-0.5051702345103027
40	0x0000000000000000	0.0
41	0x3fa767dc45f57303	0.04571426729191865
42	0x3fa51016d040acfe	0.041138375207390596
43	0x0000000000000000	0.0
44	0xbfc7561f0ec822c9	-0.18231571409002914
45	0x0000000000000000	0.0
46	0xbfd064c4703b60af	-0.25615035019064697
47	0x0000000000000000	0.0
48	0x0000000000000000	0.0
49	0xbfb2bfc57ad222ce	-0.07323869942241432
50	0xbffa9b0ffd5aab0e	-1.6628570458075873
51	0x3febc1ffa62955d2	0.86743147328769
52	0x3fb4d7d4765696e8	0.0814183033858985
53	0x3fb293119a29c1af	0.07255659116504519
54	0xbf8f15c58b0978c1	-0.015178244882175897
55	0xbf885b4f07387680	-0.011892907531598995
56	0xbfdf9f1715f62459	-0.4940850939243027
57	0x0000000000000000	0.0
58	0x3fc2a20b748616d7	0.14557021321905125
59	0x3fa081cfef3bef9c	0.032240388825783145
60	0x3fe87a864c4e2c7e	0.7649566164340198
61	0x0000000000000000	0.0
62	0x0000000000000000	0.0
63	0x3fb77c89e76057a1	0.09174405955158572
64	0x3ffa9b6d682fa393	1.6629461354989175
65	0xbff6696c367104ab	-1.4007379652614798
66	0xbfc28cde2ce34bec	-0.14492394630232697
67	0xbfec63b43541e663	-0.8871708908256547
68	0x3fa4ea877be22120	0.04085181605575117
69	0x0000000000000000	0.0
70	0x3fa19ed778d75bd3	0.03441499090302327
71	0x0000000000000000	0.0
72	0xbfd159b0df212f6d	-0.2710992983818333
73	0x3f8b13aae7ebe247	0.013221106722526644
74	0xbfbeda8d9883a2ca	-0.12052235578051831
75	0xbf8505c6a02374aa	-0.010264922868765975
76	0x0000000000000000	0.0
77	0x0000000000000000	0.0
78	0x3fb37b388cb94735	0.07609895167959453
79	0x3ff14246aa387d29	1.078680672573521
80	0x3f9f301ccec890a6	0.030456972237644785
81	0x3fd4a1996a5a1a4f	0.3223632372468374
82	0x3f67a5b55e102c00	0.0028866331417751745
83	0x0000000000000000	0.0
84	0x3fa38ae29288f350	0.038168983829086955
85	0x0000000000000000	0.0
86	0x3fca0570bc31eb48	0.20329102696617896
87	0x0000000000000000	0.0
88	0x3fa3d11003bd5a2b	0.03870439572954284
89	0x0000000000000000	0.0
90	0x0000000000000000	0.0
91	0x3fbdb40787681109	0.11602828079054829
92	0x3ff715213f797b0e	1.4426586608385068
93	0xbff974ea7452b854	-1.5910439056274486
94	0xbfd0a8297a50ab7e	-0.2602637953265726
95	0xbfe95053e6c4e270	-0.7910556323250386
96	0x3fb78312b210134a	0.09184376570926847
97	0xbfab252b4eb20ff4	-0.05301795325888739
98	0x3fa1dafcb783d003	0.0348738645569995
99	0x0000000000000000	0.0
100	0x3faccef503e0788f	0.05626645729374601
101	0x3f79e9616126a400	0.0063260845076138494
102	0xbfa0718e298314f8	-0.03211635834444765
103	0x0000000000000000	0.0
104	0x0000000000000000	0.0
105	0xbfa1b3c915766c81	-0.034574779386468364
106	0x3fd95b1340ac789c	0.396183789403844
107	0x3fc90f291043711d	0.1957751588260032
108	0x3fa090e7aeabbbcc	0.03235553748333295
109	0x3fc1f652454d1675	0.14032963165134374
110	0x0000000000000000	0.0
111	0x3f7febf0f37e6854	0.007793370452327936
112	0x3fa167d3e9ef79ff	0.033995268160413865
113	0x0000000000000000	0.0
114	0x3fd7ea8ed6e508bc	0.37369128213698466
115	0x0000000000000000	0.0
116	0xbf9881d6c145e2ca	-0.023932796045729877
117	0x0000000000000000	0.0
118	0x0000000000000000	0.0
119	0x3fafb8856ff22a2f	0.06195466033485208
120	0x3ff183b7b36013e7	1.094657612499981
121	0xbfb0246c3736b34b	-0.06305576656332083
122	0xbf8b6923308f0200	-0.013384127540008173
123	0x3fc445ee201d7075	0.15838409965624903
124	0x3f909e34f7ec6450	0.01622851145939236
125	0x3f9b64d1e6198a2d	0.02675178496282109
126	0x0000000000000000	0.0
127	0x0000000000000000	0.0
128	0xbf930c8c1c8ec080	-0.01860255169202718
129	0xbfa3811a9cde64be	-0.0380943600168364
130	0xbfe349774a62f99e	-0.6027180149902056
131	0x0000000000000000	0.0
132	0x0000000000000000	0.0
133	0xbfbb0a6fe128e208	-0.1056280064302727
134	0xc004745e242037a1	-2.5568201849300327
135	0x3ff2e5540843fa9e	1.1809883425591248
136	0x3fba4ad4b7edc77e	0.10270432939958415
137	0x3fdc88b6be218fa4	0.4458443505047802
138	0xbfa444be5f649651	-0.039586972374575986
139	0xbfabb60e1cfcb6ee	-0.05412334541175122
140	0x3fa0aa1a1a889eec	0.03254777501962089
141	0x0000000000000000	0.0
142	0x0000000000000000	0.0
143	0xbfa1ee0a35b24317	-0.03501922517273764
144	0xbfb37ee1b393a4fb	-0.07615481027791653
145	0x0000000000000000	0.0
146	0x0000000000000000	0.0
147	0x3faad74672a18ae6	0.052423669331593634
148	0x3fd00a45f3940536	0.25062702929433855
149	0xbff50e985cbf7202	-1.3160632727586976
150	0xbfa0e3c72d12e92b	-0.032987808468038025
151	0xbfd545f7f009fefe	-0.33239553872407146
152	0xbf973c85ab499a3c	-0.022691811160621564
153	0x3f9c6b48beac5f40	0.027753006589676277
154	0x3f9d2789990eb7de	0.02847113606156159
155	0x0000000000000000	0.0
156	0x3fc4090fcb640733	0.15652654105365968
157	0x0000000000000000	0.0
158	0xbfd13627314e5164	-0.2689302426818101
159	0x3f9280c1822cbdc8	0.018069289751279333
160	0x0000000000000000	0.0
161	0xbfc04d5b61b7ea68	-0.1273607470646596
162	0xbff80ee2e2ea9e1e	-1.5036343444752513
163	0x3ff59eff05e10058	1.3513174276013356
164	0x3fb257172da61be8	0.07164139618372156
165	0x3fc82413811e0223	0.1886009579138924
166	0xbfa53e98971b22f0	-0.041493195004994265
167	0x0000000000000000	0.0
168	0x3f9f9d9626189bfd	0.03087458236236883
169	0x0000000000000000	0.0
170	0x3fd982f8b8f5660c	0.3986188703762259
171	0x3fb75472781d0508	0.09113231117682485
172	0xbfa22e43b7130a80	-0.03550922021670022
173	0x0000000000000000	0.0
174	0x0000000000000000	0.0
175	0x3fc174da960b89aa	0.1363785965578022
176	0x3ff69e0dee6dad61	1.4135875047312185
177	0xbfefb85cab864751	-0.9912551260078805
178	0x0000000000000000	0.0
179	0xbfb4107f783c9aca	-0.07837673840968332
180	0x3fc102e3a9b8261d	0.13290067469670044
181	0x3fae970a998bc91b	0.05974610447255398
182	0x0000000000000000	0.0
183	0x0000000000000000	0.0
184	0x3fb728791c57dafe	0.0904613203236799
185	0xbfa1ae092b653e53	-0.03453091292123802
186	0xbfcbd47f71d6b9d5	-0.21742241915258256
187	0x3fa37ccc35d21a3c	0.03806150586119769
188	0x0000000000000000	0.0
189	0xbfb59ce77a0bbb3e	-0.0844254181827013
190	0xbff57e11311f3982	-1.3432781142069818
191	0x3ff2e4175d72dfaa	1.1806863451329073
192	0x3fb596f725baef57	0.08433479949138466
193	0x3fe38f663bf27022	0.6112548037376693
194	0xbfaf55b04b6ad25a	-0.0612006275236225
195	0x0000000000000000	0.0
196	0x3fa125826810ce8d	0.033489299014402986
197	0x0000000000000000	0.0
198	0x3fa9bd506413deb9	0.05027247640276528
199	0x0000000000000000	0.0
200	0xbfcbe1eb0e2716f3	-0.2178319758515311
201	0x0000000000000000	0.0
202	0x0000000000000000	0.0
203	0xbfbc57b2e7619b56	-0.11071317814785905
204	0xbff51d5c43e11490	-1.3196680690319091
205	0x3ff54de43c6b83c0	1.3315164909511026
206	0x3fb60b394c4a0bab	0.08610876190691268
207	0x3fe5aa35e343c867	0.6770276488080186
208	0xbfada8ed9ff781b6	-0.05792944505424506
209	0xbf9e5ef263362a90	-0.029659068398852073
210	0x3fa0d2b9d7befd12	0.032857711397349956
211	0x3f808aa12aff7480	0.008076914906206989
212	0x3fd67fc389862b55	0.3515480845459725
213	0x3f871c4bfa04ac08	0.011284440581752278
214	0xbfa4191fade3257b	-0.03925417897842017
215	0x0000000000000000	0.0
216	0x0000000000000000	0.0
217	0x3fac70ba4fe3e1d0	0.05554754471990331
218	0x3ff036851578a920	1.0133105124210218
219	0xbfac9b08d534bcf3	-0.055870319391368904
220	0x0000000000000000	0.0
221	0x3fc0f604845c2c37	0.13250786269085932
222	0x0000000000000000	0.0
223	0x3f9f017bad9ba6fd	0.03027909514540904
224	0x3f9f66501c1fc118	0.03066373035102385
225	0x0000000000000000	0.0
226	0x3fb672483eca774e	0.08768130810719052
227	0xbfa37a6cd09d1550	-0.038043404069450504
228	0xbfcb7bcebd34f902	-0.21471580732936252
229	0x3fa4506c3663102b	0.03967607654479396
230	0x0000000000000000	0.0
231	0xbfba971f6a99775c	-0.1038684497120505
232	0xbff146d60bdd2a82	-1.0797939742502938
233	0x3ff553f3a389b3a2	1.3329960239600287
234	0x3fb1b94858384fc3	0.06923343805129804
235	0x3feb3845e03eb4ca	0.8506192569526771
236	0x0000000000000000	0.0
237	0x0000000000000000	0.0
238	0x3fa2536426a4da0d	0.03579247447708065
239	0x0000000000000000	0.0
240	0xbfd347f442df221e	-0.3012667325060948
241	0x0000000000000000	0.0
242	0xbfb7aabddcf362e3	-0.09244906086258768
243	0xbf837bea52ba6879	-0.009513693475401862
244	0x0000000000000000	0.0
245	0xbf926e2a60421fa1	-0.017998373150959094
246	0x3fce3bbc83d68815	0.23619800984766984
247	0xbfcea66d252dbb50	-0.23945392909396412
248	0x3f9fcd4ec549fed9	0.031056624213760074
249	0x0000000000000000	0.0
250	0x3f76cd8164acdf80	0.005567079012330001
251	0x3f89ff24d9f77edf	0.012693679715936877
252	0x3fa21235f19faef5	0.03529518675335722
253	0x0000000000000000	0.0
254	0x3fc14b648ef4d6c7	0.13511330585759238
255	0x3fb03adf6aeb1781	0.0633983264952729

times f8 [3]
0	0x40f31fdfcabd0000	78333.9869966507
1	0x40f3229c7928c000	78377.77957987785
2	0x40f31c12e69a8000	78273.18129968643
