package_metadata/openml/naval_propulsion_plant/ground_truth/shap_kernel_3_ann.npz (npz, 725343 bytes, 2 tensors)

exp_values f8 [3, 2984, 14]
-1.2725190252732805 -2.966527128068473 -2.201572069909735 0.0 7.808626246068865 0.0 -1.4148134002834098 0.0
11.413075140251646 -2.4859819359390576 -5.871719704010331 -0.2562246299743074 0.0 -1.3457146245465188 -1.1230807007450165 -1.6885075546813946
-1.6199041622736792 0.0 5.087379966274093 0.38258598487160794 -1.110742250009592 0.0 7.825141631537472 -1.8328618664451064
-4.745445321318005 0.0 0.0 -1.3667439851786267 -1.1380903601727985 -1.6883339785946159 -1.6673596159865776 0.0
4.834173005103642 0.4097012681858463 -1.0870641153988176 0.0 7.450250127043134 -1.9713120943157345 -4.877282281016162 0.0
0.0 -1.431594250930711 0.8731676171617018 1.5681876594953268 1.1907748229992414 0.0 -4.325130036554916 -0.4760347968134604
0.8950770849195824 0.0 -6.402913429544417 1.159553924534035 3.6183369234916682 0.0 0.0 0.8817630922332043
-1.2141195815932038 -2.86932149535328 -2.250335301621565 0.0 7.468837143760222 0.0 -1.4042385802593287 0.0
10.779179059612966 -2.438985596648794 -6.033910737713756 -0.3399950747215111 0.0 -1.6269381153406652 0.7330623580912214 1.0486811128343831
0.9433989613917467 0.0 -2.697316550060791 0.0 0.5810476715074646 0.3562042596765951 -2.226812425636986 0.626040834062811
1.529763403787417 0.0 0.0 0.2680469230967173 -1.3444782792080252 -2.333443147327522 -2.3782996958960383 0.0
6.2384468666649715 0.0 -1.343435562653882 0.0 11.14101884002888 -2.554414278616202 -6.244352360240235 -0.20685992756154625
0.0 -1.8236972164259349 0.204788183443963 0.2934497920687135 0.274655441779937 0.13718778700498357 -1.3644985198656796 0.20216298252389567
0.0 0.45117692195255643 1.0868743488673505 0.0 -0.7009536438193898 0.20545518915093872 0.0 0.0
-0.30875209025764794 -0.4986373582663463 -0.450486930387855 0.530262232121375 2.1662395517853414 0.0 -0.44444368116131583 0.0
5.47369812008426 -0.952166718456714 -2.8882476880569214 0.0 0.0 -1.001363087910493 1.1452940931008935 2.343442912098742
2.2509199712029693 0.0 -6.790711957787353 0.0 1.4817399016764385 -1.1798678099641562 -15.872078722741799 3.4701401501543137
8.585717821137454 0.0 0.0 2.9057856422580253 -0.40245205866276823 -0.6291047659921766 -0.5596396168791183 0.4565792225255032
1.6160501323256455 0.0 -0.5498965919269283 0.0 4.000402264169735 -1.069189519685138 -3.2757207746668584 0.0
0.0 -1.0163368036832077 1.030485143741965 2.057103254734848 1.518659132906805 0.0 -4.860591214697369 -0.6335769585525186
1.172680031375505 0.0 -10.341596072396738 2.080635375344797 6.036054830343018 0.0 0.0 1.8052741959799077
-1.059682478767924 -1.5554437034720792 -1.5106146359720776 0.48819156050463763 5.028197667351986 0.0 -1.0450319250600408 0.0
8.927373037363303 -1.8418575995405144 -4.802114306808126 0.0 0.0 -1.4670553236692652 1.0589789498712225 2.0258260626876115
1.588841298776772 0.0 -4.839750279804433 -0.6183645219415026 1.1868481830778348 0.0 -10.03539183994659 2.157115685696437
6.034741480256963 0.0 0.0 1.7253935794079287 1.037282733969381 2.056970849484066 1.5524742370959745 0.0
-4.852980125442727 -0.6693910439606099 1.2210591500125492 0.0 -9.96730888236418 2.1768901124314413 6.099059925467134 0.0
0.0 1.7698333869469989 -0.30860740390729013 -0.49721592879163795 -0.45097657738218494 0.5326299162704198 2.2648967653431913 0.0
-0.42939077157570316 0.0 5.300122769461226 -0.942559446162176 -2.8385993284748516 0.0 0.0 -1.007688570122516
1.0190477330776213 2.074802688548024 1.6095842705269785 0.0 -4.811955945917359 -0.6442315948755701 1.2077405308406852 0.0
-9.449267730821518 2.265438903168119 6.051666333030091 0.0 0.0 1.698558834394333 0.24533429119502623 0.22047502371492808
0.22090033146001065 0.0 -1.5058288243900937 0.18237565064649328 0.0 0.4020499606483319 0.6701873511765863 0.0
-0.9426281437674157 0.17931621917320195 0.12623300263042608 0.0 -0.35134747282527345 -0.5686418790097227 -0.5278763222613819 0.5171066140516078
00000000: 7562 d1e8 3c5c f4bf d501 2e93 72bb 07c0
00000010: 0b65 40d1 d19c 01c0 0000 0000 0000 0000
00000020: 4c36 c684 083c 1f40 0000 0000 0000 0000
00000030: 8d8e 4260 13a3 f6bf 0000 0000 0000 0000
00000040: c657 b495 7ed3 2640 ae70 4a7f 4ae3 03c0
00000050: 3f03 1017 a47c 17c0 a8d6 8afd fb65 d0bf
00000060: 0000 0000 0000 0000 c9d1 e20e 0c88 f5bf
00000070: 6c7f 0778 23f8 f1bf 047d 667f 2004 fbbf
00000080: 69ea 79a0 20eb f9bf 0000 0000 0000 0000
00000090: 29e4 4522 7a59 1440 cf9d 3bed 497c d83f
000000a0: f939 61aa 99c5 f1bf 0000 0000 0000 0000
000000b0: 0b16 88ed f14c 1f40 dd79 e7f6 6653 fdbf
000000c0: 7411 b004 56fb 12c0 0000 0000 0000 0000
000000d0: 0000 0000 0000 0000 f28c e5f0 2ede f5bf
000000e0: 495c cd3c 9e35 f2bf 8ba1 6c7d 6a03 fbbf
000000f0: e455 d546 81ad fabf 0000 0000 0000 0000
00000100: 3681 c072 3156 1340 543a ffaa 8b38 da3f
00000110: 81b0 8457 9d64 f1bf 0000 0000 0000 0000
00000120: 30ae 8a5e 0ecd 1d40 beb9 f48c 7e8a ffbf
00000130: 7d4c 4949 5682 13c0 0000 0000 0000 0000
00000140: 0000 0000 0000 0000 6e39 8e5f cfe7 f6bf
00000150: 2058 f436 fdf0 eb3f 145f 78f1 4b17 f93f
00000160: 30e9 9ae6 690d f33f 0000 0000 0000 0000
00000170: 77cd 67e3 ee4c 11c0 a898 04a7 5a77 debf
00000180: aa1d e4b2 78a4 ec3f 0000 0000 0000 0000
00000190: c50c 8c56 959c 19c0 7427 7d6a 888d f23f
000001a0: a072 02a1 5af2 0c40 0000 0000 0000 0000
000001b0: 0000 0000 0000 0000 26c4 7e3b 6737 ec3f
000001c0: 2704 86a7 086d f3bf 6904 02d4 5ef4 06c0
000001d0: c8fd 6bcb af00 02c0 0000 0000 0000 0000
000001e0: 9c66 1ed8 16e0 1d40 0000 0000 0000 0000
000001f0: b3ec 9fdf c277 f6bf 0000 0000 0000 0000
00000200: 0d88 c58e f08e 2540 462c 68e1 0a83 03c0
00000210: f3da 157f b922 18c0 c5b7 aeb3 7ac2 d5bf
00000220: 0000 0000 0000 0000 8510 e042 f007 fabf
00000230: 24c6 bd30 3f75 e73f ade7 b8d8 65c7 f03f
00000240: df40 c804 5330 ee3f 0000 0000 0000 0000
00000250: e1c3 0bb3 1a94 05c0 0000 0000 0000 0000
00000260: 1054 5149 f197 e23f 8470 80f3 0ccc d63f
00000270: 907f 7308 83d0 01c0 ac54 88c9 8608 e43f
00000280: 5127 de30 e979 f83f 0000 0000 0000 0000
00000290: 0000 0000 0000 0000 e09a 1f48 ae27 d13f
000002a0: dc17 f6a7 fb82 f5bf b1c6 a63d e4aa 02c0
000002b0: 8dae affd c106 03c0 0000 0000 0000 0000
000002c0: 8fa3 586a 2bf4 1840 0000 0000 0000 0000
000002d0: c81b de49 b67e f5bf 0000 0000 0000 0000
000002e0: 7916 149f 3348 2640 75bc d8c0 706f 04c0
000002f0: 98ba 4f81 37fa 18c0 1c69 ddd7 627a cabf
00000300: 0000 0000 0000 0000 a3b0 e521 dd2d fdbf
00000310: 84e1 3fcb 7f36 ca3f ffff fca2 e1c7 d23f
00000320: ad3f 076b f493 d13f 186b 4c91 5e8f c13f
00000330: 4c37 6466 fcd4 f5bf 2573 3303 7ae0 c93f
00000340: 0000 0000 0000 0000 52c1 1f2b 15e0 dc3f
00000350: eef1 735b d663 f13f 0000 0000 0000 0000
00000360: 07ec 0656 366e e6bf f32f 190b 5b4c ca3f
00000370: 0000 0000 0000 0000 0000 0000 0000 0000
00000380: 749b 8e20 98c2 d3bf b756 94aa ace9 dfbf
00000390: 19a4 5222 c7d4 dcbf 107d 2880 e8f7 e03f
000003a0: 07c2 f166 7554 0140 0000 0000 0000 0000
000003b0: e61b e0e8 c371 dcbf 0000 0000 0000 0000
000003c0: 1ac1 b71e 11e5 1540 2a8f 8356 2678 eebf
000003d0: e09d 979a 211b 07c0 0000 0000 0000 0000
000003e0: 0000 0000 0000 0000 4af4 1f4d 9505 f0bf
000003f0: 9eb9 22e6 1f53 f23f 8a0e 5cff 5ebf 0240
00000400: 12d7 7154 e201 0240 0000 0000 0000 0000
00000410: e202 3d65 b029 1bc0 0000 0000 0000 0000
00000420: 940e 2ee6 34b5 f73f 1963 9611 bde0 f2bf
00000430: 4d6d 331a 81be 2fc0 2e98 cbd6 d8c2 0b40
00000440: 82f0 cc34 e32b 2140 0000 0000 0000 0000
00000450: 0000 0000 0000 0000 027a f58a 0c3f 0740
00000460: 9086 8a47 c6c1 d9bf 5336 7651 a021 e4bf
00000470: 4956 8157 91e8 e1bf dced 310f 9838 dd3f
00000480: da8f 3062 57db f93f 0000 0000 0000 0000
00000490: a841 d0bc c098 e1bf 0000 0000 0000 0000
000004a0: 3fd0 7d73 6900 1040 bb60 4478 661b f1bf
000004b0: f02c f017 ad34 0ac0 0000 0000 0000 0000
000004c0: 0000 0000 0000 0000 17a6 5861 ea42 f0bf
000004d0: 6a2b 76fd dd7c f03f 90a6 1c8d f274 0040
000004e0: 00b4 d984 6d4c f83f 0000 0000 0000 0000
000004f0: 8466 c9d2 3e71 13c0 4e6e 8f2f 4346 e4bf
00000500: 7ae1 f622 4cc3 f23f 0000 0000 0000 0000
00000510: a7c5 2eae e5ae 24c0 7e0d e028 24a5 0040
00000520: 8fbe b48e eb24 1840 0000 0000 0000 0000
00000530: 0000 0000 0000 0000 0cbe 0032 67e2 fc3f
00000540: 3a3d 679d 75f4 f0bf 40e8 d2ef 18e3 f8bf
00000550: 8abe a540 7a2b f8bf 6c3d a3d0 873e df3f
00000560: ac66 6cd9 df1c 1440 0000 0000 0000 0000
00000570: 708a 5665 73b8 f0bf 0000 0000 0000 0000
00000580: cc55 85a3 d0da 2140 31a6 9eac 3f78 fdbf
00000590: 1594 ed73 5d35 13c0 0000 0000 0000 0000
000005a0: 0000 0000 0000 0000 a550 c900 0f79 f7bf
000005b0: d596 4de9 93f1 f03f 9b05 754b e434 0040
000005c0: 857c 8cda e46b f93f 0000 0000 0000 0000
000005d0: 7f44 527f e75b 13c0 8cda d764 a4c9 e3bf
000005e0: 5f2e 3a85 54fd f23f 0000 0000 0000 0000
000005f0: 533b 16e1 1e12 24c0 db09 5ede c541 0140
00000600: ba12 4645 9323 1840 0000 0000 0000 0000
00000610: 0000 0000 0000 0000 2291 444c 369b fb3f
00000620: d2a9 b1c7 b598 f03f 0ee0 fa21 ad74 0040
00000630: 2e5b c339 efd6 f83f 0000 0000 0000 0000
00000640: 70a8 3b9f 7369 13c0 cc79 41c4 a66b e5bf
00000650: 3b91 bc51 7589 f33f 0000 0000 0000 0000
00000660: d8c4 1d1c 43ef 23c0 ca07 ff5c 456a 0140
00000670: f3e6 10f7 6f65 1840 0000 0000 0000 0000
00000680: 0000 0000 0000 0000 7fe6 44d0 3c51 fc3f
00000690: 2075 c544 39c0 d3bf 5f76 4dc2 62d2 dfbf
000006a0: 7795 c7dc ccdc dcbf e215 e8e4 4d0b e13f
000006b0: b7b8 ff31 821e 0240 0000 0000 0000 0000
000006c0: 6acc 476e 237b dbbf 0000 0000 0000 0000
000006d0: d17b 1e62 5333 1540 6aad 796d 7229 eebf
000006e0: f5f9 9190 73b5 06c0 0000 0000 0000 0000
000006f0: 0000 0000 0000 0000 d7aa d30c 7e1f f0bf
00000700: e419 eafe 044e f03f acbb e726 3299 0040
00000710: 381c a16f dbc0 f93f 0000 0000 0000 0000
00000720: fd07 2661 713f 13c0 bc4b e193 8b9d e4bf
00000730: 133b 20bc e752 f33f 0000 0000 0000 0000
00000740: 980d 866b 06e6 22c0 a38b 816e 9e1f 0240
00000750: 87ac ea04 e834 1840 0000 0000 0000 0000
00000760: 0000 0000 0000 0000 7ee3 4007 4c2d fb3f
00000770: a78e a232 1d67 cf3f 5b60 388c 8638 cc3f
00000780: 58ed a549 7646 cc3f 0000 0000 0000 0000
00000790: c212 22f7 df17 f8bf 3784 8ed7 1558 c73f
000007a0: 0000 0000 0000 0000 59ee 15c2 2fbb d93f
000007b0: bce1 6fbe 2c72 e53f 0000 0000 0000 0000
000007c0: c7a5 387f 022a eebf f4e1 7e78 d5f3 c63f
000007d0: ae9d fc2c 6728 c03f 0000 0000 0000 0000
000007e0: 6c46 541c 7a7c d6bf ac72 2f74 5032 e2bf
000007f0: a740 8ee2 5ce4 e0bf d0b3 7c2b 238c e03f

times f8 [3]
56867.91325831413 57019.4768140316 57035.86749482155
00000000: 0080 6939 7dc4 eb40 0080 0f42 6fd7 eb40
00000010: 0080 84c2 7bd9 eb40
