package_metadata/openml/brazilian_houses/ground_truth/shap_kernel_3_ann.npz (npz, 540799 bytes, 2 tensors)

exp_values f8 [3, 2635, 9]
0	0x3fbad0ac7e769733	0.10474660956842001
1	0xbf81c6e6a09735ae	-0.008680154586637592
2	0x3fbc2fd086d48ed4	0.11010459224467734
3	0x3f7b9099c4c245c0	0.00672969880919666
4	0x3fc4a008a7c738f6	0.161133844302135
5	0x3fa40fc5c16a7a84	0.03918283449205709
6	0x3faf202a9033a8e3	0.060792284109838744
7	0xbf77dede5e5ad180	-0.0058277784607309036
8	0x3f9d70fd0bab3753	0.02875132926674635
9	0xbfa9d0f8d62e5471	-0.050422454972399396
10	0xbf711854580ef4d0	-0.004173593014397528
11	0xbfad8d8b2d1b0be6	-0.057720517402706936
12	0xbf7c733a6706826c	-0.006945827612441318
13	0xbfb0d14e1d964bcb	-0.06569374296513712
14	0xbfacf3e162f06379	-0.056548159911648584
15	0xbf87b3f2e0830989	-0.011573693729933126
16	0xbf4636b20f097000	-0.0006779069354467815
17	0xbf93fcfd8117fae0	-0.019519768718960218
18	0x3fcb59a9b779a31a	0.21367379626033128
19	0x3f857aa0712fb70f	0.01048779817025605
20	0x3fbc0a75046703f1	0.10953456265907825
21	0x3f91bf351a7db26a	0.017330960981257006
22	0xbfbc8d8232f3113c	-0.11153424972423392
23	0x3fa0ea10a7c62178	0.033035774688928876
24	0x3f69fc0919244644	0.0031719377231034535
25	0xbf70f9e93a7f38a0	-0.004144583748667469
26	0xbf9cd69bed274ee9	-0.028162418698982093
27	0x3faaacca3278b22c	0.052099531804149585
28	0xbf5f492a62dc6700	-0.0019095338752265767
29	0x3fa7e8f2f14f6127	0.046699134785458
30	0x3f983e5abd09edcc	0.023675363338481678
31	0x3fc25970f16f8af2	0.14335452832082002
32	0x3f9e6d4b55a23830	0.02971379957357828
33	0x3fa17c77d2ae03ec	0.034152740924589725
34	0xbf61d53bcc290409	-0.0021768730087221616
35	0xbf9887dcdfc5a4dc	-0.023955775411569444
36	0xbfac327b51b7076c	-0.055072644925089204
37	0x3f61a885599c1280	0.002155552338879041
38	0xbfb0cc7fcd080411	-0.06562041049620883
39	0xbf9c55729847f6a1	-0.027669706863881264
40	0xbfb55910752639fd	-0.08339026317683103
41	0xbfb40c931779e445	-0.07831687281749662
42	0xbf9389fab9c5bcf8	-0.019081037129066808
43	0xbf5270609332bf7d	-0.0011254256358305952
44	0x3fa5db72a2dc0ad2	0.04268987882644172
45	0x3fb6a9e2c9b07a77	0.08852975296074726
46	0xbf9b517b02b3b9bc	-0.026678010978622643
47	0x3fc75e19fc821369	0.1825592501592397
48	0xbf924b50fa4d8ff7	-0.01786543395736825
49	0xbfba61261b649e3a	-0.10304487389350295
50	0x3f9927be124bb703	0.024565667978939675
51	0x3f7918d91079e66a	0.006127212436348376
52	0xbf5cf2a1eaecbb00	-0.0017668324687282744
53	0xbf92662c4c5e0732	-0.017967884217348025
54	0xbfa87a114a528d6c	-0.047806301424567405
55	0xbf8739e732bee726	-0.011340910183082874
56	0xbf8f3ebc61943225	-0.015256377914306072
57	0x3f8a8724cbc5db66	0.012953078716902499
58	0xbfa89c365c35b27a	-0.04806680560691219
59	0x3f73a80661b3bb1f	0.004798912933650339
60	0x3f8431bb716dbcd6	0.009860481642788004
61	0x3f72708e129beea0	0.004501872035458071
62	0xbf9b968f98d789da	-0.026941531852466706
63	0xbfaf1d3c471d351c	-0.060769923859519376
64	0xbf788d253759ce07	-0.0059939817198144734
65	0xbfa92a95f9971518	-0.04915302917246772
66	0x3f32da68c885c400	0.0002876764124471465
67	0xbfb600e8053bf104	-0.08595132949625756
68	0x3f5b944eec200214	0.0016833086706357124
69	0xbf94d3dd69d4d163	-0.020339450439864303
70	0x3f83a439e6322252	0.009590580308455863
71	0xbf98fa37ab5d6ac3	-0.024392003855022503
72	0xbfab1824dd478c5b	-0.052918579112678464
73	0xbf711edcf744f4cf	-0.0041798240166006214
74	0xbfac22dd937eeb8b	-0.054953502898079064
75	0xbf7f00593189acfe	-0.00756869164670637
76	0xbfb12d9eb30126fa	-0.06710235471942019
77	0xbfacd1aa0e7c4283	-0.056287111538158484
78	0x3f52d2767dfd61bb	0.001148811068523255
79	0x3f42902f1757c200	0.000566504472486129
80	0xbf9388910040bac5	-0.019075647011215908
81	0x3fc7c896b00cfdfe	0.18580897899845178
82	0x3f9211445e888505	0.017643993635037897
83	0x3fc014f482f027dd	0.12563949960195844
84	0x3fa4a0cf5c01dbee	0.04028938291678928
85	0x3fc14dba005b63ba	0.13518452660971808
86	0x3f9b1668ecc165bb	0.02645267434158936
87	0xbfb0473dd26c763b	-0.06358705889984943
88	0xbf481b22f42fce00	-0.0007356568024747268
89	0xbf96e1a8b122779b	-0.02234519559043911
90	0xbfb2853ecfa360e7	-0.07234566277782371
91	0x3f877dada9cfe667	0.011470181221727672
92	0xbfb47a84f00d64f4	-0.07999449597027192
93	0xbf81c17c774026da	-0.008669826878775867
94	0xbfafb0888ba87b2e	-0.06189371781169083
95	0x3f9c8e646cb5e2f5	0.027886933455621727
96	0x3f8c9a818b434fbd	0.01396657186743499
97	0x3f5400785ac20b80	0.0012208152138845907
98	0xbf90fb82af9b5d3d	-0.016584436386293467
99	0x3fb06db5f9d6b266	0.06417405461861278
100	0x3f9133c96f11f570	0.016799113659080545
101	0x3fab1a2e77de51d8	0.05293412411916493
102	0x3fa0f455fe900218	0.033114135098007036
103	0x3fc74646b705626e	0.18183216034482846
104	0x3fa2f41f5bc48339	0.037018756820776884
105	0x3fa16745ac7bd654	0.0339910290767135
106	0xbf575ed867224100	-0.0014264214810602582
107	0xbf9688ddf9e6e92a	-0.022006481530959444
108	0x3fdef6a9827d6209	0.4838050627054434
109	0xbf93e3f07133a668	-0.019424206647192938
110	0x3fcdf77cbe2d14ee	0.23411521230642712
111	0x3f9ea8fe213d2e5f	0.029941530970332027
112	0x3fe5689ddd2b35d6	0.6690205878928122
113	0x3fa8fc995c004491	0.048802177887531724
114	0x3fabadad1fffdf9d	0.05405941978091209
115	0xbf4f4393e5b99000	-0.0009541008143512109
116	0xbf86032277cacc64	-0.010748166352050066
117	0xbf9435d239a9e342	-0.0197365615553935
118	0xbf70fbf8107b771e	-0.004146546365260821
119	0xbf85b51ba4cde368	-0.010599342314650165
120	0xbf6eb10ddd3da94d	-0.0037465353761280463
121	0xbfbb8eb1aa6496bc	-0.10764608774169465
122	0x3f9715eef628ef08	0.022544606947334095
123	0x3f80382831e80c00	0.007919610999129745
124	0xbf6a603875713228	-0.0032197096548201194
125	0xbf8dd8ddfed1d75c	-0.014573797549228544
126	0x3fb06f43a21d04d7	0.06419775684209426
127	0x3f69b3625f4b6c80	0.0031372948964026315
128	0x3fb73b7f1068223d	0.09075159216457336
129	0x3f7afeedf1d56426	0.006590775939309379
130	0x3fb55afaa154ed16	0.08341947973979233
131	0x3fa4b0dc33c5c533	0.04041183597554223
132	0x3f999b7d88a0c55c	0.02500721117411807
133	0x3f74b0353f8e9522	0.0050508575449488575
134	0xbf9e1e7fcc3aec1b	-0.029413220253200572
135	0xbf971577efa9b5be	-0.022542833330978722
136	0x3f8f8917e1565b16	0.015398203434228413
137	0x3fa55f6c733fb517	0.041743649548019394
138	0x3f7866b9920c5c59	0.005957341084260903
139	0xbfbb066cbfcd1010	-0.10556678469316716
140	0x3f78c7c7f9864e16	0.006049901152795486
141	0x3f9c1088f9c1db66	0.027406826251957915
142	0xbf5798b6071797e0	-0.0014402177442831496
143	0xbf9418e558e58dff	-0.01962622027475724
144	0x3fb2a137d4cdde0c	0.07277249284185688
145	0xbf6379ad84146ed5	-0.002377356432260539
146	0xbf845f002207ebe8	-0.009946824110547994
147	0x3f79935197d1603b	0.006244009707266736
148	0xbfb31a0e23bbf8e8	-0.07461632130068419
149	0xbfb4cbbc83ce5e54	-0.08123377054141062
150	0xbf931f230689ac93	-0.018673465036425595
151	0xbf34203ed87c3600	-0.0003070977622748605
152	0xbf96e7a8cbf431d4	-0.02236808533511854
153	0x3f8509c8f5aa7407	0.010272569653631448
154	0xbf82bef03b3a14de	-0.009153248603306737
155	0xbfb463be2457a655	-0.07964695346131496
156	0xbf7a9f3a5b713f98	-0.006499507863807617
157	0x3f97693bb7f58052	0.02286237058922353
158	0x3fa129393313fae7	0.033517634854424654
159	0x3f97e686bc82803c	0.02334032559940645
160	0x3f65a0a3c1c02510	0.002640075528692727
161	0xbf8f1085f872422f	-0.015168234486084035
162	0xbfad3653d461b4ba	-0.057055110621925434
163	0x3f6b0ceaca843f4a	0.0033020578158654878
164	0xbf7b9e087ecc22ed	-0.0067425090644597065
165	0x3f916c0a23fea1c6	0.017013700911464168
166	0xbfa5ebe99ad4711f	-0.042815494680527026
167	0x3f9c20e0fe020f80	0.027469172957821808
168	0x3f94a21f7fd6d763	0.020149700334250464
169	0xbf5e5950c4b109c0	-0.001852349162405717
170	0x3fb31e7ca6b79d2e	0.07468394346470994
171	0xbfa12407dd1b5eeb	-0.033478017559614624
172	0x3f7f9128683df362	0.007706792679411519
173	0xbf7484f1ceb7c5c7	-0.005009598312868352
174	0x3f922c5f6d40fc19	0.017747393649411778
175	0xbf84026274842259	-0.009770173245230373
176	0x3fa13627478beb47	0.03361628292437629
177	0x3fa540b8ffa300a8	0.041509419637351386
178	0xbf4c0b9e624e3000	-0.0008558772429849704
179	0x3fb4fd0bb449c05b	0.08198617126049738
180	0xbfb1416b8cf68f3f	-0.06740448180658819
181	0x3f6743a24218bb95	0.002839867506529934
182	0xbfb47783d7c51eeb	-0.07994865434477176
183	0xbf8324dcac69705f	-0.009347652446358433
184	0xbfb4387d24abf921	-0.07898695130640877
185	0x3f981444d7dd2119	0.023514819789199757
186	0xbf57b386b5929204	-0.0014466109771912325
187	0x3f55ccffc911df80	0.0013306138901309772
188	0xbf90e67da9e8b7bf	-0.016504252906251567
189	0xbf99c44168dfa32b	-0.025162717843986087
190	0xbf8ae29ab83b534a	-0.013127526042276867
191	0x3fc36041656447df	0.15137498331802043
192	0xbf80741a2e708443	-0.008033947508069633
193	0x3fb77cb73248daed	0.09174675920153748
194	0x3fa0f32b84d6ecec	0.03310523983551569
195	0x3f8b057f4142fa4f	0.013194078616263342
196	0xbf73e4ff663c45e0	-0.004857061055888207
197	0xbf8c9dd8ba6881db	-0.013972943485954062
198	0xbfaf268302dea39e	-0.060840696430495486
199	0xbf547a6a73e54d4f	-0.00124988933346944
200	0xbfabf6b7a1f88829	-0.054616678735570474
201	0x3f57ede0c979b7a8	0.0014605231462172328
202	0xbfa84864ac00502e	-0.04742731666206655
203	0x3f96e8b2a9d9b232	0.022372047058910556
204	0xbf91de3c02b21e68	-0.017449319519555223
205	0xbf27d86eb89d6800	-0.00018192626549301538
206	0xbf951de401c4876b	-0.0206218362883485
207	0xbf78e014f3ab434f	-0.00607307609853154
208	0xbf90103bc9d13c09	-0.0156869260720747
209	0xbf91fbbf5b1b1ae1	-0.017561902938520006
210	0xbf9693c7540d8ac3	-0.02204810572164707
211	0x3fa5f44597065aae	0.04287927120747291
212	0x3f91f1baa72bc182	0.01752368588762599
213	0xbfa3c5b63e283e57	-0.038617796981381396
214	0xbf5847bde71e3b80	-0.0014819483298855463
215	0xbf933ac638f543b6	-0.018778893686718333
216	0xbfb3c76acd70e9c6	-0.07726161494875958
217	0x3f85c649897aa652	0.010632109172848878
218	0xbfb399a6d4445ad9	-0.07656328851986006
219	0xbf7675bd1e112ba0	-0.005483378162419422
220	0xbfaa086343897c7a	-0.050845243448514446
221	0x3f9e2a8cf1c8abfe	0.029459192521397164
222	0x3f8ee1eb68fc2fd4	0.01507934488429178
223	0x3f744eee9497b4a7	0.004958087878077644
224	0x3fb0ac50f4379c98	0.06512933695158762
225	0x3fb8e4d4d0e6b2e1	0.09724168872953555
226	0x3f932a246840c38c	0.01871544729528156
227	0xbf5e8bef9b520750	-0.0018644180211428614
228	0x3f723a1bffa66210	0.004449948663385786
229	0xbfbb0ad99bbe89aa	-0.1056343083605841
230	0x3f8caa1263597966	0.013996261269480125
231	0x3f7d93b8b65f6085	0.007220956356796764
232	0xbf67e2e587239b90	-0.002915809914259389
233	0xbf8e7488cbb3c331	-0.01487070914888164
234	0xbfaf70e9ea9a74e9	-0.06140833844004041
235	0xbf67622ff3021143	-0.00285443654144238
236	0xbf5b91cc4f9e3d36	-0.0016827101921739868
237	0x3fa5c4c33e1888d9	0.04251680500989758
238	0xbfb21f4927b130ec	-0.07078988284155557
239	0x3f7e39bef88c44f8	0.007379289608040233
240	0x3f7bb3919552fa30	0.006763046917682078
241	0x3f5983ac0ab63800	0.0015572719665644108
242	0xbf98c0659d645143	-0.024171436053692884
243	0xbfaba959051a2f61	-0.05402639567645796
244	0xbf830bb4776074f2	-0.009299669163790079
245	0xbf82840e63e679d2	-0.009040939735140894
246	0xbf73257f9a27f294	-0.004674433179840638
247	0xbf64b7111e1b9d78	-0.002528699333982306
248	0xbf534ed4db71f0c7	-0.0011784628566422915
249	0xbf8720e0982b5d72	-0.011293177265015972
250	0xbf32201a283ae000	-0.0002765716419435016
251	0xbf9a7e38efd0e008	-0.025872125279619268
252	0xbfabb2c90bab4f0e	-0.05409839885183319
253	0xbf7acc8771a2b00e	-0.006542710378351314
254	0xbfab7b4c15d14f0c	-0.053675058043749585
255	0x3f490df1ebab5800	0.0007646018269393817

times f8 [3]
0	0x40c430900b640000	10337.125347614288
1	0x40c463b14e740000	10439.385206699371
2	0x40c45becace60000	10423.849026441574
