package_metadata/openml/kin8nm/ground_truth/shap_kernel_3_ann.npz (npz, 376775 bytes, 2 tensors)

exp_values f8 [3, 2048, 8]
0.006637915901088531 -0.042615537360476526 0.4056772921750084 0.07398354691937004 0.4547285034688258 0.6240192419771715 0.06965158237320379 0.01366432444583967
-0.2858117755573163 -0.09171653236488136 -0.6923301762234018 0.054412607503824706 -0.09139624333774025 0.29917130009567594 0.16441522555465712 0.16946590703164216
-0.12866227328202212 0.15838306956233475 -0.4776355030457642 -0.34260718747238894 -0.08762352042082713 0.014755335814850001 0.0882236631027167 -0.30428812083774975
0.05688182297201492 -0.02733119794321459 -0.427379800916512 0.3627633625761016 0.305243630078333 -0.12622869039157525 -0.054044956976635534 0.15991171648128577
0.006962776916940916 0.28534399382504194 -0.8287565639530992 0.11912838326987435 0.26245141434660413 -0.30473131754043015 -0.33995821585236685 0.19624280931455934
-0.02269600281640204 -0.05149911399544468 -0.4447059890204655 -0.0789587719968301 -0.31825069060767514 -0.20744272303941477 -0.11236652651781544 0.033098925519200684
-0.13312146674984726 0.2021544736517239 0.7140812658669385 -0.27753409498271764 0.5713713142235975 -0.14360296914684398 0.35911647564089266 0.2585161701023417
-0.006538450089478065 0.016746049295535626 0.5462753214771412 0.12624612113288824 0.6723623038507445 0.25210803918099717 0.28787291238773555 -0.04938323430422203
-0.2389158167612264 -0.15431431205874976 0.0 0.14488151219003376 -0.41618604805846243 0.333811910601415 0.3883101506784418 -0.27524591170881596
0.020332529854596104 -0.0892745086403025 -0.8873995183738652 0.07020906800493319 0.07372296059721678 0.22629843659977944 -0.20705341492193197 0.09231533565854191
0.008213134099848807 -0.04077045814297205 -0.8348013206409539 -0.18442359981796258 0.0547383174941913 -0.24844061462685477 -0.20289535147918067 -0.07631585630981555
-0.29134427903084587 -0.17051155882342872 0.4934191137072925 0.13682729749333503 0.5577811072021448 0.32028494727619233 0.25683448617939386 0.17913326901850543
0.2376561846853488 0.16415510810682413 0.6308767100954871 0.07129114223991628 -0.21153068065588518 0.5247098486592285 0.3379076862067193 -0.4156696371738141
0.03818684630658824 -0.13201293316270313 0.7285457324569933 0.0794026590573765 0.6627000788817108 0.2659672967636513 0.32154527205907607 0.1570767334400475
0.3638240154522871 0.011069134607729625 0.14711137271450142 0.264818533337727 0.11147868125669781 0.15737338782916535 0.15563397591391132 0.02906606468644896
0.2437487019237944 -0.14825407693685463 0.09041934329863532 -0.5686608588889803 0.32762356401910925 -0.48218113173159977 -0.24641799759114755 0.1504415276312627
0.1951837008476608 0.18125728942444452 -0.9031528692238984 -0.12456836085347847 0.07038098026305228 -0.2550591832810184 0.19330333119567453 0.19237915867069105
-0.2541304530436004 0.14538215742500532 -0.39154295369886266 -0.41442376788207463 0.3190721412645584 -0.17078587113841925 0.0018707531386081833 0.13748536624951951
0.13346277365178053 0.24062930519139814 0.13140858798048097 -0.022971545657273 0.0006404443088912082 -0.014933876741129119 0.0027585885795140567 0.09523751451858875
-0.08387840371585047 0.23281389507791886 0.15560624131684891 0.10996315726842859 0.07808459898246047 -0.012668128465525563 -0.7334782112151823 -0.4698352139613415
-0.2962825705074614 0.03451511025859697 -0.02096758943554633 0.25608371351424764 -0.4866522272174016 -0.1676297719667607 0.17467906370630895 0.07159288787830873
0.022653888106497932 -0.10806743323546272 0.17526170163276306 -0.19390734842185342 0.14507771085215945 0.12969410476025797 0.07576294318061337 0.1277715118797307
0.1657051676357303 -0.16206436928106027 -0.29566590778968443 0.07432435704412932 -0.2926484800148499 0.34734528591776875 -0.13541418789864534 -0.061060036625985706
-0.15746235443111406 -0.04738234885833331 0.21078160586969513 -0.004077543672225126 -0.7245456859221983 -0.28916443172982 -0.28061822741033887 -0.04568222572511471
0.16957686735249072 0.032822967975848716 -0.4868641150805224 -0.3179663390617404 -0.06114605197855932 -0.2709931615612453 -0.07581510935329777 -0.014427454006499005
0.05149851075227729 -0.1657944255019453 0.5835589188183818 0.2557379379799276 -0.0616437789084385 -0.20125501328535536 -0.22544751781237868 0.10007102480290513
0.21270546020189485 -0.15921788998721914 0.5431673717327158 0.09656072245755112 -0.045251007403736665 0.08141997842756094 0.1678350578161395 0.08164283541519547
0.27575211932421123 -0.2284660825328887 0.49920983546955233 0.11211846068314736 -0.16021508359679199 0.28357762268850656 0.042209853706041134 0.06928958627785141
-0.1875031942196752 0.2956061258661595 0.09698049567908097 0.4897258170627371 -0.16131311846750299 0.05733732820030912 0.06501321327452374 -0.12861938024401426
-0.15472748000706815 0.03896714621047868 0.6000595343581947 0.004777229494242419 -0.523210343722086 -0.06484064310228045 -0.282903721873847 0.02677508855628227
-0.008462856124108353 0.11559613752484192 0.20909213446547303 0.22277970892137067 -0.060493906033432604 0.06477250103343989 0.07935386677501301 0.07849829185946719
0.019430700011148994 -0.19985036709662593 0.4404950243516089 0.35517573773615685 -0.24764323780060432 0.05110788708157725 0.06876294449259043 0.0775724542526884
00000000: 0023 57fb 5b30 7b3f 7188 8726 b4d1 a5bf
00000010: 9fc6 a7e3 9df6 d93f 68f5 75f2 95f0 b23f
00000020: cd49 bd94 451a dd3f b2bb 8b33 f7f7 e33f
00000030: e055 68a4 afd4 b13f 8c3c ef94 0afc 8b3f
00000040: b624 3579 bd4a d2bf 1c7b 0213 bc7a b7bf
00000050: cc3a 1d9d 9127 e6bf 4022 7023 f8db ab3f
00000060: e3e3 1c84 be65 b7bf c403 7461 9f25 d33f
00000070: 2f61 5ce0 8e0b c53f d672 3e10 0fb1 c53f
00000080: 9ed6 fc5f 0178 c0bf 3152 017c e545 c43f
00000090: 3c5d 3f80 9491 debf 8261 64b2 46ed d5bf
000000a0: 025e 91ba 7e6e b6bf 8056 21a6 0b38 8e3f
000000b0: f26d c273 d395 b63f b9cd e3e1 7479 d3bf
000000c0: 1da7 cd42 9d1f ad3f a072 4ea5 b5fc 9bbf
000000d0: 0113 face 305a dbbf dde2 9cd2 8337 d73f
000000e0: b8eb 1f94 1c89 d33f a03c 8600 4328 c0bf
000000f0: c9ed 74d5 c7ab abbf 7865 44b4 fc77 c43f
00000100: 0097 5c32 0085 7c3f 50ab 6574 1343 d23f
00000110: bcc3 507c 2c85 eabf fc61 2b9e 327f be3f
00000120: 4816 5a04 01cc d03f 06cd b9c8 b780 d3bf
00000130: 48ea c51a e0c1 d5bf a664 0a00 7c1e c93f
00000140: fdae 62f7 9e3d 97bf 6b4e c484 175e aabf
00000150: 3168 cb1b 1076 dcbf c06d 755f a436 b4bf
00000160: 63b8 0525 385e d4bf 2bad 9faf 7b8d cabf
00000170: 6923 8f7c 0dc4 bcbf 8081 46a5 57f2 a03f
00000180: d006 0bcd 1f0a c1bf f480 89a2 32e0 c93f
00000190: 89b6 72f4 c0d9 e63f 5c72 5e5d 1ec3 d1bf
000001a0: 01d0 8e7e ac48 e23f 7b0e 0c04 9561 c2bf
000001b0: 4846 95ab c3fb d63f 27e9 0468 878b d03f
000001c0: 003a d0d4 0fc8 7abf 8d01 3f58 e025 913f
000001d0: 0e66 0b62 167b e13f 309d c138 d528 c03f
000001e0: ea44 43f3 fd83 e53f 15d4 d5c1 8922 d03f
000001f0: a503 0782 826c d23f 875b 9d60 c248 a9bf
00000200: c748 be21 cb94 cebf bf6c cc45 92c0 c3bf
00000210: 0000 0000 0000 0000 305b 5336 7a8b c23f
00000220: eb9a 5dce caa2 dabf 3818 c3a1 2c5d d53f
00000230: 6f99 77d1 12da d83f 9069 4907 a19d d1bf
00000240: a0ec 14fb 0cd2 943f 6700 fab6 b1da b6bf
00000250: 62dc bcac 9365 ecbf 6fbd f6b2 38f9 b13f
00000260: 34b6 ba08 82df b23f 647e 2ae0 58f7 cc3f
00000270: 4cb2 ceee b980 cabf 7a9c 9253 faa1 b73f
00000280: 8023 da32 0cd2 803f abe7 bb90 dddf a4bf
00000290: acef 5942 b1b6 eabf 2e14 ea48 319b c7bf
000002a0: fb83 f326 a906 ac3f 8105 69ed e6cc cfbf
000002b0: 5f87 8e91 79f8 c9bf 1a53 049b 6f89 b3bf
000002c0: 8d1b 9479 62a5 d2bf 2049 5ea0 52d3 c5bf
000002d0: 2c06 26c3 2d94 df3f 3d8b f78f 8e83 c13f
000002e0: f450 b8c3 57d9 e13f fbf2 7c6f 8c7f d43f
000002f0: 8c07 a8e9 f96f d03f bfaf 07c6 d6ed c63f
00000300: f535 7592 846b ce3f c523 65da 0803 c53f
00000310: d061 b55a 2430 e43f 8038 6ae4 2240 b23f
00000320: 3f42 c2f5 6f13 cbbf 062d fc4e 6cca e03f
00000330: feca 548f 47a0 d53f 8a82 66d2 549a dabf
00000340: a660 0cf0 398d a33f a09a 4abf cce5 c0bf
00000350: 8061 d123 3f50 e73f 36eb dd8f bb53 b43f
00000360: 6e50 bbcb d634 e53f 38f2 59b2 9b05 d13f
00000370: 7f56 eb9e 3294 d43f a533 8b24 171b c43f
00000380: 777c f785 e448 d73f 80ee 1419 6aab 863f
00000390: 76d7 56a3 8bd4 c23f b2da 036f c9f2 d03f
000003a0: a9df 32ea dd89 bc3f ad55 fea8 cf24 c43f
000003b0: 7e2d 596a d0eb c33f 91c2 0195 7ec3 9d3f
000003c0: 5442 9a4f 2833 cf3f 7ba2 f855 fdf9 c2bf
000003d0: 30b8 64da b825 b73f ac30 ee41 7832 e2bf
000003e0: 391b 37d3 c8f7 d43f 7345 e23f 0edc debf
000003f0: 5f5f 66fc 9f8a cfbf 977a 9100 ab41 c33f
00000400: 7c2d ed8d c7fb c83f 14ab 1e59 7033 c73f
00000410: de5d 93d8 a0e6 ecbf 7265 fb4b b6e3 bfbf
00000420: c87f 7de8 7c04 b23f e621 afc0 e352 d0bf
00000430: 5bbd d8de 29be c83f 2e18 7659 e19f c83f
00000440: f85a 2f60 ac43 d0bf 26fa c7ed e19b c23f
00000450: 356a 472d 0a0f d9bf 5145 6f44 eb85 dabf
00000460: 2ef1 f28e ad6b d43f d445 94b9 4fdc c5bf
00000470: 0048 26e3 81a6 5e3f c231 dcd7 1e99 c13f
00000480: 3daf 08e4 4e15 c13f 10cd 20ea f0cc ce3f
00000490: 0915 e521 ffd1 c03f c1a2 5855 da85 97bf
000004a0: 00d0 48ae 6ffc 443f 0229 a501 a795 8ebf
000004b0: 06a0 6df7 2d99 663f 88ac 355a 7c61 b83f
000004c0: 03de cc18 0e79 b5bf 29ff b480 d8cc cd3f
000004d0: 6232 c1c2 e7ea c33f 2499 3ba4 8b26 bc3f
000004e0: f970 f32e 5afd b33f 400b b06b bff1 89bf
000004f0: e2ed 2f4c a778 e7bf ab47 9eb7 c711 debf
00000500: 3f14 ad2b 4bf6 d2bf 9d98 8eeb f6ab a13f
00000510: 0044 9b1b 8778 95bf 4a3e a5f1 ac63 d03f
00000520: bf27 1b62 4f25 dfbf 4672 3772 e474 c5bf
00000530: 410e f530 e25b c63f 8e43 1058 e953 b23f
00000540: 40b9 2db2 9432 973f 3e4c 82ab 4eaa bbbf
00000550: f683 60b6 f96e c63f 2085 f6bb f4d1 c8bf
00000560: 6f89 be0b e891 c23f 7ff3 3601 d199 c03f
00000570: e79d 3543 3365 b33f 4124 7120 d15a c03f
00000580: 4407 e3b1 d335 c53f cc5a f476 86be c4bf
00000590: 19ed 1fb3 30ec d2bf c8fe ccca eb06 b33f
000005a0: 30d3 b8b0 c0ba d2bf 07f1 dbb8 e73a d63f
000005b0: cc33 388a 4055 c1bf 4266 cdd8 4243 afbf
000005c0: 72ff 50f7 b927 c4bf 1827 82cd 7f42 a8bf
000005d0: 8e83 e743 e4fa ca3f 0004 864b 9db3 70bf
000005e0: a1cc 2f6f 7a2f e7bf 4a8b 5c88 ab81 d2bf
000005f0: ade3 5827 a6f5 d1bf 30e7 fe22 a963 a7bf
00000600: 2af2 b7dd b1b4 c53f 4021 070c 2cce a03f
00000610: 0c7a f71a c828 dfbf fbef df7c 8f59 d4bf
00000620: 170b 0e0b 894e afbf a417 96b3 f357 d1bf
00000630: 540f 3777 9e68 b3bf f2ca fa18 248c 8dbf
00000640: 708d f246 035e aa3f 52ea b171 c038 c5bf
00000650: 74a6 f3c0 83ac e23f d418 fea7 025e d03f
00000660: 1cc3 d3fc c58f afbf 15bb 1b6a b9c2 c9bf
00000670: 3ff9 fbd9 76db ccbf 3341 ce32 419e b93f
00000680: dcb6 9fb9 ee39 cb3f 2674 3777 4061 c4bf
00000690: cd14 3b8a a061 e13f 5287 0819 34b8 b83f
000006a0: 00f9 d1d9 232b a7bf d45f 9690 f0d7 b43f
000006b0: bca6 3882 9e7b c53f 119c 0f7c 8be6 b43f
000006c0: 1936 9337 eca5 d13f d4ab 5c68 603e cdbf
000006d0: aaba 4bcf 0df3 df3f 8177 e9a1 cbb3 bc3f
000006e0: 6ae3 2f88 ed81 c4bf a5c5 d4c1 2226 d23f
000006f0: 4008 79aa 879c a53f 3749 045b f6bc b13f
00000700: 58d6 88cb 1a00 c8bf 1fea c5f4 35eb d23f
00000710: 31a1 4ab9 b6d3 b83f 3aa5 12f4 aa57 df3f
00000720: d9e9 1d84 e8a5 c4bf 80b2 eb7a 515b ad3f
00000730: 7b6b d2b8 b4a4 b03f 76d1 e38f 9976 c0bf
00000740: 0020 362d 1cce c3bf 6d56 2f75 80f3 a33f
00000750: fe15 770d b033 e33f 8095 17c7 4991 733f
00000760: 8fe3 669e 23be e0bf 596e 9379 6599 b0bf
00000770: bf59 5736 181b d2bf 3775 c9c6 ed6a 9b3f
00000780: 4038 4552 f954 81bf ab8e 365e b597 bd3f
00000790: 30a5 b0f3 87c3 ca3f c4cc 03a6 0b84 cc3f
000007a0: 1cb2 0aa8 0ef9 aebf 6f66 9e3d ee94 b03f
000007b0: 491d 9cf6 8850 b43f ce09 54cc 7618 b43f
000007c0: a057 5834 a4e5 933f 6b05 6363 b294 c9bf
000007d0: 3e04 e90a 1231 dc3f b434 7a04 33bb d63f
000007e0: 46ee b60b c6b2 cfbf 9683 2a1f d02a aa3f
000007f0: 06b8 c5c5 729a b13f e5f3 15d2 c9db b33f

times f8 [3]
3218.022638320923 3234.5675191879272 3236.3608207702637
00000000: 0000 4097 0b24 a940 0000 e091 2245 a940
00000010: 0000 80bd b848 a940
