package_metadata/openml/kin8nm/ground_truth/shap_kernel_3_xgboost.npz (npz, 376920 bytes, 2 tensors)

exp_values f8 [3, 2048, 8]
00000000: 3ef4 9269 f3fb a0bf d46e efaa 9207 b2bf
00000010: fbe2 c4d5 d07d dc3f 58bf a041 8757 a8bf
00000020: 8a72 5c52 302d d93f a761 3c26 280a e03f
00000030: c844 7fd5 c80d b9bf 0091 9534 e2c3 883f
00000040: 2e3c 4db7 1638 c6bf 049c 5d02 67c5 b9bf
00000050: 1b11 e506 8066 e5bf e037 d215 3b45 a03f
00000060: 91ed 9eb0 82db a7bf 89a6 4a27 0a5a d33f
00000070: 7b7e 67da ce2c b13f b8b3 73e0 0d43 c33f
00000080: 9324 1d19 730b c2bf 91db a9c5 fc3d b83f
00000090: 18cb 4e3c 5b1c dfbf 9fb0 a4cf 24fa d1bf
000000a0: 0557 2d43 d018 b4bf 2042 ce25 ba29 a23f
000000b0: c588 db1d 1918 b53f 981b 9143 ef2a d2bf
000000c0: 766a bb07 053f c13f 42d9 546f 079a afbf
000000d0: 17c9 a205 de40 e1bf 4947 f1f5 4c29 d13f
000000e0: 6ae1 5fdf eed2 d03f d8cc dba0 4c7d c5bf
000000f0: 87c0 55ea 011f b6bf eb8f 82f3 b576 c13f
00000100: 9864 f8d5 d636 b1bf 901a 40d3 f724 d03f
00000110: 7052 3e49 ae77 ebbf 20c4 af8f 334e b03f
00000120: 8266 22b7 bd03 d33f ddc6 6c7f b496 d0bf
00000130: af41 4bc4 e9c0 d0bf ecec 41dc 0e5d c23f
00000140: 408a 1e42 d5de 9d3f 9c49 8607 d84a a9bf
00000150: e81d 4d7f ddf6 ddbf 5d39 7fac 48d7 9abf
00000160: 6a74 eaae 4ae6 d4bf a427 48b6 dafd abbf
00000170: 27e2 450a f918 a53f 9f44 2db0 41f8 b93f
00000180: ffc8 735a 1b05 d0bf 8bd6 5e5d 24fc b13f
00000190: 7ed8 c4bf 67fc e33f a841 c19c c14e cabf
000001a0: 47c0 d3b1 88b3 dc3f d030 a1a0 878f b3bf
000001b0: 8de6 b18e 9883 d13f 2595 a414 6d4d c33f
000001c0: 0de7 f59e 9182 a43f 85f8 f80c 67d7 b8bf
000001d0: e99d 5b42 c2e5 e43f 1a28 485e 55dc b73f
000001e0: 6684 1c33 57e1 e13f b428 748f c64f cf3f
000001f0: 3966 62ad 890a ca3f 70cb 4503 d69f b7bf
00000200: 460b abbf 005b c4bf 1daa 2f2d 656d bfbf
00000210: b9db 6c28 0e46 b3bf 1036 68b8 50ea a63f
00000220: f438 9f60 b62b ddbf 80f8 7b65 e4ff cb3f
00000230: e8ba 71de 0293 d13f dc3b a4c1 bfbc d4bf
00000240: 8318 4f22 cc44 9b3f d444 7c83 5ccc a9bf
00000250: e47a 0d6b 0850 ecbf 00db 4e83 96e8 823f
00000260: 5bc6 7d8e cfbb b03f e6fe bba9 0d45 c53f
00000270: 5588 1a20 ae0d cfbf 4616 2fb1 1f31 c03f
00000280: 001a f687 3d86 903f 267c 0014 e092 afbf
00000290: ec6f e3a7 4750 ebbf 3116 1596 e03e b3bf
000002a0: 5886 a3d8 a7b4 b93f f446 613c 2de8 c3bf
000002b0: 90ed 8966 4400 b4bf ca35 3139 1f42 b0bf
000002c0: 677e 9a3f 51f2 d2bf 20b4 b188 3067 c2bf
000002d0: 512d 8102 53d2 df3f 3bac 4b93 afbf bc3f
000002e0: c93b 3799 e4ee da3f 7bd2 4904 35d6 cc3f
000002f0: c640 ab4e 37c5 c23f b572 a8aa dc80 bf3f
00000300: 208e a3a3 8d38 d43f 5b6b 87cd b536 be3f
00000310: 1567 13e7 bea3 e23f 30d7 8b62 8941 b63f
00000320: acb6 a433 ff63 d3bf ede9 cb0d f6b6 dc3f
00000330: 36b0 9bba 67e2 d43f 676e d581 e8d8 d2bf
00000340: 0c6f 42c4 e456 b43f c017 f701 4443 a4bf
00000350: 4621 9f6a 5567 e53f d752 4083 771e a13f
00000360: c2a2 aa38 7973 e33f 7c77 fa2f ed08 c13f
00000370: fde2 0a31 33ff d53f 46e0 9c7f 52d3 b93f
00000380: 58f3 4b0a 018e c73f 00bc 151e df69 38bf
00000390: efd6 4292 83ff bc3f 398a d2a9 58b2 ba3f
000003a0: f212 e12e b7eb c03f bfe2 c6eb 6462 a73f
000003b0: b8a6 644b 25fd a03f 604a fa53 fc82 ccbf
000003c0: 36d1 d29c 9d9d ca3f 9a5c c8b5 4a66 b4bf
000003d0: e3bc 4f2c bbd7 d13f 2267 58f9 b18b d9bf
000003e0: a166 d39f 0f02 d63f 62f2 cd8b 334c dbbf
000003f0: d6bb 9b5b 5734 c4bf edc8 2c3a 29cd c93f
00000400: 00ce b65a 0df2 c63f 4259 63b5 c304 cb3f
00000410: 1004 62a9 1fc0 e9bf 6341 2805 aaf0 c3bf
00000420: 68e8 a897 f167 b53f 1a78 cb8e c577 c6bf
00000430: 956d bf79 48bc ca3f b504 4705 60a6 c83f
00000440: b42c b738 e34f cdbf ffa0 00c0 af5c b73f
00000450: 27a9 0b66 331c dfbf 3f80 6e4d 9f30 dfbf
00000460: 312a 2d36 c45b d33f 69dc 962f 44dd d6bf
00000470: 40f2 7621 ef6b a1bf fd27 ab38 985c b43f
00000480: 1485 028c 100f c13f 48ac c2ab 2e09 cc3f
00000490: 51b6 fefb b03a c93f 769d 347c 0770 c03f
000004a0: 706d edfe 961e adbf 199f 145d 8782 c63f
000004b0: 4edd fbd8 e5b3 a63f 9d07 d1bb cc93 b13f
000004c0: bae0 260b 55fd c2bf 06a6 0257 e236 c43f
000004d0: 400d c3e7 5247 843f b2cc 7f83 947a c43f
000004e0: cd13 7dc7 2cb5 b53f b970 d4b9 5f38 b7bf
000004f0: 9ce2 e920 9fd2 debf 9585 af50 e58e d1bf
00000500: d5e2 e82b 454b c7bf 42cb 765c daec b13f
00000510: b9d8 2055 c1e6 ab3f f0f9 4d43 7f2c d43f
00000520: 4663 a2c2 8d4b dcbf b06f 2462 0335 8a3f
00000530: 8f5b 7cca 6e45 9c3f 102d 56a4 2e7e a33f
00000540: 0b78 1f41 d9ef ba3f a33e a15c 8bb1 bdbf
00000550: 35bb 8db4 68e8 c63f 49c9 945f a1b1 b9bf
00000560: 18b9 ff1d d9a6 d1bf 9b54 ac87 6a24 a1bf
00000570: 312e d8f3 6f61 c3bf 00ce 331e 9cb5 9fbf
00000580: 36e9 3fda 837d ca3f 9f85 11d9 96c3 b7bf
00000590: 9b8b 7989 7c5d d3bf 00cd f065 ebae a13f
000005a0: cbcc baf0 0d90 d2bf b499 ce88 1bc1 d23f
000005b0: 965e 6de5 9c00 cdbf ad39 81dd 947e c9bf
000005c0: 8604 2f15 ece7 bbbf f507 efe3 4e64 a9bf
000005d0: 49d7 bcd0 afd1 cf3f bbdf b59b 7303 b83f
000005e0: fb74 d8d0 4b3d e3bf 899c 17cb d467 bbbf
000005f0: 7433 85ea a7e8 93bf e04d 9865 59a4 9c3f
00000600: a067 2c56 ffe1 b83f 1bd3 9ce4 345e c43f
00000610: 1427 54ba 7091 dcbf 2861 e4ef 83c2 d6bf
00000620: ae52 4912 565a cabf cd1a 186e 91e4 dbbf
00000630: 757d b7a8 498c d1bf 7f5e c0b3 4cfc b5bf
00000640: 6852 1f0a 8124 c53f da18 1e83 99a4 c0bf
00000650: 5edd f062 8437 e43f 6a82 428e aadc c53f
00000660: e0d0 67b3 a86f 97bf 0d85 b0f8 4d56 c5bf
00000670: a2b9 a4a0 21d0 ccbf b696 6860 b69f b43f
00000680: 0234 d0ca 5151 ce3f 742e e364 54b2 c1bf
00000690: 352f c9a7 8e52 e33f 8f34 f57a 941e b33f
000006a0: 00c4 12e3 6baf 70bf 51a1 f09b 8437 b73f
000006b0: 2a32 1c5d 8fa1 c63f 39f5 e125 287b bc3f
000006c0: 44ff 4bdb 956b cc3f 968a 635f abaf d3bf
000006d0: 1f25 5949 a0b3 da3f 5d21 8f29 1f1d bb3f
000006e0: 45c4 22b8 4c70 bfbf 2371 2a1b a0ac cf3f
000006f0: 0030 6a19 6be6 5f3f 3637 5d90 8236 b33f
00000700: 2516 5731 d6b5 b4bf 8ea6 e9df 0b86 db3f
00000710: 3dbe f97e d8ed c63f e706 0200 da58 db3f
00000720: 008a f275 0d8a cdbf 5003 f3af ee75 b53f
00000730: 31f8 c29e 7f74 b33f 00ea 5e0a db1c 5ebf
00000740: d830 9d7e 220f c3bf 604d 8724 b1e7 9a3f
00000750: 173f a5fb 3a4a df3f 0c90 2fbb a415 b2bf
00000760: d4f8 04c0 07e4 ddbf ac52 1d73 d30b a2bf
00000770: 21bb 2cdc 5c3c c3bf 18a6 bc94 4789 aabf
00000780: 9088 ad7b 9bfa b7bf 1af8 449e 1e0b bf3f
00000790: 6a97 8bf1 6fd1 d33f 2f1d b2ec 3d9a c43f
000007a0: 0b81 79b8 5d39 a43f aebb 386e 4ac4 c93f
000007b0: c22e 60c3 f450 bd3f eb0c 5d02 a411 c33f
000007c0: b80d 8d76 7e88 bcbf 9837 4b73 1457 c8bf
000007d0: bd51 fc37 ef3b db3f 676b 8bd5 126f ce3f
000007e0: a607 d2ea c568 d3bf 14f5 4b88 b6c1 bdbf
000007f0: db04 5831 ecb1 bebf 0048 0118 185f 10bf
-0.033172232282119726 -0.0704280536005471 0.44517918468368095 -0.04754278827783648 0.39338310282781974 0.5012398478311767 -0.09786658489544486 0.012092368345016258
-0.17358669233587548 -0.10066837127452294 -0.6687622198738014 0.03177818909999508 -0.046596607265622876 0.30237058484144846 0.06708996612678135 0.15048383197372828
-0.1409744141222161 0.09469585252541736 -0.4861057366317012 -0.28089256551425906 -0.07850362434450282 0.035474602808907685 0.0823989580053733 -0.28387052152941683
0.13473570706885923 -0.06172202333475464 -0.5391683683467673 0.2681457902700584 0.2628743344680716 -0.167886332077251 -0.08641063662594393 0.13643526449334273
-0.0672430298221961 0.25225635175630945 -0.8583594732795756 0.06369325883839894 0.29710333713737935 -0.259198307455433 -0.2617744843419371 0.14346490626107966
0.02917035308895266 -0.049399138372922397 -0.4681924575019978 -0.026211867836360415 -0.3265558918154229 -0.054671129943087565 0.04120615244295705 0.10144434500877474
-0.25031169732314135 0.07025363235046649 0.6245611901747592 -0.2055284514813256 0.4484578835099495 -0.07640884086248723 0.2736569779877776 0.15080035694078578
0.040058661131253094 -0.0970367819472547 0.6530467315723715 0.0932057719402625 0.5587574003476561 0.24462205891206212 0.20344658819230846 -0.09228265361688925
-0.15902718886180817 -0.1227629885976644 -0.07528770911163364 0.04475643397391249 -0.45579299388636163 0.218746709397184 0.27459785197326747 -0.3240203276663445
0.026629628747990807 -0.05038727860495276 -0.8847696390983768 0.009232688791468657 0.06536576489249894 0.1661698416501089 -0.24260498588143045 0.1264991393237997
0.016137086318417815 -0.06166744465030431 -0.8535497931547957 -0.07517818130607946 0.10041283644707144 -0.15552297065965315 -0.07812907699001514 -0.06350894113821606
-0.29603987895277445 -0.1437740962459495 0.49721217388715383 0.1122998938187018 0.4208308693168275 0.22528708180802312 0.14664355603463813 0.12306002775626264
0.31595173817024325 0.11802231090352448 0.582488490409761 0.08693751006998407 -0.30297832530309665 0.44866706225698644 0.32631867621853716 -0.2944890277774221
0.07945089141361111 -0.03957569622029622 0.668863971944156 0.03343556859195978 0.6078458887833096 0.13308491556830038 0.3437011698656958 0.10088077178522878
0.1840211200978057 -0.0003725213737970079 0.1132738334734673 0.10428384920172896 0.13219346798918924 0.045672563344344656 0.03318134827925462 -0.22274736500237946
0.2079350486507196 -0.07968584955266281 0.27879218413631984 -0.3991513190281798 0.34387579544054786 -0.4265259614256022 -0.15784732792914608 0.20157351818631444
0.1792618458690498 0.21108290058936957 -0.8047025974520938 -0.15578198673075425 0.08361730530387634 -0.17553014252092752 0.20887094444956902 0.192577364518035
-0.2290004755908278 0.09125803411064125 -0.48609623875985836 -0.48734266816791555 0.30247597971598156 -0.35725502631561895 -0.03402659686569054 0.07953788169393756
0.1332722362176716 0.21903022181263254 0.1971036177105128 0.12841886105273276 -0.05687400686175692 0.17585842175434932 0.04434126161316475 0.06866149506916348
-0.14835608524822935 0.15792493103553812 0.009901664445698288 0.15999084874019825 0.08479575987173789 -0.09070394789563609 -0.4816053220197689 -0.27434666518646483
-0.18198456424740664 0.07002033955977274 0.05449489750064757 0.3152158887168346 -0.4421114350057461 0.012796427185598563 0.02760861502528261 0.03807206874906843
0.10522229995646641 -0.11599036227675667 0.1789675599679527 -0.10036667426610281 -0.27580860070783464 -0.033480958043733376 -0.15141105085818787 -0.030966224044233215
0.20695541531297018 -0.09282820510408961 -0.30258096146843066 0.03453765506164963 -0.29004238613852057 0.2930363498693638 -0.22658120348454663 -0.19917546096480745
-0.10900760190181033 -0.049593415569248046 0.24858663265484385 0.09380266715549983 -0.6012324408544879 -0.10705308874422505 -0.019442199410423425 0.02797069246851247
0.0971984467873015 0.1591249576828425 -0.4463769740692538 -0.3556222765632975 -0.20588184254542824 -0.4358256888521453 -0.2741874835609999 -0.08588103664839684
0.16517651552443913 -0.13002318289017617 0.6317769939841289 0.17079669901160638 -0.022886882734341252 -0.16669630663913218 -0.2251016649619944 0.0805620179531513
0.23685667422287798 -0.13825468946594166 0.603827789027014 0.07468536378765321 -0.004073544915784488 0.09069088751914946 0.17680542036431862 0.11125422406071984
0.22203324516157796 -0.3075970107585503 0.41721350825226183 0.1059131123030332 -0.12280730720046147 0.24745560957388432 0.0019470258609173285 0.07505050682558764
-0.08089960770220068 0.4300565420768202 0.17913347434977026 0.4272980690076182 -0.23077553042556076 0.08383075519215066 0.0759963762857019 -0.0018379344050872826
-0.14889937574697032 0.026274459700130648 0.4889056642032172 -0.07064275331464404 -0.467042863387076 -0.03524647503096409 -0.15027962446898704 -0.05182861033092595
-0.0936677147815621 0.12126342166899953 0.30965803707510153 0.16095708901796388 0.03950016857993618 0.2013028181258653 0.11451654214777832 0.1489758502521917
-0.11145773310004514 -0.19015746717053328 0.4255331083998291 0.23776469637854378 -0.3032698434036497 -0.11623707606846195 -0.11990238384898382 -6.245216900538364e-05

times f8 [3]
00000000: 0000 9c4a b74f b240 0000 905d 425f b340
00000010: 0000 68d0 a43c b340
4687.715982198715 4959.259240150452 4924.643805027008
