package_metadata/openml/adult/ground_truth/shap_kernel_3_xgboost.npz (npz, 991575 bytes, 2 tensors)

exp_values f8 [3, 4096, 14]
00000000: 7d9d a545 79ef a63f 00bf 752a ea52 803f
00000010: 0000 0000 0000 0000 f386 1e21 c65d a03f
00000020: 1972 8a4d 3489 7e3f e966 3af4 a624 763f
00000030: 0000 0000 0000 0000 0000 0000 0000 0000
00000040: fb87 b991 5e3c b13f cf5a 8d43 b719 933f
00000050: 8e7e 8d44 0709 aa3f f8d3 478e 9785 9fbf
00000060: 8138 5206 c7b6 7d3f 0000 0000 0000 0000
00000070: 7990 8dee 7e27 943f 9894 875c f8d2 8dbf
00000080: d304 b85f 320b b63f 4687 0abf 616e 9b3f
00000090: 53e9 736d d637 b4bf 45d5 b21a 1a21 87bf
000000a0: 0000 0000 0000 0000 0000 0000 0000 0000
000000b0: 65dc d95b 08c4 b63f 80a9 73a4 0cbf 76bf
000000c0: cf02 fc46 590e b23f 0000 0000 0000 0000
000000d0: b1d6 642e a929 a03f 0000 0000 0000 0000
000000e0: c0ca e1e7 d990 87bf c77f 753c 4974 723f
000000f0: 7428 dc9e bb27 aebf 26db 7a7f 1df4 9a3f
00000100: 11b6 73ab 7e39 803f 0323 f515 242b 883f
00000110: 0000 0000 0000 0000 0000 0000 0000 0000
00000120: f636 37ac 8fbe b43f c83e 69d0 cb0e a23f
00000130: 9ecb 9644 7ea9 b73f 0000 0000 0000 0000
00000140: 6f97 6198 c0a6 973f 0000 0000 0000 0000
00000150: 4d4d 9a20 dd92 a6bf 0000 0000 0000 0000
00000160: d958 155b 5a07 adbf 2612 ac6c c752 9c3f
00000170: 57f4 df6e fc27 d83f 0000 0000 0000 0000
00000180: 2048 2a89 1a1a 75bf 0000 0000 0000 0000
00000190: 0307 a8eb 2a71 a7bf c7c7 9107 8051 98bf
000001a0: b81e 7cea 63e3 a5bf 0000 0000 0000 0000
000001b0: b558 851e 4ce4 78bf b4fc d92d 8c86 7abf
000001c0: 12e4 2cd5 e2d4 913f a002 485e 2858 7a3f
000001d0: 5f9d 002e 57e3 9a3f 4071 d4f9 86dd a03f
000001e0: df38 bf30 d401 7e3f a143 a478 ac40 7d3f
000001f0: 0000 0000 0000 0000 0000 0000 0000 0000
00000200: 1837 19f0 32ad a83f ffc8 2179 407d a93f
00000210: b31f 51ae c4d5 983f 135a 0e81 06da 8e3f
00000220: 0000 0000 0000 0000 0000 0000 0000 0000
00000230: 1bd3 acd9 59fc a4bf c164 58e6 b1ee b83f
00000240: 0000 0000 0000 0000 044e 9cab 97bd 953f
00000250: 0000 0000 0000 0000 5416 dc57 4306 90bf
00000260: 182f 70af b364 a9bf 0000 0000 0000 0000
00000270: da81 d14a b901 acbf 0355 6004 2def 72bf
00000280: 9339 138a aa58 b1bf 70da e42a 8733 77bf
00000290: 3aff 5b5c a890 7cbf 0000 0000 0000 0000
000002a0: e7d8 b8cb 992a ba3f 0ae8 52c1 fcae acbf
000002b0: 0000 0000 0000 0000 9e37 4b23 e2ac 953f
000002c0: 0000 0000 0000 0000 c57f b6f6 0362 a9bf
000002d0: 9e3f a523 c98f 80bf 0000 0000 0000 0000
000002e0: c1e2 447d 46aa b4bf 1eb4 9ffa 0002 a2bf
000002f0: aec3 77d8 60c2 9ebf 0000 0000 0000 0000
00000300: 0074 e772 60ce 8fbf 00a9 ec67 4553 71bf
00000310: 0297 7085 a866 ba3f fa71 5d23 aa66 9a3f
00000320: fcc9 4581 ede6 bc3f 0000 0000 0000 0000
00000330: 0000 0000 0000 0000 604c fba7 eed6 943f
00000340: 0004 300d 34e5 6c3f 0000 0000 0000 0000
00000350: c5b1 fb15 54d0 ad3f 769a d938 e7fc be3f
00000360: e811 13d9 50bf bc3f 0396 40f7 86ad 743f
00000370: 2044 d49b 5582 7c3f 0000 0000 0000 0000
00000380: 2736 0096 0015 a0bf 0000 0000 0000 0000
00000390: 34f6 7e56 3f5d b03f 0a54 68b7 bbd2 9d3f
000003a0: 80d7 4150 406b 6a3f f41e 1d1b 3177 6e3f
000003b0: 0000 0000 0000 0000 0000 0000 0000 0000
000003c0: 2632 fe01 4f77 a43f 740a a7bf 28e4 b23f
000003d0: 3903 a7e2 5532 9d3f 364d 4d2c ce51 8d3f
000003e0: aa72 b3d7 e9c2 833f 0000 0000 0000 0000
000003f0: 01f1 2f72 df79 b73f bcf4 2ce8 c3d2 793f
00000400: 7705 fac4 cc76 bd3f 0000 0000 0000 0000
00000410: 0000 0000 0000 0000 9829 82fb 1f9f a2bf
00000420: 61c1 c21d 9591 a0bf 0000 0000 0000 0000
00000430: 1c5a 72e7 5138 b33f a2fb 2f0b 1b36 b93f
00000440: e3f3 5f1c 3593 b33f 0000 0000 0000 0000
00000450: aac8 372f 3472 763f c0d1 1c51 788c 743f
00000460: 3199 7f37 4095 bf3f 80b0 80e3 59bd 7abf
00000470: fe1d f8d1 4878 d13f 0000 0000 0000 0000
00000480: 0000 0000 0000 0000 191c 32da c835 933f
00000490: b4d4 e07d d377 99bf 0000 0000 0000 0000
000004a0: a118 d947 c82a b43f cb24 713a 7c9a bb3f
000004b0: b271 dafd 08f7 b93f 0000 0000 0000 0000
000004c0: 2596 3324 1219 7c3f 6664 b4ad 1c30 643f
000004d0: c144 b540 067e b13f 264d 48e8 46fa 673f
000004e0: 175b 7619 4db3 9f3f fdf1 e70b fbd4 a03f
000004f0: b5ff 2a6a 3a3c 7e3f 3abc 9e52 b58f 653f
00000500: 0000 0000 0000 0000 0000 0000 0000 0000
00000510: d50b 94b8 c2be af3f 3fa6 c097 4370 96bf
00000520: ed3c 9980 8eca a53f 0000 0000 0000 0000
00000530: 6037 35da 0087 79bf 0000 0000 0000 0000
00000540: 8d1c 3196 ffe6 a03f 3350 a3fa 6f5b 963f
00000550: 5d8c 67a4 38ed b13f 8961 7640 0c61 e03f
00000560: 0000 0000 0000 0000 253a bb2c 0a16 843f
00000570: fbf3 9b1c 0026 94bf 0000 0000 0000 0000
00000580: 0f70 493b bf07 a93f a1e5 1e28 045c a53f
00000590: 6607 1350 3da9 a63f 0000 0000 0000 0000
000005a0: 0000 0000 0000 0000 00f8 f9c0 9635 603f
000005b0: 9f0c 79ab 8f64 80bf 2389 2e9e 0b3a 90bf
000005c0: 591b 98fd b7e4 a23f d605 2850 d914 9f3f
000005d0: b0bd f356 de03 813f 4625 9919 1ef7 b03f
000005e0: 0000 0000 0000 0000 0000 0000 0000 0000
000005f0: 1af4 c02b 0b61 a93f 717f e614 5fe8 a63f
00000600: fa88 bc7b 66a4 983f 0000 0000 0000 0000
00000610: 8003 3c62 1b1f 65bf 0000 0000 0000 0000
00000620: 9c3c d88e b096 bcbf 9b59 50ff 7b5a a6bf
00000630: bf3b a40a c45e ab3f 0b8a bffb dc82 973f
00000640: 0000 0000 0000 0000 9853 322b 5b27 b2bf
00000650: d4a7 2ba4 d146 903f 0000 0000 0000 0000
00000660: 8262 d31c c308 a43f 729c cf16 6eef b1bf
00000670: 9bca db88 2c1f ad3f 0000 0000 0000 0000
00000680: b4bc e18e 092d b43f 0000 0000 0000 0000
00000690: 91a7 08d1 66aa ac3f ce45 a58c e1e4 a83f
000006a0: 668f 44af 9047 9bbf 8e97 57e8 d6a8 9d3f
000006b0: 49a1 ba4a f71d 8a3f ba82 8ea2 c835 bc3f
000006c0: 80f8 3188 b44b 85bf 0000 0000 0000 0000
000006d0: bb31 68a6 0255 aabf 4b0c fb7b 391f 91bf
000006e0: d241 121d 83fb 93bf 0000 0000 0000 0000
000006f0: 0000 0000 0000 0000 0000 0000 0000 0000
00000700: cb96 7842 a143 913f c022 4f83 22a7 85bf
00000710: e052 2df2 4ba3 963f eb25 4dcb 4804 a13f
00000720: a037 892d b07e 7b3f 5af3 07cc 3b1a 7b3f
00000730: 8b3b a1d6 fc4a 7a3f 0000 0000 0000 0000
00000740: 0870 32b9 862f aa3f 1da2 2c6a 30a2 a93f
00000750: 4b17 d67a a9a7 a93f 0000 0000 0000 0000
00000760: 0000 0000 0000 0000 0000 0000 0000 0000
00000770: 9681 87b8 41b1 b63f 6070 04d6 4527 8fbf
00000780: 0000 0000 0000 0000 36f7 d1be f5b5 a03f
00000790: 4d97 56fb 4bd6 783f a569 c46b 5635 923f
000007a0: 0000 0000 0000 0000 0000 0000 0000 0000
000007b0: 4b30 a5f9 922b ab3f 3fd9 1732 38f9 96bf
000007c0: 5778 8855 1e72 ac3f b4ef 8a38 1360 863f
000007d0: 62a9 5924 a8e5 813f 0000 0000 0000 0000
000007e0: c575 87b2 3054 b03f e05d 10f4 bb9a 803f
000007f0: 238c 52e1 2d4a 9e3f 849e d7df 5438 a03f
0.044795789481947935 0.007970647259497365 0.0 0.03196543840682677 0.007455066974810375 0.005406047977567254 0.0 0.0
0.06732741410954184 0.018652785776192723 0.05085013114762403 -0.030783050593488043 0.0072543882753405295 0.0 0.019681914625281103 -0.014562549899844776
0.08610834919820158 0.02678826073191167 -0.07897701427638042 -0.011293605747008892 0.0 0.0 0.08892872087914012 -0.0055532926410059025
0.07053144438760771 0.0 0.03156784716922568 0.0 -0.011506750477768946 0.004505430296688879 -0.058896887914742374 0.02632185068679429
0.007922162635135373 0.01180103485116169 0.0 0.0 0.08103273348316606 0.035269135657129136 0.09243001150643557 0.0
0.023097047138797174 0.0 -0.044089231710268885 0.0 -0.05669672357423545 0.027659526832410596 0.37744055583590835 0.0
-0.005151847510790147 0.0 -0.04578527571358217 -0.023748398267748685 -0.04275047528613868 0.0 -0.006077096310340637 -0.006475970816267541
0.017413658391181093 0.006431729973429029 0.026257860358012915 0.03294011878662895 0.007325962895221332 0.0071417557867485 0.0 0.0
0.04819640332116942 0.04978372076665671 0.02425296129175054 0.015064287961462452 0.0 0.0 -0.040987785169283884 0.09739219545044177
0.0 0.021231050347592997 0.0 -0.015648891675502277 -0.049596419492529076 0.0 -0.05470065153417965 -0.00462262711336803
-0.06775918837522558 -0.005664375303516253 -0.006973893794338265 0.0 0.10221253608401391 -0.05602254733953778 0.0 0.021167310146487865
0.0 -0.049575923792189815 -0.008086749458612815 0.0 -0.08072319563224097 -0.03517153796551774 -0.030038369381091883 0.0
-0.015530351168246526 -0.0042298041505921535 0.10312894113357277 0.02578225937701182 0.11289867788381253 0.0 0.0 0.020351151469025885
0.0035272614127284108 0.0 0.05823004501675969 0.12104649675311827 0.11229424762411322 0.005048300943632625 0.006960234078420974 0.0
-0.03141023474755072 0.0 0.06392284261433973 0.02912419611864795 0.0032249694941652307 0.003718944463717006 0.0 0.0
0.03997275256469761 0.0737939327146167 0.02851232715488836 0.014316187598217494 0.009649111647769121 0.0 0.09170338189864326 0.006304517041653298
0.11509399231910843 0.0 0.0 -0.03637027688189959 -0.032360706217675846 0.0 0.07507812405160802 0.09848183653956125
0.07646495764488707 0.0 0.005480007024276793 0.0050167751194760135 0.1233711371893136 -0.00652823555723725 0.27296658043675837 0.0
0.0 0.018759859387980613 -0.024871162946699513 0.0 0.07877780679800363 0.1078260080986581 0.10142570684042232 0.0
0.00685984693993683 0.00246434785152565 0.06832923011576765 0.002926958552288322 0.030957417182061322 0.03287491340958935 0.007381656820768902 0.0026320020160351095
0.0 0.0 0.062002263099223555 -0.021912628304710188 0.04256100959593732 0.0 -0.0062322648330573605 0.0
0.03301237781902797 0.02183318106911276 0.0700259591463221 0.5118466624290231 0.0 0.009807662477581644 -0.019676210161367873 0.0
0.0488872299071944 0.04171765317682775 0.04425994493932599 0.0 0.0 0.0019786781702455514 -0.00800430528682333 -0.015846425561570798
0.03690123530036855 0.03035296966300457 0.008308159855430514 0.06627071499783196 0.0 0.0 0.049568509188681456 0.04474160318500154
0.024064637472414475 0.0 -0.0025783095205728634 0.0 -0.11167434203547305 -0.04365909091591221 0.0534573805799634 0.022960141053667765
0.0 -0.07091302685360146 0.015895152707265783 0.0 0.03912934996487129 -0.07005966240795816 0.056878463465087147 0.0
0.0788122152168736 0.0 0.05598756124193394 0.0486212238489646 -0.026640186975000722 0.028964384013213933 0.012752468078659833 0.11019567459744453
-0.010398302465770337 0.0 -0.05142982751212651 -0.016720674698046428 -0.019514130257961622 0.0 0.0 0.0
0.016859550172873477 -0.010572690613018465 0.022107302337945778 0.03323581201273015 0.006712616152595802 0.006616815168396817 0.006419170045844145 0.0
0.051143846613939614 0.05006552978585808 0.05010728477922884 0.0 0.0 0.0 0.0886422229300535 -0.015211625665465245
0.0 0.032638244193533714 0.006063744357936174 0.017781591727819585 0.0 0.0 0.05306681916644659 -0.022435071999973074
0.05555815500359589 0.01092543617539108 0.008738816842385592 0.0 0.06378464087125398 0.00810763205122006 0.029579846265402786 0.031679775547499595

times f8 [3]
00000000: 00a0 8ad0 c356 0541 0060 3a59 eb3c 0341
00000010: 00e0 c035 c834 0341
174808.4768269062 157597.41856837273 157337.02624678612
