package_metadata/openml/miami_housing/ground_truth/shap_kernel_3_xgboost.npz (npz, 850444 bytes, 2 tensors)

exp_values f8 [3, 3483, 15]
0	0x3fb5a6ea0a77ec67	0.08457815890862862
1	0xbf89257ce8371a1c	-0.012278533779761118
2	0x0000000000000000	0.0
3	0xbf8f2b74d7350f0f	-0.015219605271915819
4	0x3f978e0bf666f58f	0.023002802766986682
5	0x0000000000000000	0.0
6	0xbfc127b63888c115	-0.13402440796335982
7	0xbfa235a9a2e46738	-0.035565663465787656
8	0xbf6d4537a45d0300	-0.003573044467799824
9	0x3fd1a42962d4bb22	0.2756446328302663
10	0x0000000000000000	0.0
11	0xbf80b862be4156ee	-0.008164187842492034
12	0x0000000000000000	0.0
13	0x0000000000000000	0.0
14	0x3f757bf891fdef5b	0.005245181062374228
15	0xbfc1031e1ac371b5	-0.13290764147576586
16	0x3fa6c88c33267914	0.04449880718606117
17	0x0000000000000000	0.0
18	0xbfc04bca52d2f8ca	-0.12731293720384534
19	0x3fa1d74c06c10053	0.03484571058697896
20	0x0000000000000000	0.0
21	0xbf9f74543daf80b6	-0.03071719767092481
22	0xbf85491559b1442c	-0.010393301772781603
23	0xbfb7049c9d81a63c	-0.08991412015316141
24	0xbfb684868a0a164b	-0.08795967931845287
25	0xbf7b52cc2b138440	-0.006670758755007944
26	0x0000000000000000	0.0
27	0x0000000000000000	0.0
28	0x0000000000000000	0.0
29	0xbfb606720fbfc2c6	-0.08603585133074451
30	0x3faf9629946da015	0.06169252335422485
31	0x3f98527b8f1b878c	0.023752146348563083
32	0xbfb68d7a0849bb82	-0.08809626295417952
33	0x0000000000000000	0.0
34	0xbfa3c26d1a62791d	-0.03859272906378151
35	0x0000000000000000	0.0
36	0xbfb17aa671964da7	-0.06827774308322053
37	0x3f86bf795638e740	0.011107395118517993
38	0xbfb3b5da390c0444	-0.07699359791514931
39	0xbfad89b980206bfd	-0.05769138039632791
40	0x0000000000000000	0.0
41	0x3fac4e8884b64ea9	0.055286661339008454
42	0x0000000000000000	0.0
43	0x3f948efdc8d6c4d5	0.020076718695865765
44	0x0000000000000000	0.0
45	0xbfb16d156aca79f9	-0.06807073456955227
46	0x0000000000000000	0.0
47	0x0000000000000000	0.0
48	0xbfc2883546f80d33	-0.14478174176483946
49	0xbf705a963e92e880	-0.0039926403925908405
50	0x0000000000000000	0.0
51	0xbfb179ed67f45580	-0.06826671398115103
52	0xbf9565c191a444c2	-0.020895981325399722
53	0xbfb0f0285f2e16ca	-0.06616451572161988
54	0xbfa95936c13172dc	-0.04950877292933395
55	0xbf904e1c21b15b97	-0.015922965580411477
56	0xbfbb8216b26ef761	-0.10745374542508791
57	0x0000000000000000	0.0
58	0x0000000000000000	0.0
59	0xbfb86c29cf349080	-0.09540044125293612
60	0x3f83cb064f520a80	0.009664582534474109
61	0xbfc4cd7f8975e0fc	-0.16252130710541468
62	0x0000000000000000	0.0
63	0xbfc2a110a52c0f53	-0.14554031434101464
64	0xbf97ca5ad68a7116	-0.02323285994008114
65	0x0000000000000000	0.0
66	0xbfc4e2704774c841	-0.16316035737105675
67	0x3fa1648497cbc61b	0.03397001603105939
68	0xbf9a2b892b28f79c	-0.02555670095374972
69	0xbfb37cc77bdd8ccf	-0.07612273000772805
70	0xbf8e61d7b7acd4bf	-0.014835057537860739
71	0xbfbf005c293a8a44	-0.12109924322661764
72	0x0000000000000000	0.0
73	0x0000000000000000	0.0
74	0x0000000000000000	0.0
75	0x3fc19cabf11f1aa1	0.1375937392569613
76	0x0000000000000000	0.0
77	0xbfcac3872f678658	-0.20909204306285534
78	0x3fb63f05db125abb	0.08689915274076558
79	0xbfa9d8824d291d11	-0.050479957503336455
80	0x0000000000000000	0.0
81	0xbfb01423deb48080	-0.0628073137963856
82	0x0000000000000000	0.0
83	0xbfb58c74506f8231	-0.08417441333541188
84	0xbfb2a87afdcdcb60	-0.07288330742248439
85	0xbfbe46110b6c36a6	-0.11825663117289284
86	0x3fbc440f106bb7a4	0.11041349554918028
87	0x0000000000000000	0.0
88	0x0000000000000000	0.0
89	0x3fd10702854b5fed	0.2660528470710222
90	0xbfca2d1a06415ce1	-0.2045013933700153
91	0x0000000000000000	0.0
92	0xbfada55d8d448c49	-0.0579022631593707
93	0x3fd1d9fc66578dfe	0.2789298057016082
94	0xbf99ea4cc0be461a	-0.02530784536754114
95	0x0000000000000000	0.0
96	0xbf9b0bf8c6910cbf	-0.026412856215995314
97	0xbf8efd3599bf9f20	-0.015131396059544111
98	0xbfce22b27f199fdb	-0.2354338760953841
99	0xbf9fd9e2d19b1eaa	-0.03110460666974172
100	0x0000000000000000	0.0
101	0x3fcd844e4ed0c86c	0.23060015533843925
102	0x0000000000000000	0.0
103	0x0000000000000000	0.0
104	0xbfa05cccde19a310	-0.031958009826501876
105	0xbfab3c6bee32fec5	-0.05319535525040701
106	0x3fc883bc49c51cea	0.19152024843263088
107	0xbfb7d6886461c2e8	-0.09311726046304225
108	0xbfd1980f96ecb10c	-0.2749060605881517
109	0x3fb557665e38cc1d	0.08336486625994195
110	0x0000000000000000	0.0
111	0xbfabb4efb048c45b	-0.05411480929286291
112	0x0000000000000000	0.0
113	0xbf99e932836b4b06	-0.025303639670549515
114	0xbfbb47db79728c35	-0.1065652057173317
115	0x0000000000000000	0.0
116	0x3fa8a4cb5568a888	0.048132280517465154
117	0x0000000000000000	0.0
118	0x0000000000000000	0.0
119	0xbfb8c197e5af6b30	-0.09670400006818336
120	0xbfc4507520051635	-0.15870536864729137
121	0x3fa949c40d2737fb	0.04939091358720301
122	0xbfbcf66dd18a6d28	-0.11313520780315811
123	0xbfd00e2452200451	-0.25086315174127544
124	0xbfa39b2cc56f58a6	-0.038293265438981636
125	0x0000000000000000	0.0
126	0xbfa52a91545e1875	-0.041340390728735445
127	0xbf8404c883e8f7c0	-0.009774748349737794
128	0xbfb7b1aa71c8ac0f	-0.09255471494604726
129	0xbfb14e979fe34424	-0.0676054730750058
130	0x0000000000000000	0.0
131	0x3fbc5b570fb8fdf4	0.11076873906949186
132	0x0000000000000000	0.0
133	0x0000000000000000	0.0
134	0x0000000000000000	0.0
135	0x0000000000000000	0.0
136	0x3fcd3c5b6976a33b	0.22840445184308486
137	0xbfb6b867619539b4	-0.08875127918620401
138	0xbfd3d1b3c9770f8a	-0.309674212210887
139	0x3fc67de546ba8345	0.175717029128487
140	0x0000000000000000	0.0
141	0x3f91d6529579fcb0	0.017419138310739768
142	0x3f96de83e65d8863	0.02233320325411404
143	0x3fd18286b0362363	0.2735916825118265
144	0x3f9ca3aa3b56337a	0.02796808230555168
145	0x0000000000000000	0.0
146	0x3faf1543e29bc0cf	0.060709115421447295
147	0x0000000000000000	0.0
148	0x0000000000000000	0.0
149	0xbfc199fed5dd44e9	-0.1375120682010114
150	0x0000000000000000	0.0
151	0xbf6e5badaedebf00	-0.003705825066354751
152	0xbfc06300763f8ed8	-0.1280212952980182
153	0xbfc839656e0addfb	-0.1892515933338784
154	0xbf94017dc0c0293f	-0.01953693856197813
155	0x0000000000000000	0.0
156	0xbfbb220ebadac0fb	-0.10598842679860702
157	0xbfa46ffc6521107a	-0.039916884751193885
158	0xbf89d8c779981885	-0.012620504759081061
159	0xbfb067f9288c3dcf	-0.06408650627076116
160	0xbf8acb793c33a0f9	-0.013083407544812508
161	0xbfb5042e9feb006c	-0.08209506420371476
162	0x0000000000000000	0.0
163	0x0000000000000000	0.0
164	0x0000000000000000	0.0
165	0x3fb83293c4d9a83b	0.09452174716867116
166	0x3fc13e3c889d96dc	0.13471180601771138
167	0x3f958087b01f9280	0.020998115658488192
168	0x3fefa360dab1278a	0.9886936446502983
169	0x0000000000000000	0.0
170	0x0000000000000000	0.0
171	0x3fe2d67150dfa3f3	0.5886770801126872
172	0x0000000000000000	0.0
173	0x3fdd1a26d006b81a	0.4547211677080455
174	0x3fba499ff103b7e9	0.10268592485564877
175	0x3fc5a7967809bfb8	0.16917687283739524
176	0xbfd674f8fab140f7	-0.3508894394081063
177	0x0000000000000000	0.0
178	0x0000000000000000	0.0
179	0x3fcada541c0bfe7c	0.20978785867190541
180	0x3fa387fa3fe32abc	0.03814680127978451
181	0x3fc4a1a0ee6ddb0c	0.16118251459166577
182	0x3fd10746f3ffb5dd	0.26606916263594177
183	0x3ff828b1f33c74ab	1.5099353314792932
184	0x3fc07bf48710f48d	0.12878281207114065
185	0x3fa1092b52a3271e	0.033273080670893615
186	0x0000000000000000	0.0
187	0x0000000000000000	0.0
188	0x3fb91f8f6cb5bec2	0.09813782123614614
189	0xbfb2cd3dc26c6a60	-0.07344423290889202
190	0x0000000000000000	0.0
191	0x3fdc2402ed3433ff	0.4396979633755222
192	0x0000000000000000	0.0
193	0x0000000000000000	0.0
194	0x3fdb86fb9d81c62e	0.4301137006906143
195	0xbfc4ae3e183caa68	-0.16156746085592322
196	0x3fa317a260ca0310	0.03728969031818086
197	0xbfb8f449b346da1c	-0.09747753741144333
198	0xbfc57c2a78005ae5	-0.16785174235766145
199	0xbf9f566de141a831	-0.030603138803066258
200	0x0000000000000000	0.0
201	0xbfb7b9365c192937	-0.09266986607068338
202	0x0000000000000000	0.0
203	0xbfb399a71fed9e59	-0.07656330613610275
204	0xbfb947991e797bd5	-0.09874875062949624
205	0x0000000000000000	0.0
206	0x3fb561dde5f181c4	0.0835245787034245
207	0x0000000000000000	0.0
208	0x0000000000000000	0.0
209	0xbfba144da29cc9b9	-0.10187230320005981
210	0xbfb68277a224248d	-0.08792827328228921
211	0x3fcbf5e25da7cd96	0.2184412915517952
212	0x3fd6dd2411667980	0.3572473688053819
213	0x0000000000000000	0.0
214	0xbfa258d1ca4da460	-0.03583388895533157
215	0xbfb9278797e0fafb	-0.09825942476252784
216	0x3ff2dbc6c59528a6	1.1786563604423832
217	0x3fe35168806eb708	0.6036875256010896
218	0x3fbae914b7652252	0.10511903264444669
219	0x0000000000000000	0.0
220	0xbfc62089d450e734	-0.17286799304002332
221	0xbfc2d848e0107f4c	-0.14722548428198434
222	0x0000000000000000	0.0
223	0x0000000000000000	0.0
224	0x0000000000000000	0.0
225	0x3fa54193aaea6a2f	0.04151593648312645
226	0xbfc5b23e92bae797	-0.16950208820872767
227	0x0000000000000000	0.0
228	0xbfceac77c3882116	-0.23963830039452522
229	0x3fb017e77b52783e	0.06286474953455554
230	0x0000000000000000	0.0
231	0xbfc5777f5b9edc55	-0.16770927404079097
232	0xbf9290531ba78e92	-0.018128679812333966
233	0x0000000000000000	0.0
234	0xbfb2f2569f996eaa	-0.07401029011219387
235	0xbf909070034141e0	-0.01617598552576449
236	0xbfb69b508353ec75	-0.08830741125341197
237	0x0000000000000000	0.0
238	0x0000000000000000	0.0
239	0x3fbf48018acbd34c	0.1221924747331517
240	0x3fb93f337f3c5c06	0.0986206231722094
241	0x3faf7d23824b4342	0.06150160756590718
242	0xbfbc949eda4f068b	-0.11164276914407815
243	0x3fe339bce5465344	0.600798080255665
244	0x3fb900a26a6651be	0.0976659307255607
245	0x0000000000000000	0.0
246	0xbfc56063641f1872	-0.16700403584235662
247	0x0000000000000000	0.0
248	0x3fb13122d3865123	0.06715600647141122
249	0xbfb1a08171f4a530	-0.06885537178154233
250	0x0000000000000000	0.0
251	0x3fd24a30cdfc75b8	0.2857782374938682
252	0x0000000000000000	0.0
253	0x0000000000000000	0.0
254	0x3fd9c716304dbc9f	0.40277628628877865
255	0x3fb9b4cbf974e3fc	0.10041498985528102

times f8 [3]
0	0x40fb23a4b08fc000	111162.29310584068
1	0x40f95b48b7cb0000	103860.54487133026
2	0x40f95c42ca4f8000	103876.17439222336
