package_metadata/openml/miami_housing/ground_truth/shap_kernel_3_ann.npz (npz, 849779 bytes, 2 tensors)

exp_values f8 [3, 3483, 15]
0	0x3fc7dd2243d6c9e7	0.1864359694714743
1	0xbfc9f0e18c0832df	-0.20266360604764252
2	0x0000000000000000	0.0
3	0xbfabd39c9a02f518	-0.05434884433769066
4	0x3fa118260111c4d2	0.03338736308149638
5	0x0000000000000000	0.0
6	0xbfa0c73b6a94710f	-0.03277002025626718
7	0xbfaf90585ce6f218	-0.06164814123210166
8	0x3fb8df423ee8541f	0.09715665851429421
9	0x3fc3dc3eddc65009	0.15515886143532523
10	0x0000000000000000	0.0
11	0xbf90dad1f72c3fac	-0.016459732733949003
12	0x0000000000000000	0.0
13	0x0000000000000000	0.0
14	0x3f85ac46d5b7e960	0.010582497975509753
15	0x3fcdd963bfb6aaac	0.23319670544636517
16	0xbfcc6fabda50dd11	-0.22215793762163874
17	0x0000000000000000	0.0
18	0xbfbb8ae589dfd1a5	-0.10758814445563887
19	0x3f933c07b8dc0dc0	0.018783684404309886
20	0x0000000000000000	0.0
21	0xbfb496c90ce8e4b8	-0.08042580189875792
22	0x0000000000000000	0.0
23	0xbfc3feef94f8eb62	-0.15621752523460503
24	0xbfaa344f088f4423	-0.05118033389556611
25	0xbf9e2b7b788453e2	-0.029462746840255856
26	0xbf830e892aa8e7cf	-0.009305068601964365
27	0x0000000000000000	0.0
28	0x0000000000000000	0.0
29	0xbfbea34959c277bb	-0.11967905465505073
30	0x3fb3437ed263dbc0	0.07524864803768505
31	0xbfc36db44c0ee2ec	-0.1517854091050802
32	0xbfb64a05b7bfc2ff	-0.08706699119626292
33	0x3f8f6865774700e0	0.015335838987880768
34	0xbf9a69460b214b96	-0.02579221194202893
35	0x0000000000000000	0.0
36	0x3fba4fef48956f2f	0.10278220674575488
37	0xbfb051c9e2e68e65	-0.06374799527707749
38	0xbf88ed4a03c03e6b	-0.012171343078107818
39	0xbfa23dde7da7a42f	-0.035628273810126
40	0x0000000000000000	0.0
41	0x3fb14f3541bddec5	0.06761486868878837
42	0x0000000000000000	0.0
43	0x0000000000000000	0.0
44	0x0000000000000000	0.0
45	0x3fc7e6773b75f818	0.18672075656280707
46	0xbfc8e55a11b0073a	-0.19449926246311994
47	0x0000000000000000	0.0
48	0xbfc40c04b27f3277	-0.15661677089373757
49	0x0000000000000000	0.0
50	0x0000000000000000	0.0
51	0xbfb25d534c007572	-0.07173653226387502
52	0xbfa0e0f771d6da82	-0.03296635880126521
53	0xbfb56fb9815c4522	-0.0837360325642931
54	0xbfa57a95f90abd27	-0.04195088067114688
55	0xbfa700773a9666f0	-0.04492542829684776
56	0xbfbc435e5746f6d1	-0.11040296202460388
57	0x0000000000000000	0.0
58	0x0000000000000000	0.0
59	0xbfbfaa206066065b	-0.12368967393379064
60	0xbfd90235256c1305	-0.39075974134929964
61	0x3fbffb1466ed6cb1	0.12492492211224505
62	0x0000000000000000	0.0
63	0xbfc5448bb8f2aedc	-0.1661543515268623
64	0xbf9aa2c6890d0d1f	-0.02601156436436469
65	0x3f8e8636a6c69c80	0.014904429401964459
66	0xbfbaa76b3463defa	-0.10411710766845408
67	0x3f9fe0818f05a798	0.03112986026227524
68	0x3faa5ad7c88387de	0.05147432635000347
69	0xbf852aac308ce6de	-0.01033529780544334
70	0x0000000000000000	0.0
71	0xbfc7034884599fb8	-0.1797876974335375
72	0x0000000000000000	0.0
73	0x0000000000000000	0.0
74	0x0000000000000000	0.0
75	0xbfb3040229d35821	-0.07427991410381242
76	0xbfc46100313fe48f	-0.15921022801174842
77	0xbfc685f07890dade	-0.17596250426296128
78	0x3f9dfc0b4bd2603d	0.02928178453711915
79	0xbfa1cb7d008295f8	-0.034755617439525766
80	0x3fb2d27673e15989	0.07352390603168692
81	0x3fce5cfe1a1e5477	0.2372129085094092
82	0x0000000000000000	0.0
83	0x3fad6793e8ac3f85	0.05743086066479378
84	0x0000000000000000	0.0
85	0x0000000000000000	0.0
86	0x3fc38e14bda47335	0.15277346858865717
87	0x0000000000000000	0.0
88	0x0000000000000000	0.0
89	0x3fcd425b94e62383	0.22858757753808953
90	0x3fd4fdd87e56a7fc	0.3279935106062337
91	0xbfd59984532c247d	-0.3374949276190547
92	0xbfb80dcad27e6d4c	-0.09396045340547693
93	0x3fd2a12847f24b5f	0.2910862639047788
94	0xbf9c69d1f1a066f4	-0.027747421620097648
95	0x0000000000000000	0.0
96	0xbfb8467cb7b4c88f	-0.09482554898275651
97	0xbfae84687325b00f	-0.059603942924553725
98	0xbfd87aed8f18619e	-0.38250292753357396
99	0x0000000000000000	0.0
100	0xbfab9304114d7d1d	-0.053856017219681564
101	0x3fd492f72be2bdbf	0.32147006307328846
102	0x0000000000000000	0.0
103	0x0000000000000000	0.0
104	0x0000000000000000	0.0
105	0xbfe1503340a49bd5	-0.541040064102044
106	0x3fdc8f986c407cfa	0.44626436778521816
107	0xbfb51ec4cb3beeb6	-0.0825007435013799
108	0xbfd419c0da03b1f4	-0.31407185831520157
109	0x0000000000000000	0.0
110	0x0000000000000000	0.0
111	0x3fb0650f498c1799	0.06404204888903421
112	0x3fb16f5db39fe4d0	0.06810556064000939
113	0x3fb4b992c3f0d8ce	0.08095662387572419
114	0xbfb3735d061303fb	-0.07597905538843001
115	0x3fa15965f70e1ce0	0.033885179908844654
116	0x0000000000000000	0.0
117	0x0000000000000000	0.0
118	0x0000000000000000	0.0
119	0xbfc3ea34cc2dbc51	-0.15558490724240184
120	0x3fd211a5ae08fab3	0.2823270988045962
121	0xbfcfa8bfdf11f3b3	-0.24733732597442568
122	0xbfc1a4562aa122cb	-0.13782765466227995
123	0xbfd0f0c4685d821b	-0.2646952647392326
124	0xbf962f30fbbbc3a0	-0.021664395680037196
125	0x0000000000000000	0.0
126	0xbfb5ddaaf200a000	-0.08541363151800851
127	0x0000000000000000	0.0
128	0xbfc5158919924b9f	-0.1647197127209354
129	0xbfb001ced9c657eb	-0.0625275880505282
130	0xbfa3cb8934ce6a17	-0.03866223115547401
131	0x3fc0d36b75e0e2c0	0.13145201926979233
132	0x0000000000000000	0.0
133	0x0000000000000000	0.0
134	0x0000000000000000	0.0
135	0xbfdba6f2217dc9d2	-0.43206456442490293
136	0x3fe3158b4a560f9f	0.5963798953894076
137	0xbfadcf83405a61d3	-0.05822382126388317
138	0xbfd9b6255897c0a6	-0.4017423024333858
139	0x3fb98b225dff9745	0.09977927012331829
140	0xbfb0518e95151ed3	-0.06374446048459541
141	0x0000000000000000	0.0
142	0x3fc95443fed80a38	0.1978840822558412
143	0x3fcec0a5a2683769	0.24025412015947303
144	0x0000000000000000	0.0
145	0x0000000000000000	0.0
146	0x0000000000000000	0.0
147	0x0000000000000000	0.0
148	0x3fb124da1a6007af	0.06696856635974656
149	0xbfcd2a588c982fe3	-0.22785479416813734
150	0xbfd43cd62e516d5a	-0.31621317408799643
151	0x0000000000000000	0.0
152	0xbfc5657af7715b9f	-0.16715943414848497
153	0xbfcc7251b74cc0f8	-0.2222387452143335
154	0xbf9749ef3cbdd134	-0.022742975313535044
155	0x3fba3bae9e8926f7	0.10247317667485932
156	0x3fbbe504c925baba	0.10896329794716567
157	0xbf88d271fcc39fc0	-0.012120142484903229
158	0x0000000000000000	0.0
159	0x0000000000000000	0.0
160	0x0000000000000000	0.0
161	0xbfb9f757ebaff817	-0.10143041137777718
162	0x0000000000000000	0.0
163	0x3f9ea34f193e827c	0.029919849315435773
164	0xbf89cd982fe76c7a	-0.01259917160216716
165	0x3fb5d3171f7b6118	0.08525223272898008
166	0x3fc64be857f5c5b9	0.17419151587414008
167	0x3fac1d872f853a60	0.05491278128703381
168	0x3fe5596b78661ded	0.6671655036488439
169	0x0000000000000000	0.0
170	0x0000000000000000	0.0
171	0xbfc750906deae88e	-0.18214612357207155
172	0x3fb112a8259fd99b	0.06669093054356383
173	0x3fe24c91615432a3	0.5718466664271386
174	0x0000000000000000	0.0
175	0x3fb61690ab5fc7f1	0.08628181632937505
176	0xbfd6bba2025df9ab	-0.3552022002330896
177	0x0000000000000000	0.0
178	0x0000000000000000	0.0
179	0x3fdb6dab3d86737a	0.4285686589080836
180	0xbfdfc3fbe5376a34	-0.49633691200657215
181	0x0000000000000000	0.0
182	0x3fbdbf782b75a002	0.11620284138700757
183	0x3ffcf4bf4fa037f3	1.809752760923854
184	0x3fd1b8c6f5df5b40	0.2769029046152589
185	0x3fe87d6880ffc271	0.7653086204064278
186	0x3fceed5d1b71e149	0.24161876525955453
187	0xbfc729c7049b6ca0	-0.18096244549710594
188	0x0000000000000000	0.0
189	0xbfca09d6403792f9	-0.20342519889449998
190	0x0000000000000000	0.0
191	0x3fee171921421f2d	0.9403196000648443
192	0x0000000000000000	0.0
193	0x0000000000000000	0.0
194	0x3fe8bdff1dec4243	0.7731929382735604
195	0x3fcebd0b086c8fbc	0.2401441374905725
196	0xbfcd4f88e6f46549	-0.22898970868190308
197	0xbfbdf5cfa41cd0c1	-0.11703202969221406
198	0xbfc4a54aa63280a9	-0.1612942992696891
199	0x0000000000000000	0.0
200	0x0000000000000000	0.0
201	0xbfa652c5ab61e34f	-0.04360025136060718
202	0xbfaa6f18f5307773	-0.05162885659249996
203	0xbfd276428370c374	-0.28846800647720916
204	0x0000000000000000	0.0
205	0xbfa9954ac88b891d	-0.04996713350353075
206	0x3fbcf29b37a1cbc0	0.1130768786259031
207	0x0000000000000000	0.0
208	0x0000000000000000	0.0
209	0xbfc02415d87b448a	-0.12610123701464132
210	0xbfe4a1bf348e1c8c	-0.6447444941012619
211	0x3ff91f2afc095e40	1.570109352605769
212	0x3fda60f4fbc93f58	0.4121677836274009
213	0x3fb658acf7b40bb0	0.08729058310932092
214	0x0000000000000000	0.0
215	0x3fb9e1cff7332320	0.10110187325620901
216	0x3fe528576407387f	0.661174483649816
217	0x3fddb69c68eaa08c	0.46427068944695615
218	0x3fdb5132ba3fba8d	0.42683094204304767
219	0xbfc3258e86dbce80	-0.14958364090817966
220	0x0000000000000000	0.0
221	0xbfd7741ba0a53e5e	-0.3664616650394005
222	0x0000000000000000	0.0
223	0x0000000000000000	0.0
224	0x0000000000000000	0.0
225	0xbfe11ea74dfb143e	-0.5349918864309371
226	0x3fd18a56187ced0f	0.2740683783665227
227	0x0000000000000000	0.0
228	0xbfcb4ad3977b5fdc	-0.21322102448061642
229	0x3f993a19844254a0	0.02463569516892916
230	0xbf9d00128a2fe9a9	-0.02832058876445279
231	0xbfbf7d25a199c7b0	-0.12300334163026494
232	0x0000000000000000	0.0
233	0x3fb618b7ec996bf7	0.08631467367506206
234	0xbfbfd89ef97eefcb	-0.12439912406165303
235	0x0000000000000000	0.0
236	0xbfbb83a02137f7fb	-0.10747719584466602
237	0x0000000000000000	0.0
238	0x0000000000000000	0.0
239	0x3fc83e80326b0df8	0.18940737211060799
240	0xbfc9bd369cabf891	-0.20108683252323492
241	0xbfc022f39ae2e6e5	-0.1260666376381813
242	0xbfbb501db4dc092b	-0.10669122376933575
243	0x3fe12bcc84324ae5	0.5365965444528596
244	0x3fb23021d1baea7f	0.07104693765988122
245	0x0000000000000000	0.0
246	0x3fc9ee5253defa99	0.20258549781097626
247	0x0000000000000000	0.0
248	0x3fc2c7db6149a2dc	0.1467241501843749
249	0xbfa4367436814e60	-0.03947795071931348
250	0x0000000000000000	0.0
251	0x3fdf5ad4f5e5628e	0.489918937809798
252	0x0000000000000000	0.0
253	0x0000000000000000	0.0
254	0x3fdcbe9388338b98	0.44913185406601874
255	0x3fc5002c4c83c5ff	0.16406778083869253

times f8 [3]
0	0x40f32b7cd53e0000	78519.80206108093
1	0x40f3359798a90000	78681.47477054596
2	0x40f329dd338d4000	78493.82508587837
