package_metadata/openml/health_insurance/ground_truth/shap_kernel_3_xgboost.npz (npz, 958281 bytes, 2 tensors)

exp_values f8 [3, 4096, 11]
00000000: 08bc 772f 88cd 9c3f 952e 5c60 2f29 b23f
00000010: c049 d999 3bf7 ac3f f370 3dbf 1d23 b53f
00000020: 0000 0000 0000 0000 b40e 5074 5513 e03f
00000030: a2b3 cd89 2766 833f fac2 5d84 b09d 8ebf
00000040: 001d 34d9 d8eb 65bf 17f6 d4ee d377 7d3f
00000050: 03f9 ca64 ac85 a0bf fd2d ae7a 9d2b b83f
00000060: 4172 ef30 7839 c43f 6428 2056 0104 b63f
00000070: 502f 73dd 5f95 9f3f c014 5b38 87f5 75bf
00000080: 2e61 c489 1b03 d4bf 0000 0000 0000 0000
00000090: 011e 04ea 8e01 94bf 65d9 ebc7 a07a 823f
000000a0: 4aaa 5a93 bead 893f 6e3f f680 8796 b83f
000000b0: 340f 6984 5d27 cbbf b2e2 7191 4cea bc3f
000000c0: 1a68 0a63 deec bc3f 9d2c b598 4e5d 98bf
000000d0: 889d af7f b78c a2bf 641c c87f 56f1 d7bf
000000e0: 457a 0a0b ebab c23f 3043 cecc 7497 93bf
000000f0: 12c2 cc04 0d86 8ebf c065 23c4 eb64 843f
00000100: 0000 0000 0000 0000 e95d 0c94 8d76 cc3f
00000110: a9de a74b a4a5 bc3f f158 bde0 40b4 bbbf
00000120: 2ab9 e023 0192 b73f 57d1 eb72 382c 81bf
00000130: d4f8 9c03 2310 d1bf 0000 0000 0000 0000
00000140: e48a d86a 15f4 c53f 8873 8c9d f5d9 81bf
00000150: 8051 9529 523a 7bbf 4313 b0cf 6d65 a13f
00000160: 0099 1aae 9bf2 85bf 5e74 002b 4031 e7bf
00000170: 0000 0000 0000 0000 d297 530b f635 c2bf
00000180: bfe8 017b 3ddf 9abf e61f 6db7 08c0 e0bf
00000190: 13d3 9733 f29b a8bf a1b1 7ee2 8334 ddbf
000001a0: b31c 2880 0b67 9dbf de7a 0318 a0c8 afbf
000001b0: bd4c 14c1 869d 94bf d856 3e5d 6f44 ccbf
000001c0: 49df b5ef 9453 ba3f 67f0 83fb 636a c03f
000001d0: fc51 09ba 925a c43f 914a d2f1 b004 a33f
000001e0: abdf 1111 b1a0 d6bf 5640 ddef 8904 95bf
000001f0: 0045 d0b7 17a5 8abf 0000 0000 0000 0000
00000200: 2819 90a9 3c28 8a3f afd1 1aea dd3f b73f
00000210: cb17 f735 9f45 bd3f 9a7f 0652 c42e 903f
00000220: 1368 9f98 e65f a13f 9ace a41b 46ea 99bf
00000230: fed4 5331 cc2a 99bf 3f15 fbd7 294f e53f
00000240: 0051 0e13 77df 69bf d8d1 c99f 65cf aabf
00000250: 27d4 8107 12aa 71bf 0d94 8d9b de20 903f
00000260: 0000 0000 0000 0000 3071 3349 8d4d a83f
00000270: db85 02a0 ccdb bcbf c079 601c a153 81bf
00000280: 0ac4 fb9e 0667 b93f 5c62 a72a 0f7b 793f
00000290: 3fd9 bb89 5d96 e53f b5b2 ea63 5ba4 b13f
000002a0: 2cc5 e39a 95db 773f 6dfa 79d2 7171 8a3f
000002b0: 0a31 888d b0a6 7a3f 0000 0000 0000 0000
000002c0: ae30 7363 161f d03f 5bfe e1b7 b11e 9c3f
000002d0: bf3e 7566 b4f9 903f 4cab f061 3aa3 af3f
000002e0: 22b7 9867 5183 993f b7e8 6f18 f4c0 dd3f
000002f0: 0000 0000 0000 0000 7985 8966 88de d33f
00000300: 6532 02f3 8fbb 85bf 00a8 2de2 68d9 573f
00000310: 4bcd 0040 bb3a c33f 1389 bf97 52ea b63f
00000320: ccbb 5983 b329 bd3f 8f51 3efc 35be b3bf
00000330: fc9d 6925 2a79 88bf ae66 4aaa 5905 8f3f
00000340: 7acf 91c6 73d9 d9bf fd28 411f e9ad 8c3f
00000350: aa1a 4556 02b5 ccbf 0000 0000 0000 0000
00000360: be8f 5d23 4ac5 883f 0092 4bd4 3727 4bbf
00000370: efd9 4af1 ffc0 b03f 5101 dee1 b20b c03f
00000380: 2bfd a395 2ac4 b23f 066c ff4f 5f70 d63f
00000390: e01c 0b87 e20d 9f3f b994 4409 df1f d9bf
000003a0: a7cb 6676 149b d33f c7bc a003 9431 b73f
000003b0: 0000 0000 0000 0000 9117 97f4 4bd6 b0bf
000003c0: dff8 ac2e 3d71 bfbf c60d 9a12 f80c c23f
000003d0: caa3 7814 bf9f b53f 91bd 7230 1865 aabf
000003e0: 3aae 185f e268 b33f 00a0 ea7c 0950 5c3f
000003f0: 8bb0 e616 215e e13f 74cc ddb4 dd2f 753f
00000400: 21fd f446 5c76 c73f 0000 0000 0000 0000
00000410: 2f57 be55 ac5e 883f 46f3 57df c4df a63f
00000420: a3b3 65b6 3dc1 d23f be21 ab3a 9008 d3bf
00000430: 436a 67ba f6c2 cdbf fe6d db3b 7c08 b4bf
00000440: 0004 173f 5ce0 64bf 65f4 0234 2e1a dabf
00000450: 9a51 90a9 74e8 a23f 1272 243e f03a 8b3f
00000460: 0000 0000 0000 0000 96ee b317 1c7c 7ebf
00000470: 621a fc65 0c9d b2bf a93c d63c 37d6 c03f
00000480: 9fbf 4952 f589 b43f d000 988d 0917 aa3f
00000490: eba2 f736 a16f a13f 244e 9997 4a7d 983f
000004a0: 47f8 1193 35c3 dc3f 9811 6627 8af6 953f
000004b0: 9160 847b 67c6 993f 0000 0000 0000 0000
000004c0: 0087 0325 987c 753f c776 4c94 a00c aabf
000004d0: 0000 0000 0000 0000 6ce2 6322 4191 c33f
000004e0: 8e33 73f9 f8f4 a93f 790b 62d2 519a b23f
000004f0: ead4 71a5 7750 85bf 7373 307f 42dd d3bf
00000500: 382c 03cd 7fb3 813f a9eb ec9e bd9e 8d3f
00000510: e7e4 5c54 772d 5c3f e0ae 2c4a d66a 533f
00000520: 8cc7 6a94 d676 96bf e232 00d3 b0c7 c2bf
00000530: 1074 b4ee 4410 d1bf 38b2 67c7 3627 933f
00000540: 0152 8308 3ae6 ad3f 00f6 01cd a243 93bf
00000550: d200 cffa e0e7 d6bf 67cf 8ae0 a373 a43f
00000560: 1d06 bb04 ba55 933f 26a2 a42b 06e0 d13f
00000570: 1044 ea53 5ff3 8f3f 0000 0000 0000 0000
00000580: 1a18 41bf 7636 c73f ad1b 935f 3d15 bb3f
00000590: 09ef d633 7dce 9e3f 1ae3 5f2c c936 b43f
000005a0: 0000 0000 0000 0000 5144 1a88 32a5 d2bf
000005b0: b584 ebbb 0c9f 95bf 5951 92a9 66b8 a8bf
000005c0: f885 0bfe a2fe 81bf ee9b b05f 896d 8c3f
000005d0: c935 f30e 8ca1 863f a95f a475 5fb2 c13f
000005e0: e6bb f454 e8ec c03f c83c 546d 9cc3 b13f
000005f0: 400c afae e915 ab3f 22a9 a086 1165 a7bf
00000600: 1a4e 14be 0590 d3bf ae03 484f 8fa2 863f
00000610: 2915 7bb2 7032 9a3f 0000 0000 0000 0000
00000620: cf3e 7270 33d4 903f a8a5 3f7e dc81 96bf
00000630: aac0 3c79 d5c2 bd3f e7be fbe5 b86b dabf
00000640: d176 a293 664b b23f 8fc6 9975 9127 d1bf
00000650: 0046 299b 9fa2 67bf 95f9 064f a799 d7bf
00000660: 9ddd 77f8 28c5 a2bf 4de0 6d81 df8e b5bf
00000670: 0000 0000 0000 0000 868d 3a9d 8a6c 813f
00000680: a595 fd16 b8d8 9f3f e714 b9b1 c5e1 c43f
00000690: 3a70 095d db11 af3f 0aa0 15be 3beb b0bf
000006a0: 245c 2f84 5d1d c7bf aea1 bf3c 3a24 b5bf
000006b0: 25f6 3110 2161 e43f 8048 bb7d 8c3b 803f
000006c0: d23b a018 5c44 8fbf 0000 0000 0000 0000
000006d0: 8c0b e016 eb68 b9bf f6af 2826 f2fd 8abf
000006e0: cb94 875f 94a8 a53f e6c5 64c8 ae60 d6bf
000006f0: 4091 f480 42dc acbf de90 b874 8715 b2bf
00000700: 0000 0000 0000 0000 9123 6238 44d5 d8bf
00000710: 33bd 698e c15a a03f 6ec8 03be 6024 afbf
00000720: a674 606b bed7 81bf 80a4 9157 102f 7f3f
00000730: e23f dc4c d551 873f 4173 6cd6 97ca c0bf
00000740: 7eac 54dc 778e a73f 8177 d97c d2a7 ac3f
00000750: f58c 500d 7dbe d0bf 071a 2904 99dc 903f
00000760: af7b 0df7 2133 e43f 514a 3d02 6089 92bf
00000770: 9f5c da51 3032 abbf 405f d6ef 4a45 75bf
00000780: 0000 0000 0000 0000 68b7 4ed4 5612 abbf
00000790: fa64 0e91 b36d c53f e0bc d83c 9d2d b03f
000007a0: 0a17 c826 4a30 b13f 6475 c886 dec7 a53f
000007b0: 8096 68fa b4fc 733f baf7 8c3c 8b7c de3f
000007c0: d4c7 f772 e7dd 753f 25cb cdbc 0610 bd3f
000007d0: 0000 0000 0000 0000 ba0c 3597 292c 843f
000007e0: 0aa2 1e61 c740 a1bf 82c6 dc5b 467e e2bf
000007f0: f244 7640 76f5 c13f 0124 d6fd c465 b53f
0.028127792260360024 0.07094093420544774 0.056573736696595045 0.08256708067841938 0.0 0.5023600837452791 0.009472187893800502 -0.014949206389901704
-0.002675937206393919 0.007194354880366591 -0.032269847205940415 0.09441551442267122 0.15800382985516317 0.08599861481357746 0.030843255892974597 -0.005361107066794435
-0.3126896710760033 0.0 -0.01953719428368395 0.009022956944573843 0.012538422462360494 0.09604689501270311 -0.21213883366919506 0.11295012045764954
0.11298932950958865 -0.023793438025034964 -0.03622983392397844 -0.3741050956600189 0.14587152518375227 -0.01913244724306934 -0.014904119214038256 0.009958116458096522
0.0 0.22236795166894233 0.1119024929720306 -0.10821919905479029 0.09207160116122695 -0.008385125167003222 -0.26660991051529703 0.0
0.1715113422115656 -0.008716505880835404 -0.006647416064272327 0.033976966478837876 -0.010716644526223451 -0.7247620429876738 0.0 -0.14227176240018352
-0.026242218621043586 -0.5234416563553139 -0.04806477432058478 -0.45633027189867376 -0.02871339769083354 -0.06207752507338225 -0.020132165464997288 -0.22083847096353426
0.1028378567915499 0.12824678212189441 0.1590140732174773 0.037145165938587195 -0.3535578409860089 -0.02052512671008374 -0.01301020173744627 0.0
0.012772058415077739 0.09081828084419528 0.11434359614858562 0.015803401476318514 0.03393478978223654 -0.025307746350519446 -0.02457732249327637 0.6659135073065626
-0.0031583142922021468 -0.05236356330434305 -0.00431258242325775 0.01575038742466366 0.0 0.047466674028074585 -0.1127288714074192 -0.0084602915558748
0.09922829991752749 0.006220874065967576 0.6746051492798769 0.06891413869261494 0.005824646372489622 0.01291169093678698 0.006506623897177608 0.0
0.25189742767248446 0.027460839126886998 0.01657754779199538 0.0617922062450221 0.024915000865966104 0.4649019468921653 0.0 0.3104573251094603
-0.010611652949841852 0.0014556431057948238 0.15022984147217708 0.08951297955312425 0.11391756016540383 -0.07712113769804872 -0.011949853197804387 0.015146923550946791
-0.4038972319751718 0.014003583208382237 -0.22427396023177454 0.0 0.012095050052899011 -0.0008286497692009953 0.06544494286467971 0.12535701779052968
0.07330576089224354 0.35060866176871774 0.030326404087443914 -0.39257026581828885 0.30634032786036375 0.09060025299617101 0.0 -0.06576990815582763
-0.12282163991492066 0.141020783503434 0.08446878671442373 -0.05155253974350694 0.07581915685357724 0.0017280666976748904 0.5427403876579019 0.005172601738979588
0.1832995745153108 0.0 0.011899324766811851 0.044675972236268666 0.2930444985602724 -0.29739766816467383 -0.23251232244258987 -0.07825447522503023
-0.0025483895958307023 -0.40784792975666156 0.03692974634046493 0.013296009918627259 0.0 -0.007442579018284731 -0.07270886888373121 0.13153734655904728
0.08023007639871914 0.05095701077880366 0.034054792365912544 0.023915448668345843 0.4494146286232347 0.021448286680895018 0.025170914567838102 0.0
0.005245775522981111 -0.05087758837019645 0.0 0.15287031344611834 0.05069711728137981 0.07266723047545821 -0.010407385574789225 -0.3103796236117013
0.008643148845655188 0.014462930119057154 0.0017198243453562746 0.0011851399110111502 -0.02193770676485189 -0.1467190771367291 -0.2666179972746372 0.018704276962966143
0.05839711526792613 -0.01881269813792663 -0.3579027604391857 0.03994476428979859 0.01888170865891513 0.2792983461572781 0.015600914715181019 0.0
0.18134960497462843 0.10579284270634899 0.03008456829932896 0.078960965474732 0.0 -0.2913328484656335 -0.021114539117551973 -0.04828186817136055
-0.008786462190474062 0.013880799515460365 0.011050314146269795 0.1382560085701219 0.13222984455339243 0.06939103764692611 0.05290155656214113 -0.04569296615984998
-0.30566543161805415 0.011052245718930678 0.02558303918228436 0.0 0.016434482324767793 -0.02197975655136522 0.1162541790952242 -0.41282484492601984
0.07146302322731947 -0.2680400513118934 -0.002885162096654126 -0.368753268408818 -0.03666046174106017 -0.08421132001774474 0.0 0.008507807658424193
0.03110015526126166 0.16314002206687592 0.060683112246551166 -0.0660893763612195 -0.18058365778299035 -0.08258403761977348 0.6368565861045609 0.007926080309889949
-0.015267104627154558 0.0 -0.09925717648006421 -0.013179675855177191 0.042301785146074154 -0.3496510464638888 -0.05636794876253015 -0.07064100837357354
0.0 -0.38801675325572044 0.03194241393509358 -0.06082441634670564 -0.0087122799414437 0.007613242946811316 0.011386553199855546 -0.13118265123275744
0.04600882114967762 0.05596788190881253 -0.2616264944101226 0.01646651351827624 0.6312417817351753 -0.018102169167216357 -0.05311728476697763 -0.005193035814407498
0.0 -0.05287429181713216 0.16741032202552458 0.06319601760400273 0.06714309164825863 0.04254050631809994 0.0048796719989120385 0.47635155594968703
0.005338577363987757 0.11352579221219779 0.0 0.009849858214357677 -0.03369734821837163 -0.5779144090831354 0.14030340335424502 0.0835841293066011

times f8 [3]
00000000: 00e0 f183 d42e 0641 0080 e0be 98fa 0541
00000010: 0080 1d88 3002 0641
181722.5644261837 180051.09320163727 180294.06646251678
