package_metadata/openml/health_insurance/ground_truth/shap_kernel_3_ann.npz (npz, 957822 bytes, 2 tensors)

exp_values f8 [3, 4096, 11]
0	0x3fa139e1c3667a60	0.03364472875840785
1	0x3fb2a093a3555f02	0.07276270616182148
2	0x3fa96d5327fa5f7a	0.04966220725071842
3	0x3fa55709ffff1b1e	0.04167968034703605
4	0x3f9971bc537ef100	0.02484792956941906
5	0x3fe14a306c14cf7d	0.5403062926256862
6	0x3f658316744e1e00	0.0026259840546491997
7	0x3f90b5d170889caa	0.016318581098087627
8	0x0000000000000000	0.0
9	0x3f751308daca733f	0.005145105923159587
10	0xbfa02ca3436aae8d	-0.03159055898626404
11	0xbf9fb0788275d5de	-0.030946619951881853
12	0x3fbf65339521636c	0.12263796225432849
13	0x3fb31a398fa47297	0.07461890942472348
14	0x3faa0855da75c175	0.0508448437857422
15	0x3f9312adffd25103	0.018625944842441743
16	0xbfd3e0e6602aedbd	-0.3106018008363341
17	0xbf8a44c6ac7f7cba	-0.012826492442341898
18	0xbfa23ff5ae808fbf	-0.03564422373918274
19	0x0000000000000000	0.0
20	0x3f8bd6ea003a04d9	0.013593509799877545
21	0xbf88c5dfccdd7080	-0.01209616512249334
22	0xbfcab3b1a9029be9	-0.20860882523012883
23	0x3fbed06704e9ebe0	0.1203674685474847
24	0x3faee724a102e75a	0.06035723176451198
25	0xbfb78e8b8944b5dd	-0.09201881505278871
26	0xbfa2fd1d22ade9c2	-0.037087355120962964
27	0xbfd65d6a9ef8a7df	-0.3494516899542059
28	0x3fb6f73d4d8af5dd	0.08971007483611211
29	0xbfa09524850ba68d	-0.032387868157298084
30	0xbf7f0adbaf5d53c0	-0.007578714508629625
31	0x0000000000000000	0.0
32	0x3f90984b35413b57	0.01620595467130256
33	0x3fb456f9e537b815	0.07945215078481767
34	0x3fc0ecbdcdb5f4e6	0.13222477478476619
35	0xbfbc0b6a4066120b	-0.10954917976602745
36	0x3fb4503e0cfa4567	0.07934940163456404
37	0x3faf0c12e06304cd	0.06063899029823858
38	0xbfd296292c065365	-0.2904150896004494
39	0xbf8beea468b4b53f	-0.013638767667169758
40	0x3fc2f151d953b451	0.1479894934813353
41	0x0000000000000000	0.0
42	0x3f77577e816146a0	0.005698675309831508
43	0x3fb1f1ffaf508931	0.07009885816708984
44	0x3fbe1a526c80b9b2	0.11758914135928114
45	0xbfe32ff8b9ff7598	-0.5996059067507984
46	0x3fa11f1bebb09157	0.033440468331067556
47	0x3fa67730d14ecc3a	0.043878102827328694
48	0xbfb1603f31c447e5	-0.06787486042983877
49	0xbfdc24c1f0745487	-0.43974350435139126
50	0x0000000000000000	0.0
51	0xbfc84858796c1236	-0.18970781258407649
52	0xbf66c9116bbe9400	-0.002781423592710386
53	0xbfbee3af2843a7f8	-0.12066168530478183
54	0xbf8b31deb56f391f	-0.013278713142338248
55	0xbfc9586c4cbf0ca0	-0.198010957216046
56	0x3fbea21d42338ef6	0.1196611677765381
57	0x3fb0f026a5109838	0.06616441278365037
58	0x3fb245c85a608d1e	0.07137729841683835
59	0x3fad0a21497792f0	0.056717910974645736
60	0xbfd5a31ae4f7b495	-0.33808014259450064
61	0xbfa478b60e743c14	-0.03998345304909648
62	0xbfa55b0808379508	-0.04171013927752126
63	0x0000000000000000	0.0
64	0x3f753b909894b960	0.0051837585718160495
65	0x3faad5be262108d0	0.05241197791521446
66	0xbfc85f74af1e4770	-0.19041307974526545
67	0x3faf8fe4f13d3965	0.061644701431407246
68	0x3f99873d2a868484	0.024929958076999728
69	0xbf903fc19ae60340	-0.0158682108681234
70	0xbfab8cd85baf0bd4	-0.053808938209406826
71	0x3fe45db4540759eb	0.6364385262666564
72	0x3fa1af71d0824a2a	0.0345416609790344
73	0xbf9a81151f580320	-0.025883035696099843
74	0x0000000000000000	0.0
75	0xbfabfaf74aa48140	-0.054649093495984236
76	0xbfb4bcabe17ee199	-0.08100389724029923
77	0x3fc1d1fdfda98eb8	0.13922095189911032
78	0xbfc08f522e2bf249	-0.12937381033397546
79	0xbfb90f7b0a3cbb01	-0.09789246559078536
80	0x3f8730079df7296c	0.011322078235839604
81	0xbf75a6f879339e00	-0.005286188697233296
82	0x3fe412d32319f70e	0.6272979436468817
83	0x3f9f1571017c5013	0.030355230060266147
84	0xbf97bec1d7728f98	-0.023188618445274395
85	0xbf7e2937efe7ec25	-0.007363527779030076
86	0x0000000000000000	0.0
87	0xbf9364236bd9656a	-0.018936685044854164
88	0x3fa5e435924c01d4	0.04275672350741258
89	0x3fb4d40b2780129d	0.08136052812921908
90	0xbfb43ad4a8bf4221	-0.07902268523981394
91	0x3f5fc09cc4a72200	0.0019380122126780863
92	0xbfa16af563e2763d	-0.03401915401739728
93	0x3fe104d53a63c3e3	0.5318399563240032
94	0x3f961450db477652	0.02156187380193437
95	0x3fccad3fa7945942	0.22403712923614633
96	0x0000000000000000	0.0
97	0x3f63f1c4f2254431	0.002434620532917119
98	0x3fb429a400956d7d	0.07876038564920936
99	0xbfd12bea6e3796ae	-0.2683054043139731
100	0x3fb9ee0a53a2e6be	0.10128845731642408
101	0x3faef81fc2e9197f	0.060486786406317876
102	0xbfaafa2f48986538	-0.05269000779316929
103	0xbfa9d20d08d252e9	-0.050430686308720336
104	0xbfd8952f86b25657	-0.38410556940047996
105	0x3fb60f0a75810af5	0.0861670052409343
106	0xbfccf5b7e7637fd7	-0.22624872968935847
107	0x0000000000000000	0.0
108	0x3f8126f6b9d8b140	0.008375098749717425
109	0x3f81efbe9cbfa6b8	0.008758057745541378
110	0x3f73b476a6d8dc00	0.0048107752641533
111	0x3fb986bc2a487e85	0.09971214325241291
112	0xbf8bce3986f853f5	-0.013576936179598301
113	0xbfb7fd93fe0dc921	-0.09371304466711596
114	0x3f9cd5eb145d9adc	0.028159783475895192
115	0xbfd6e055e912ee23	-0.35744235764625126
116	0x3fa6b195bf894943	0.04432361567582401
117	0xbfc765eefbf47a4a	-0.18279826452722353
118	0x0000000000000000	0.0
119	0xbfc15209cfdab942	-0.13531611107959846
120	0xbf9c505911ceaad7	-0.0276502530211172
121	0x3fb651bbdf478fb4	0.08718465996895369
122	0x3fb3a21f8719a9cf	0.07669255302759058
123	0xbfb7c9819a2586cd	-0.09291849149078786
124	0x3f99c49b01947eb5	0.02516405293601905
125	0x3f842b153f516dec	0.00984779929620224
126	0x3fdf67ddae4e20cb	0.4907144739340878
127	0x3f7a1d76e2d7c995	0.006375755690429937
128	0x3fcd42eca0116494	0.22860486808602742
129	0x0000000000000000	0.0
130	0x3f6197e9bd7ce400	0.002147633098414037
131	0x3f86c435023e4bfd	0.011116422778092877
132	0x3fc53b2bad27c9ab	0.1658682437406019
133	0xbfcc539cc093ce52	-0.22130164530936952
134	0xbfd4a5f3db2f89b4	-0.3226289406285574
135	0xbf8fa3f92fef640e	-0.01544947316681269
136	0x3f8ebc2ed8626c1f	0.015007368067292913
137	0xbfd7d50cbf53ff87	-0.3723785274923945
138	0x3f862bf9aa0ee4c0	0.01082606363512395
139	0x3f9a71c854e043e6	0.02582467096368992
140	0xbf8a73cafb3386f6	-0.012916169920973424
141	0x0000000000000000	0.0
142	0xbf9cadc213d0d731	-0.02800658460565514
143	0x3fc2444c645e61af	0.14270930195631368
144	0x3fb1a01cbcd159f1	0.06884936914261865
145	0x3faba25c643634fb	0.05397309039390482
146	0x3fa0e392a0e79225	0.03298624242942009
147	0x3f8a9bb8c5920cc3	0.012992328194974317
148	0x3fdcb2606a729601	0.4483872451331479
149	0x3f84834571e8b4a9	0.010016005076148042
150	0x3f886d4ef30e9969	0.011927239220153667
151	0x0000000000000000	0.0
152	0x3f6ba92c58238400	0.003376566514916579
153	0xbf9b49c4bec89aea	-0.02664859213305252
154	0xbf9a2fd7fd3bf47f	-0.025573134261311466
155	0x3fc0a32ced0f4704	0.12997972083262976
156	0x3fb384c302fd3f2d	0.0762445337579691
157	0x3fb1454c31af19d2	0.06746364796627027
158	0x3fa5e0130f7df4e6	0.04272517742263364
159	0xbfd3a0d89d004521	-0.30669226963171253
160	0xbf9eb8c6f5a641e7	-0.03000174402547087
161	0x3fa1ec90ac52586a	0.03500797370468052
162	0xbf735f3c8ad0bff1	-0.004729496472506854
163	0x3f82a4b837d8d0a3	0.00910324020797077
164	0x0000000000000000	0.0
165	0x3fcc1730d7e4fb50	0.21945772687646548
166	0xbfdcb1811d14b5a9	-0.4483340057366499
167	0xbfb0ee8ad9546873	-0.06613986783887231
168	0x3faacbc002af2ba9	0.052335739448231174
169	0xbf9e866dbec8d592	-0.029809679765283877
170	0xbfd6165c94d4928d	-0.3451148465558525
171	0xbf6e0cb7081bc780	-0.0036681723439579428
172	0xbfa31264a29e2c94	-0.037249703265012674
173	0x3fd27da5a5adc851	0.28891888789724357
174	0x3f8e41dae553f91d	0.014774046062026753
175	0x0000000000000000	0.0
176	0x3fa648327f648570	0.043519571352827024
177	0x3fbeeca5dc04ba7d	0.12079846021218006
178	0xbf92bb2ba450b458	-0.01829212370300967
179	0x3fac7d6f8f47d276	0.05564449905424322
180	0xbf93c1da6efcef0a	-0.01929417898575906
181	0xbfd3c845edd3445b	-0.3090987036239931
182	0x0000000000000000	0.0
183	0xbf9cfcc86897d725	-0.028308040031297516
184	0xbf80b5db69a5b320	-0.008159364854429862
185	0x3f892e46a13bff2a	0.012295295520288702
186	0xbfa3f874537f8c7c	-0.03900493163362115
187	0x3fcc4a865153e749	0.22102431269723358
188	0x3fc0fb0803173c9b	0.13266086722294265
189	0xbf9259b5b8217346	-0.017920340884632034
190	0x3fa1223e6425fb04	0.033464383816854265
191	0xbf982299d59807a9	-0.023569492017493286
192	0xbfd1c439a43c2994	-0.2776016334397806
193	0x3f91087344f71281	0.016633797725960967
194	0xbfa2142e300525ed	-0.03531021438773139
195	0x0000000000000000	0.0
196	0x3f8c4df001534c1b	0.01382052902264346
197	0x3f84d3a652bcf1d8	0.01016931476589715
198	0x3fc766aceb3921ac	0.1828209065008769
199	0xbfcb25a412365778	-0.21208620919486143
200	0x3fb9d9efbb146a99	0.10098169629456279
201	0x3fac54bd6d617894	0.055334014513151036
202	0x3fa20e758ae4b51d	0.03526656456447539
203	0xbfd396e0fda2c329	-0.3060839154159561
204	0x0000000000000000	0.0
205	0xbf9f216b9a7e9434	-0.03040092592677386
206	0xbf87aca73e203f80	-0.011559778769907103
207	0x3f9014408ce392d1	0.015702255820445658
208	0x3f82b7fc1601c5ab	0.009139985486600851
209	0x3fb83b238149ec11	0.09465238481963946
210	0x3fb19e6cbc5da12d	0.06882361983082737
211	0xbfb6a9042fcd6a24	-0.08851648490000535
212	0xbfb4bf6eb4ba954b	-0.08104602730107506
213	0x0000000000000000	0.0
214	0x3fe32b901bc2286e	0.5990677396923851
215	0x3f91e309546b8d82	0.017467637803645804
216	0x3f9710f9981d054b	0.022525691899550265
217	0xbf699b9684d1bd00	-0.0031259479351813946
218	0xbfb1444def849ff8	-0.06744849298104316
219	0xbfa9e63f88c09cef	-0.050584779208571955
220	0x3fae85f2408fde45	0.05961567915067837
221	0xbfcdf10aeda9560f	-0.2339185390907663
222	0xbfbd74b6ffff102d	-0.11506217718039187
223	0x3fa4622cbb77ba98	0.03981151379035913
224	0x3fa47b6fd2391606	0.04000424805830609
225	0xbfd8a75880a0f7ab	-0.38521397172359667
226	0xbf9ece348a74b0b6	-0.030083485556290333
227	0xbfa7596c5662f1e8	-0.04560411982081175
228	0xbf8791f2becfc680	-0.011508842895611382
229	0x0000000000000000	0.0
230	0x3fa228cd4d4ab64e	0.0354675442552944
231	0xbfc9818a07055844	-0.19926572172943413
232	0x3fb260255e24e724	0.07177957104150018
233	0x3fa1c26a2381994b	0.03468639071870657
234	0xbfafbf1507e3181a	-0.062004716122416606
235	0xbfaab0cb0e07120f	-0.05213007494197452
236	0x3fe4c2024024add1	0.6486827137754806
237	0xbfa4930591766ccd	-0.04018418694178081
238	0xbfa163877095690b	-0.03396247147857608
239	0xbf7d8c8aa7d548c0	-0.007214109061651708
240	0x0000000000000000	0.0
241	0xbfa0695f44814727	-0.032053925621438766
242	0x3fa869bc3e774a24	0.047681696534386725
243	0x3fb36ee2028f7c7d	0.07591068804275554
244	0x3fa9d2079c951554	0.05043052469640466
245	0x3fa2beba3878ea13	0.036611384767145115
246	0xbf80f25b9816f9aa	-0.008274760798369158
247	0x3fe054a9196f6ea3	0.5103345391066408
248	0x0000000000000000	0.0
249	0x3fb446e686506b25	0.07920685557511982
250	0xbf764a6a0601a480	-0.005442060617590561
251	0x3f787d35f9e3d791	0.005978785366314813
252	0xbfa29d10402397a4	-0.036354549245330575
253	0xbfdcdf4f7438e616	-0.4511297831519142
254	0x3fba3fa952e6867e	0.10253389619767891
255	0x3fac1122325f7b3a	0.054818218850178416

times f8 [3]
0	0x40fea1356b358000	125459.33867406845
1	0x40ff2a82cd4e0000	127656.17512321472
2	0x40fee0e7045c0000	126478.43856430054
