package_metadata/openml/california_housing/ground_truth/shap_kernel_3_ann.npz (npz, 753830 bytes, 2 tensors)

exp_values f8 [3, 4096, 8]
-0.657298224404498 0.7383935609116552 -0.09987694919237244 0.623900112224951 0.4893186524762751 -0.9041321342250493 0.08500403425147399 0.36594153499029985
-0.3141268873404621 0.5772379094520755 0.024036338142860658 -0.02451905609432388 0.06785176117830656 -0.2172369431636269 0.05164901965345475 -0.6016888601410846
-1.5511950322343386 0.7035922390098424 0.007923496080401703 0.04156843060432562 0.08430127604847927 -0.28877770586681295 -0.001336681638872017 -0.14617448835316377
-0.42292988584953123 0.6641061574847076 0.00552362254738023 -0.06432867912894111 -0.07384681002703328 -0.30011070271273205 0.014107280818636441 0.05001407326632238
-0.51476365829781 0.6800679894713789 0.03234412250293272 0.013883119074180095 -0.015760504727775876 -0.3638883044368868 0.008776065009148973 0.17225440496962605
-0.4677811232671615 0.7030880596026472 0.13704015185634924 -0.13263222579320624 -0.10065730162708905 0.5727695066466657 0.065125251592558 1.1406023938077998
-0.6811692110199136 0.2501569603352078 -0.13889664876408137 0.19310306175768555 0.23307524621411216 -0.4199418169730365 -0.019011727633607922 -0.5400453078971195
-1.0047887160439415 1.0129430674472126 -0.12450706954754755 0.18153878797223055 0.11591136316870565 -0.255868223704909 0.023989378707890696 0.3326388196164374
0.26957444657296364 -0.9219285728782561 0.013945324348642523 0.07470266014646444 0.010872048449774805 -0.058796878004408255 -0.01116642294736181 0.04278433426544842
-0.8836034453090934 0.45579589412022914 -0.14208415461172572 0.13202423269786737 0.1108190238600102 -0.18257891384942665 -0.016206617664418554 -0.05001044964387361
-1.0991776094023282 1.082336008441571 0.13964635172049325 -0.0423951802296857 0.25023432257408773 -0.10046824371034657 0.03382358986419648 -0.4974351615960564
-0.564197309208806 0.707067875297569 0.05267233561190836 -0.14771811538384064 -0.17387080520945628 0.23245623721951855 -0.006057105334479174 0.04176567529611982
-0.61438257388197 0.5134419832596047 -0.18060322068650317 0.6957347583578292 0.4751160929068945 -1.1421546379500318 -0.19404395913110997 0.19086803741707045
-0.3214505661325061 0.5512375040564879 -0.0013671849004864844 0.04210106303692498 0.13010422230321483 -0.4826171619310843 0.05075025216572404 -0.5419863919302245
-0.45923945877495903 0.7229618969362355 -0.05468309251285436 0.16135807242197958 -0.03618919934739681 -0.17828513525516557 0.03262473763909879 0.6406232170900427
1.4988424157816762 -0.9299271771968538 0.29575722368233265 -0.045587448618951636 -0.0576182886914739 -0.06286013299300323 -0.022554180943453184 0.3134781290153918
-0.3488486217723614 0.5672229361176989 -0.03497159631258894 0.5512322285216924 0.07380636273084289 -0.4668911763356437 -0.02625770895289481 1.8247732226978548
-0.2805502430265226 0.538269489160385 -0.023058557655179644 0.01263824761079646 -0.06691451719032131 -0.3511261529479305 -0.007533718190350037 -0.4166809690899585
-0.4319031333770562 0.5468279608917465 0.05450538021603793 0.02887841245322742 0.28322861026646096 -0.7556642052621922 0.1211319301505011 -0.36591192960817503
-1.0060223768149923 1.0136331152691416 -0.10212847822942252 0.5407584041684079 0.13571946291632583 -0.6237575632042477 -0.053572039907691715 0.5734960081648803
1.2287102495797768 -0.9438058615835185 0.36372955184541866 0.01173225004370182 0.23023922765545177 -0.20758641960198684 0.29026673028401523 0.09748343924658304
-0.3205936680445427 0.5511303646622804 0.006746372523853555 0.016899812104129826 -0.22302264900369276 0.0017217008407243162 -0.0695644630924577 -0.5375908411637365
-0.4842524955794872 0.7863739139752184 -0.09768684962380769 -0.19720917432876112 -0.005590976626760447 0.24861849927942367 0.039582835614060966 -0.1571600686884733
1.047019820903169 -1.0037485123635468 -0.06999493092350396 -0.05980832568464877 0.01695668996888449 0.24578814698847903 -0.007325996426590153 -0.6684763589878571
-0.6957150369593883 0.7287326712292455 -0.29287137580938705 0.5805697074096956 0.5936440094984381 -0.776719423119608 -0.0023302289233272377 0.10727558060350534
0.8399464158395314 -0.8593686378308186 0.005865638671379347 -0.052140971345311156 -0.02451080023779696 -0.07997402882242163 -0.08249745521995455 -0.3985445591445532
-0.36628422076295314 0.5319103454457491 -0.13194496695601085 0.3708029392818791 0.6528640580490785 -0.6476265031939175 0.2045332006619524 0.05238957815777534
1.0709519107228063 -1.0989379887284771 0.1361765586109673 -0.047619184134288894 -0.10623580895181335 0.40932484985295287 -0.08443151028581082 0.09393005152469208
-0.3962221333955588 0.502721967401031 -0.003833351212844338 -0.15579823241759735 -0.30849785512614164 0.1101724463799093 -0.0871796380453066 -0.17734776211960404
1.244928133068429 -1.216102887343204 0.1342372438177629 -0.05121083002131699 0.03539948308733492 0.01233588271993874 0.018939175982503022 -0.29093483282844057
0.005127637721455414 0.1398757694658113 -0.026524703645615273 -0.06281916665483717 -0.1092200995059019 -0.15342934903498648 -0.016176917453536672 -0.1774170872719006
0.9836364677883063 -1.3626783386676085 -0.09123633107464786 -0.13456240856022925 -0.011773398712095151 0.4332172824169008 -0.10642598822326427 -0.42626250382757114
00000000: 7428 3149 9608 e5bf 5029 7688 eba0 e73f
00000010: 68ce 6726 8991 b9bf b842 3f5e fdf6 e33f
00000020: 4756 6d2e ff50 df3f ef4b 7883 a6ee ecbf
00000030: 725d 230b d3c2 b53f 1702 420b 966b d73f
00000040: dcfa faa8 a71a d4bf 5775 e3a2 bb78 e23f
00000050: a0ec f458 fb9c 983f 5434 3700 861b 99bf
00000060: d5a0 3ca7 bb5e b13f fe75 2f8f 6bce cbbf
00000070: c868 9084 bd71 aa3f 1e8d 15ff 0841 e3bf
00000080: 5ca0 d2e1 b1d1 f8bf b688 08df d383 e63f
00000090: 5950 48a4 313a 803f 26b6 fb13 7548 a53f
000000a0: 49a8 a3b7 c494 b53f 76c2 a07c 557b d2bf
000000b0: 00c4 24fb 72e6 55bf 6a41 7e7b d8b5 c2bf
000000c0: 4d62 0e83 4811 dbbf 6a02 6f8e 5b40 e53f
000000d0: e0a4 2423 f09f 763f f6bd 0d25 d877 b0bf
000000e0: 6ee3 fae1 9fe7 b2bf 372b 5585 0335 d3bf
000000f0: 0323 032e 47e4 8c3f 4586 09d2 719b a93f
00000100: 85de b1a2 f178 e0bf e1c0 baf1 1dc3 e53f
00000110: 2f5f bca8 688f a03f dae0 1eb3 c06e 8c3f
00000120: 983b 7f91 8523 90bf 3403 bd2b f249 d7bf
00000130: 486b 9d81 2ff9 813f b3de f7ad 6e0c c63f
00000140: 3297 873c 20f0 ddbf 6e72 c687 b27f e63f
00000150: 551f 3b1d 888a c13f 99b8 16c0 17fa c0bf
00000160: 5e8a 974a adc4 b9bf 0531 66b7 2054 e23f
00000170: e0da bb69 0cac b03f 0f4d b24b e83f f23f
00000180: c3ec 8b5f 23cc e5bf 476a e056 9202 d03f
00000190: fc9c fb89 5dc7 c1bf 74dc 80e3 99b7 c83f
000001a0: d195 ffdf 68d5 cd3f 01cf 87a4 53e0 dabf
000001b0: 800c b571 cf77 93bf 18d8 f818 0d48 e1bf
000001c0: e6c6 2c55 9d13 f0bf ca54 36ca 0335 f03f
000001d0: f9d7 d3ff b1df bfbf 28ea a5ba a93c c73f
000001e0: d05b 0bfa 5dac bd3f 0c7c 391d 2560 d0bf
000001f0: 90ca 01f4 ab90 983f 347d e854 f449 d53f
00000200: 3b90 f72d b540 d13f 6f52 b859 7080 edbf
00000210: 9685 13c0 5d8f 8c3f 21d6 40aa b61f b33f
00000220: e52b 42a4 1544 863f 318c 45d8 9f1a aebf
00000230: 0050 faea 6bde 86bf 0808 e708 d4e7 a53f
00000240: 0f89 87bb 7a46 ecbf 0870 b98a c22b dd3f
00000250: 5f28 ab46 d02f c2bf 39c1 db88 2be6 c03f
00000260: 01de 40b3 a25e bc3f 1e14 f6ef be5e c7bf
00000270: e0ca 63b3 7798 90bf 857d 5b3b f89a a9bf
00000280: 2e0e ce42 3b96 f1bf b9a2 f88f 3f51 f13f
00000290: f596 d280 eedf c13f b165 3031 d2b4 a5bf
000002a0: 08b7 f2d1 d603 d03f 50c2 056d 49b8 b9bf
000002b0: f89e 9958 5351 a13f d8df bb49 fad5 dfbf
000002c0: 6e60 f183 e70d e2bf 8891 0ecf 4ca0 e63f
000002d0: 86d3 b64d def7 aa3f 45d8 4c5d 6de8 c2bf
000002e0: 5b49 0d07 6641 c6bf 5bf5 4d40 20c1 cd3f
000002f0: 40c8 1ed5 55cf 78bf 4b00 fc82 4f62 a53f
00000300: 8dc5 c1a4 05a9 e3bf c8c9 cfe1 1d6e e03f
00000310: 794d 339f 011e c7bf 7bcb 3a8a 7543 e63f
00000320: 80a8 3554 4d68 de3f 8f85 0ff1 4346 f2bf
00000330: 552c 3ab5 6ed6 c8bf 436d 4725 5d6e c83f
00000340: 9677 3465 a592 d4bf 820a 88d5 bca3 e13f
00000350: 00e6 d99b 6366 56bf a3a8 bd41 458e a53f
00000360: b491 ee51 41a7 c03f b6de be17 33e3 debf
00000370: 308e a1e2 effb a93f 8df4 86d8 f357 e1bf
00000380: f727 1ee6 2d64 ddbf 520c f3fc 8022 e73f
00000390: a844 f91b 6cff abbf 86be ff9d 61a7 c43f
000003a0: 9cbb 5407 6487 a2bf f155 a41c 0cd2 c6bf
000003b0: 30a9 668a 30b4 a03f a9b8 ce42 fc7f e43f
000003c0: 2b3d 5a2f 42fb f73f 501b b7a3 f6c1 edbf
000003d0: 375e d1b4 afed d23f 475b daf1 3c57 a7bf
000003e0: f1a8 29f3 2480 adbf 535a 6d07 9a17 b0bf
000003f0: a029 2976 7118 97bf db78 0892 0610 d43f
00000400: f815 712b 8953 d6bf e754 05b7 b026 e23f
00000410: df28 e70c cce7 a1bf 4c0f 40c5 b1a3 e13f
00000420: 3b6a 2a4a f9e4 b23f 86c3 4987 8be1 ddbf
00000430: 00dd e104 4de3 9abf 36a9 2168 4532 fd3f
00000440: d5c2 ab01 89f4 d1bf 821c 8cef 8039 e13f
00000450: 0974 169c a99c 97bf 8043 56e1 14e2 893f
00000460: 7bc6 f54e 4f21 b1bf 3ea0 ebd3 d978 d6bf
00000470: c1d6 ea13 addb 7ebf 69d8 c6a7 e6aa dabf
00000480: 903d 390a 4da4 dbbf 7b30 125a 9d7f e13f
00000490: 74c5 f712 21e8 ab3f a023 3074 4d92 9d3f
000004a0: e4b3 98e4 6a20 d23f 7e7c 0bb3 662e e8bf
000004b0: 1b6d 7f8e 8002 bf3f 1189 b8de 196b d7bf
000004c0: ec6e 77eb aa18 f0bf b593 835b d737 f03f
000004d0: 7151 fc89 1725 babf 4418 9e91 e44d e13f
000004e0: c701 545f 415f c13f 6509 d36b d2f5 e3bf
000004f0: b85f c45e cb6d abbf fc8c ee4c 145a e23f
00000500: 4048 2314 cca8 f33f 30c7 a859 a833 eebf
00000510: a4f2 7050 5847 d73f 8034 f8f1 1307 883f
00000520: dbaa 84a0 7a78 cd3f db62 a419 3192 cabf
00000530: ddf2 6be8 ba93 d23f 9c36 77b7 acf4 b83f
00000540: 5c95 e34d 9b84 d4bf 57d3 8125 dca2 e13f
00000550: 6c91 b495 15a2 7b3f 9fe1 2e31 2f4e 913f
00000560: 9d7b de93 018c ccbf 0066 7b33 5635 5c3f
00000570: d226 f205 face b1bf 16ad 2db5 f133 e1bf
00000580: 4d4c e12d fefd debf 406f 5ea0 f929 e93f
00000590: a02e 6260 0102 b9bf de49 1b75 263e c9bf
000005a0: 80f3 3b5c 90e6 76bf 03f9 ca21 bbd2 cf3f
000005b0: 1203 e490 3344 a43f 8f86 a035 d21d c4bf
000005c0: abaf 10db 97c0 f03f 4f29 a099 5a0f f0bf
000005d0: 41c5 3313 30eb b1bf af2b b065 329f aebf
000005e0: 4e86 7533 185d 913f b7ac 876a fc75 cf3f
000005f0: 004d 0131 dd01 7ebf 6610 8088 2864 e5bf
00000600: a06e 622e 4c43 e6bf 409a ce2d c751 e73f
00000610: 404b 4295 67be d2bf 0eef 4bec 0694 e23f
00000620: 2a63 c8b8 21ff e23f 3aef 0eb1 e2da e8bf
00000630: 0081 9220 d816 63bf c4f9 5996 6976 bb3f
00000640: e38a 4d4e d7e0 ea3f 3b20 56a8 f27f ebbf
00000650: 003a 3864 9106 783f e168 6bad 38b2 aabf
00000660: c335 aef5 5b19 99bf 7658 528e 2d79 b4bf
00000670: 1845 2ca0 8d1e b5bf f292 e109 c181 d9bf
00000680: 41ef 4d5f 3371 d7bf 67fe 42d8 6805 e13f
00000690: b753 f99a 92e3 c0bf 6d7c 5e40 3cbb d73f
000006a0: 98bf 412a 43e4 e43f f0b3 6737 5bb9 e4bf
000006b0: 7e07 e5d7 242e ca3f d081 ad89 ced2 aa3f
000006c0: 674a 8278 9e22 f13f b4bb 1e00 4095 f1bf
000006d0: a7a3 dbc4 3b6e c13f d0b6 09ad 8a61 a8bf
000006e0: 5db5 1c1d 4532 bbbf 2bbf e3da 6032 da3f
000006f0: 1df0 6daf 4d9d b5bf 6cff 68c3 cc0b b83f
00000700: 56a8 3814 b45b d9bf 8cfb 1e61 4c16 e03f
00000710: 00e4 fbc2 1e67 6fbf 4b0c 814c 32f1 c3bf
00000720: 83c9 a9c9 6dbe d3bf f83c 1fee 4234 bc3f
00000730: 181e 489e 6751 b6bf 4147 29db 54b3 c6bf
00000740: 4863 16c3 39eb f33f 1e5d 1b4d 2875 f3bf
00000750: bb1d 0d9e af2e c13f 20ff 4850 4e38 aabf
00000760: b791 4f8c e11f a23f 20a1 cb26 8e43 893f
00000770: 3708 d595 ca64 933f fafb 1022 ad9e d2bf
00000780: 8035 1cc5 b700 753f 29e3 adff 72e7 c13f
00000790: 72aa c6ba 4a29 9bbf 1c31 58ba ea14 b0bf
000007a0: 4597 7133 d9f5 bbbf f708 2daa 92a3 c3bf
000007b0: c2f1 a68d ae90 90bf 52cd ca65 9ab5 c6bf
000007c0: 2eb8 892f f379 ef3f 48b8 38cd 87cd f5bf
000007d0: 3532 2ca2 435b b7bf 27c2 044c 5739 c1bf
000007e0: 0022 73d3 a61c 88bf b5b9 02fb d4b9 db3f
000007f0: dc07 ddca bb3e bbbf e0d4 5c86 e247 dbbf

times f8 [3]
15104.999928474426 15154.118331193924 15157.83532500267
00000000: 0000 a8fd 7f80 cd40 0000 7a25 0f99 cd40
00000010: 0000 eeeb ea9a cd40
