package_metadata/openml/california_housing/ground_truth/shap_kernel_3_xgboost.npz (npz, 753576 bytes, 2 tensors)

exp_values f8 [3, 4096, 8]
-0.5663783650598255 0.5897557288139204 -0.09274150364289405 0.692882419121271 -0.0208546507085568 -0.10566301910821593 -0.11070257545400085 0.10160353640514862
-0.2819820316835057 0.25074683447204493 -0.034843590473704535 -0.056429146352000775 -0.07638044146503707 -0.05087536840189414 -0.030207027262053043 -0.3447259882494887
-1.6113864934536892 0.9741124210199741 -0.015868923638057694 0.149389569056984 0.003761578021272749 -0.17533580179607242 -0.025040413363755676 -0.091922174418789
-0.39155835678238116 0.5562012503370075 0.028899126154257188 -0.15130708477035593 -0.039029454346139976 -0.11656133362241793 0.060596844442527394 -0.08037162924991964
-0.33555844335245677 0.4932717670813542 -0.013873362905496081 0.08952729490339358 -0.07302928845678934 -0.1511296821777366 -0.015448034132980322 -0.05491421221342109
0.045881118474168044 0.661259534872621 0.152095968853639 -0.024270698906065924 0.14575259882201722 0.11736274910897058 -0.057802479597174286 1.109977873886758
-0.816325952931959 0.05253186844706 -0.08694373155985956 0.08680540329360521 -0.20147786416325078 0.16610445645489083 0.023282697680368836 -0.2940084883782854
-1.0570138392606385 0.9101938929208157 -0.15269480797328228 0.21438025150041234 0.0029124025013556355 -0.058708094228772136 0.01718280738552601 0.1182251454300796
0.21600567315125735 -0.8260259650704102 -0.057872676634991384 0.1528814227179788 -0.0010693725115071828 -0.01852375403518585 -0.061987626716565845 -0.013446366863761066
-0.9378229978021585 0.2725770393861945 -0.01524092857045789 0.21385136282976458 -0.020116644298539436 0.04690845257047231 -0.029015298981713906 -0.10401806242792375
-1.2357980264353365 1.0539778339663362 0.16096033973348894 0.0009013767182153853 0.027781463432016613 0.02904891088360632 -0.03553240655305702 -0.3349271660779012
-0.4370021277203187 0.5392070506243928 0.08752890712505305 -0.20184648172288233 -0.0055208594971145886 0.10390761547537028 0.0717657027306849 -0.02057616836478063
-0.41646316411846573 0.3987726067391387 -0.1662194178709015 0.6456163462887938 -0.1096274097020853 -0.2749894517626302 -0.1382511709668532 0.036222826653305715
-0.37419721124538435 0.28628250764588375 0.013414185581456683 -0.10135415698194168 0.039913118908937166 -0.14078634499425863 -0.10156920899776153 -0.30803413028578697
-0.2846412255377123 0.5399284885656634 -0.04544257770699019 0.17935489878498248 0.015980334030091803 -0.07454658979696567 0.07339132359839887 0.48908046948337947
1.0997739632564705 -0.11860537840393853 0.09690200231912477 -0.03569247832005426 -0.07238242653636418 -0.08035187942495783 -0.03133002320626466 0.0746771606951144
0.2060459305115777 0.21380665573874344 0.009523258479769758 0.5759375467804791 0.011757329179881993 -0.12696089014317047 -0.07809599794106978 1.3511245887375791
-0.404740925111917 0.23918739926265759 0.04458027090325656 -0.1366816738358055 -0.03208410011894393 -0.14208303472506426 -0.0504446856578675 -0.24854451685345158
-0.34688478987139526 0.6721661533805348 0.022349671065879984 0.2728239387262487 -0.2509917105416794 -0.22203915342821268 -0.11795289685510227 -0.28096737651303727
-1.1382732075281525 0.9737998666871801 -0.04215671899547129 0.473137570322919 0.020472711870191812 -0.16891390584086602 -0.016736557941615382 0.3787417880270972
0.6012709891805684 -0.4064015263036762 0.07197210620764859 0.22861113075345088 -0.11247431890429796 0.06232286531839509 0.09832550860078444 -0.13086303810846303
-0.46907931244650763 0.1602940241906613 -0.025492384027241632 -0.23885298593711768 -0.03814740744401269 -0.036546505978505874 -0.06439859808647085 -0.24814853122620847
-0.3623875126243171 0.7373467011342254 -0.03362772469522207 -0.20934593380738306 0.16576360280804636 0.13671183218276817 0.06437522335039665 -0.1704169778678369
0.6939948779362983 -0.7410297193198226 -0.02379756337190218 0.008364694691424486 -0.0664603320910729 0.07709592883165418 0.004363226392175845 -0.2811969934637033
-0.7881202496782516 0.8218865544572582 -0.02043038559729257 0.5446993336256165 0.03027179448160409 -0.007953144900314008 -0.20258925458055704 0.007076200207708938
0.5988643254721349 -0.9487730672302592 0.012595824055657179 -0.049192546004907946 -0.10418549870203198 -0.0702164213422704 -0.021431519407271168 -0.24143295906278175
-0.12321527475504163 0.3854619202817288 -0.11051821087836007 0.5125709228447607 -0.04822193612792236 -0.02862029886779105 -0.18224095848901412 -0.11450711354469632
0.7271913076541362 -0.4841143295709661 -0.05674161658573485 0.038674543843854964 0.011643033686036086 0.19019395989533225 -0.0814230339209895 0.02572081912135759
-0.18784807759803207 0.6142564604602195 0.04705337703911746 -0.5241870657248652 0.08512376715141105 0.007320875245122538 0.0895299100264364 -0.23278244896243658
0.8354203847131944 -0.8118036078828541 0.003930765475188641 -0.005354545547814725 -0.01641037409490864 0.047290318783332314 -0.015744573102271432 -0.17915530895285725
-0.10437494237727664 -0.3103906840795555 -0.0038741502303142328 -0.018883118151978306 -0.055583390627154644 -0.10289093945062393 0.06467550929946998 -0.11439491980147114
0.5495585342878943 -1.131353308171582 -0.036364525877603866 -0.13753804448681478 0.06730414188583872 0.020123048062356874 0.20448233375009217 -0.2895249142457641
00000000: 3a01 6385 c51f e2bf 464d fc67 47df e23f
00000010: d2ca 203d e8bd b7bf d82c 43c0 172c e63f
00000020: 900f 0deb eb5a 95bf ae66 774b bb0c bbbf
00000030: 876c 2805 0157 bcbf 7f9f 047a b002 ba3f
00000040: 8ffa 085d fe0b d2bf 6482 6873 3c0c d03f
00000050: 3d9b 1ee3 04d7 a1bf 3cff 3ef4 47e4 acbf
00000060: ef78 252a ab8d b3bf 658a ea16 560c aabf
00000070: 20b2 cc48 97ee 9ebf ad38 6797 fd0f d6bf
00000080: 6d98 2934 3dc8 f9bf be0f ddcf ed2b ef3f
00000090: df55 3170 f13f 90bf c14c bb88 321f c33f
000000a0: 00a2 a5d2 99d0 6e3f d71a 444f 6771 c6bf
000000b0: 5011 e7b1 31a4 99bf 7ee9 e72c 3688 b7bf
000000c0: dec5 36c8 4a0f d9bf de22 8690 66cc e13f
000000d0: 68af dc86 bb97 9d3f 98f2 5ed2 075e c3bf
000000e0: b9aa fe2b abfb a3bf 17ed e2ab f6d6 bdbf
000000f0: 492f 3eb2 8c06 af3f 9c96 272f 3c93 b4bf
00000100: 301c 061f ca79 d5bf 13e4 e9be c391 df3f
00000110: e897 b73f a369 8cbf bd9c b5c3 42eb b63f
00000120: 8f72 9225 0cb2 b2bf a041 34a9 3758 c3bf
00000130: 71f0 1b0b 38a3 8fbf 72a1 1533 b71d acbf
00000140: 996e b3de ba7d a73f 4746 8ec1 0929 e53f
00000150: 5937 0a76 e177 c33f 00e1 3508 6bda 98bf
00000160: 71b0 9f6a 05a8 c23f 0f12 3131 7c0b be3f
00000170: 9ac1 fe5e 4998 adbf 2b09 ba28 78c2 f13f
00000180: 6700 d79a 571f eabf ebae f401 75e5 aa3f
00000190: ff4c a4c3 f141 b6bf a11a 4300 e138 b63f
000001a0: dd7b b9d2 06ca c9bf 49c8 182c e942 c53f
000001b0: 403c 6664 6bd7 973f 4431 95fa 08d1 d2bf
000001c0: 95b3 f057 87e9 f0bf 7da4 63f1 4e20 ed3f
000001d0: dcd2 41e3 808b c3bf 921f 8de4 cf70 cb3f
000001e0: 4824 e02f c0db 673f 4535 72c1 fc0e aebf
000001f0: 7ce2 18af 5e98 913f 93e1 2fcd 0044 be3f
00000200: deb1 f7ea 12a6 cb3f dbf9 3301 ce6e eabf
00000210: 0d63 f5ca 7ca1 adbf 85ad 5e53 9e91 c33f
00000220: 00e0 b4fd 4585 51bf 6eff 1e17 e4f7 92bf
00000230: 6b34 029b d7bc afbf a960 70cf c489 8bbf
00000240: 05e7 1f60 a502 eebf 2a78 73f7 e671 d13f
00000250: 4093 2ace a236 8fbf 0489 c740 7b5f cb3f
00000260: c14f 7825 7599 94bf 366d 647b 6204 a83f
00000270: 922a d7c0 2fb6 9dbf 663b 5280 eda0 babf
00000280: 9004 c026 d4c5 f3bf 6282 79dc 17dd f03f
00000290: 8adf 8d31 599a c43f 009a 57c3 4b89 4d3f
000002a0: 458b 8073 be72 9c3f 0b04 eb68 ffbe 9d3f
000002b0: 92e6 2fb8 4d31 a2bf d02d 365a 726f d5bf
000002c0: f5d5 b5c5 d7f7 dbbf 4f8a 0625 2f41 e13f
000002d0: 7b85 8e61 4b68 b63f 14fe e702 1bd6 c9bf
000002e0: 2052 c66f 0a9d 76bf a6a5 4582 b099 ba3f
000002f0: 65e7 33b2 3c5f b23f a99c d048 eb11 95bf
00000300: d028 781d 55a7 dabf aa0e 1f8a 7d85 d93f
00000310: 669b db89 ad46 c5bf 2259 a29c e3a8 e43f
00000320: 0168 6abb 8a10 bcbf 9930 845b 6d99 d1bf
00000330: f6d9 f7e0 36b2 c1bf b672 b05f cc8b a23f
00000340: bf69 23dc d8f2 d7bf 5561 f0dd 7352 d23f
00000350: 80a7 ff82 e578 8b3f 3514 8d95 58f2 b9bf
00000360: 775d ca08 7e6f a43f aaa2 bc75 4905 c2bf
00000370: ae0c ed8e 7000 babf c445 e8c8 d4b6 d3bf
00000380: 0ac8 b1d4 8f37 d2bf fa2e 121c 1847 e13f
00000390: 7be6 31e2 3f44 a7bf 8156 54f0 19f5 c63f
000003a0: 6052 2710 265d 903f bdcf 343d 7c15 b3bf
000003b0: 8a4f aa16 c6c9 b23f bcc7 622b 184d df3f
000003c0: 8edc 5295 ac98 f13f 24e7 5f0d ec5c bebf
000003d0: 94a7 e0d2 91ce b83f bc15 32d6 4846 a2bf
000003e0: e05f c79a a787 b2bf 7265 4dd6 f091 b4bf
000003f0: 508f 1b22 7d0a a0bf 3e93 f1da 0a1e b33f
00000400: e4b3 828a b65f ca3f 0753 0839 045e cb3f
00000410: 0096 c61d ee80 833f 77bd fe93 146e e23f
00000420: 67f6 8602 3a14 883f 889a 8423 4140 c0bf
00000430: 0efa 1a6d 19fe b3bf 8c30 17d1 349e f53f
00000440: 8d57 2d7b 46e7 d9bf 7665 b954 b19d ce3f
00000450: c011 27ab 39d3 a63f 6b2d 8bfb c87e c1bf
00000460: 3204 77c1 536d a0bf 65f4 bae1 c62f c2bf
00000470: 3ca9 50c6 e2d3 a9bf 442b be85 4ed0 cfbf
00000480: f28e fe42 5c33 d6bf a8eb c797 6282 e53f
00000490: 909d 3709 d5e2 963f 134a 9989 f275 d13f
000004a0: bbfd 1589 3f10 d0bf f8ed 336b c76b ccbf
000004b0: 520c 763a 2932 bebf 5273 5797 5efb d1bf
000004c0: 67f1 83f7 5d36 f2bf bea8 8856 5e29 ef3f
000004d0: e7cf c8c2 9095 a5bf ffee c2cd e247 de3f
000004e0: d888 c56f ccf6 943f da8b b68a f89e c5bf
000004f0: f002 0764 6323 91bf d91d 4d32 4e3d d83f
00000500: 330d 52a8 9c3d e33f 9433 218c 7b02 dabf
00000510: bfd6 6292 c36c b23f 2938 0b29 2143 cd3f
00000520: 2a76 55f1 1dcb bcbf 38c9 ab58 c8e8 af3f
00000530: 358d cd4b dc2b b93f a92c 77ba 1ec0 c0bf
00000540: d106 8c3c 6505 debf dc51 d2bb 8384 c43f
00000550: c0bb c6ee ac1a 9abf 6c70 9311 bc92 cebf
00000560: c166 cc96 0e88 a3bf 95e7 eb3f 39b6 a2bf
00000570: 478c b030 6d7c b0bf 4360 15c1 54c3 cfbf
00000580: 8ed0 cc64 5b31 d7bf 64eb e51b 5898 e73f
00000590: f817 9c33 a737 a1bf d76b a0f9 d8cb cabf
000005a0: a4be 76e2 bd37 c53f e4c1 19f8 c57f c13f
000005b0: 2d70 f606 e57a b03f e310 5039 39d0 c5bf
000005c0: 447e 0abf 3435 e63f 61f7 3af5 83b6 e7bf
000005d0: 1b92 a071 635e 98bf a423 2051 8221 813f
000005e0: 35fd cf58 8b03 b1bf 4198 fc0c 8fbc b33f
000005f0: 4010 8daa 2cdf 713f 983f aaac 21ff d1bf
00000600: c8de 35f5 4738 e9bf 4250 0d08 e54c ea3f
00000610: 97ae f0f7 b3eb 94bf 8866 024c 2d6e e13f
00000620: 1bad 28bd 91ff 9e3f dd42 fa09 bd49 80bf
00000630: bae5 78d7 71ee c9bf 008d 8d07 effb 7c3f
00000640: fc9a 9484 e529 e33f dc8b e255 595c eebf
00000650: 00ed 14e3 d6cb 893f ad9a 98f0 c32f a9bf
00000660: 8886 a49d e6ab babf 2ba5 4e11 b4f9 b1bf
00000670: 7fce d4eb 24f2 95bf a1f2 ac73 46e7 cebf
00000680: 6cc8 7047 098b bfbf 17a8 5d79 68ab d83f
00000690: c5c1 55e5 eb4a bcbf 0ff6 cf22 fb66 e03f
000006a0: 600b 3dad 8bb0 a8bf 003e 8ebe a34e 9dbf
000006b0: 70db 59f6 ab53 c7bf d775 d593 5650 bdbf
000006c0: 6feb 89b4 2645 e73f a210 42ab bafb debf
000006d0: 61a5 1db7 3c0d adbf a480 fe59 26cd a33f
000006e0: 2013 4387 4dd8 873f 0bd7 d292 4658 c83f
000006f0: 79ed d4d3 23d8 b4bf 7e6c cff3 8e56 9a3f
00000700: ca33 f3e2 670b c8bf 4911 212a fda7 e33f
00000710: 9b46 1957 6117 a83f b1c8 08f4 23c6 e0bf
00000720: bb12 07d4 abca b53f c027 187c 7efc 7d3f
00000730: 50ce 93a3 6eeb b63f a72f b0b6 d0cb cdbf
00000740: 3528 d887 c3bb ea3f 9c36 548f 4bfa e9bf
00000750: 607c a0d2 b419 703f be74 34e0 a5ee 75bf
00000760: 3f06 3690 e1cd 90bf ec03 2fc9 6f36 a83f
00000770: 4a44 416a 581f 90bf f0bb 6da8 8fee c6bf
00000780: 0144 08f4 50b8 babf 5eb4 46e3 70dd d3bf
00000790: 0069 3f91 aebc 6fbf a312 a39b 1856 93bf
000007a0: 4c8b e319 6d75 acbf e3c1 fe83 0f57 babf
000007b0: 211a 4bfd 928e b03f 7338 6047 fc48 bdbf
000007c0: 6922 80c7 fb95 e13f fb17 2ded 051a f2bf
000007d0: 31f9 c102 5f9e a2bf ae69 83bd d89a c1bf
000007e0: 24f7 4820 d83a b13f 406d 4be5 229b 943f
000007f0: e47f 0824 7a2c ca3f 4804 8481 9387 d2bf

times f8 [3]
23720.177147865295 23756.679545402527 23752.36177778244
00000000: 0000 6456 0b2a d740 0000 ac7d 2b33 d740
00000010: 0000 5e27 1732 d740
