package_metadata/openml/cps88wages/ground_truth/shap_kernel_3_ann.npz (npz, 437992 bytes, 2 tensors)

exp_values f8 [3, 4096, 6]
0.08219761664843404 0.3444640483323863 0.026880385078425717 0.05695842305868057 -0.08893775707770131 0.0656983035130188 0.08803823452358682 0.32441016888681884
0.030318243552611368 0.07413310848095767 0.04523019102100951 0.06585400351962578 -0.29767295974883456 0.32311048079017385 0.023700950220883088 0.0565107172858827
0.033837488046909225 0.05541664487530592 0.5679995595868356 -0.13467364894333597 0.02438245107866607 -0.3034626699852581 -0.0007764259053488487 0.05869766182944298
-0.168901921908348 0.07932826382061939 0.02484956254289894 -0.12377312342647447 -0.03975180091549899 0.04385778199757288 -0.04022637501606466 -0.4214265137890133
-0.1524921122226761 0.029760575550266097 0.0027201471288738066 -0.4258446329376802 -0.32349689021912875 0.26697508575032175 -0.2964627008249994 0.04573419231515509
0.026305907708816884 0.045845469512257105 0.2103786060797909 -0.4505678820287119 0.013652237409398471 0.04580042318264101 0.03266008206263057 -0.6128033186773157
-0.4315497177301954 0.2603592631331431 0.02022402627638503 -0.1517625930484264 0.014411612386837719 0.0434394371796041 0.30851041269877416 -0.1752583682809022
0.02364896204058087 -0.21880429739612212 -0.011127034896051411 0.05431994345710945 0.4106777550065659 0.1545710947214057 0.03305547963849109 0.09602313797263132
0.06156971965090145 0.07023507317909335 -0.18675823780091363 -0.09740283990430647 0.019740125747586768 0.03159230682383196 -0.08509112993908428 0.041654205947769814
-0.05241838518561869 -0.622593586871795 0.016883722144678513 -0.08332701688947478 0.005444337277717648 0.032976491237770626 0.06989129265312984 0.027232913993621353
0.025449375627044447 0.05886484573133621 0.013158459214936136 0.05651029131449942 -0.06373018303944457 0.2092328273883487 0.02569523454622616 0.04311586551956873
-0.09437822449644455 0.055485501866587524 0.060451049958580395 -0.2507177874536657 0.020478034679192653 0.025232506917937568 -0.06981375039223432 0.04599380589985289
0.4180290260571382 0.32434621760642823 0.030724608926814674 0.06747887150891783 -0.08380995983802542 0.07158442457679108 0.05994884404021004 -0.1593721426252163
0.022419767782912152 0.052815024335583174 0.026622593086449254 0.05161564358708769 -0.14645167200153197 0.10278061118771784 0.023051189006343755 -0.19205238812098915
0.012772807311563605 0.04472420622470543 -0.1662568238430101 0.21330468783283008 0.02556276512863683 -0.1328674727064367 -0.048645132858851976 0.047537854617858574
-0.16670458759582346 -0.020981989683283575 -0.25334074555279024 0.043047841537555816 -0.07768203509008792 0.03701075176561542 -0.19266288389452418 0.299517740620369
0.025274639197933157 0.06421784539259853 0.03926157497921724 0.05910901386784934 -0.06793716005547583 0.33434004999799444 0.02500968195769626 0.05139182612841114
-0.0950582935809451 0.060872850772601184 0.7071283611047483 0.353025466055332 0.03566028030477535 0.10181972114483931 0.023516477215229648 0.07695799613798744
-0.04802599126769591 -0.46631604265525517 0.011937342607116874 0.01809789043412201 -0.04490927604370631 -0.42883135040549275 0.36246887255845106 -0.3777904908345314
0.02175552176447171 0.05480754267823014 0.003283621333305148 0.054321401033648894 0.7256328621010554 0.17599753775868632 0.035206878782884754 0.111177719615831
0.056359516698916985 0.07455739921867222 -0.17366846554650714 -0.3291962599441171 0.020154068745234843 -0.07828236164815006 -0.03391005585272852 0.03448997432700845
0.34708772652068604 -0.5531435016233366 0.019126924259426727 0.04480784752011312 -0.0017143184130403999 0.049330346859806896 0.6620742719145881 -0.12616331483516507
-0.3074917532335765 0.06416181863619695 -0.04168156186185917 0.058069254655639786 -0.14783558635941385 0.2857481353956476 0.024541483130032894 -0.19497851047303624
0.013106922732652956 0.04915818333530183 -0.6372273567114807 -0.06081154376474288 0.018787152815219366 0.027314419486789584 -0.053819021275904204 0.03186166831976912
0.038571392432087556 -0.49519415857147736 0.016543285158342007 0.03479876115402072 0.01312706946620995 0.041251532478148153 -0.31103990719867924 -0.30454404040249555
-0.1789198594218639 0.03314896389993331 -0.06804812817322577 0.02739168249996604 0.36290820942274826 -0.3772370227379373 0.022134261386854696 0.05877567673314522
0.01851163143712098 0.05474947821609741 -0.14502429654369722 -0.21494782923557548 0.02125096307542178 -0.13823643572410493 0.013384619697119682 0.037667475304343986
-0.03699401401117325 0.2360923476249094 0.027154937706465727 -0.206916388992446 0.02188572480044085 0.052124994370466665 -0.14630001684834568 -0.13393510841289716
0.02259039931156488 -0.1433187084003734 0.00899755007660763 0.03944621554086027 -0.18962806171980842 0.09553121698782954 0.023310985655635386 0.05993843798063662
0.05175718386554468 0.051001061315934224 -0.14191526723841721 0.08217918656310752 0.024855948512589786 -0.1746095945537089 0.021792375932499414 0.04453404963938909
0.3453816282297271 -0.5977695186319145 0.019718851892277484 0.0545807941126812 0.05245745440833197 0.04967291792150488 -0.18227668229135682 0.06105003241166572
0.02359812915693995 0.053967263081099316 0.03832473045269729 0.04890922115826387 0.09012055290829891 0.1464203176388089 0.028577248024559743 0.0783875308883416
00000000: 676d 502b e70a b53f 2e10 8fef b20b d63f
00000010: 604d 431b 8886 9b3f 9c9b 8988 a729 ad3f
00000020: f53f 07f6 9fc4 b6bf 93b8 fda0 9ad1 b03f
00000030: df8d 137a ac89 b63f 54f5 76de 22c3 d43f
00000040: 205d 1fe2 be0b 9f3f 18fe 792c 63fa b23f
00000050: 5942 745e 6928 a73f 206e 6dd7 cedb b03f
00000060: d095 c1e2 120d d3bf c345 ff94 d7ad d43f
00000070: f0cd 54d8 0f45 983f 9994 3b05 f9ee ac3f
00000080: c09d 14b1 2553 a13f db76 c90a 925f ac3f
00000090: ed2b 9269 0d2d e23f 471c ec72 fc3c c1bf
000000a0: f7b0 ea97 b6f7 983f 812f c9b0 ee6b d3bf
000000b0: 00cf 84ef 2171 49bf d978 d1b3 9e0d ae3f
000000c0: a5f8 6903 949e c5bf 9e0d c26a db4e b43f
000000d0: e041 c4e9 2972 993f 0d90 3d6d 98af bfbf
000000e0: 6d41 c719 595a a4bf b597 b5f6 8674 a63f
000000f0: d4e1 422a 8d98 a4bf de07 99e9 a6f8 dabf
00000100: 407a 728d dc84 c3bf 794b cb6a 8e79 9e3f
00000110: 00aa aede 8f48 663f d93e e9d8 0941 dbbf
00000120: ba53 f64c 2cb4 d4bf 4d3e 89ab 1e16 d13f
00000130: b9bd 21b1 3ef9 d2bf e2e9 9ad8 786a a73f
00000140: 982f 3495 efef 9a3f 5127 73b0 0e79 a73f
00000150: b504 72a8 afed ca3f 523e 7cab 1ad6 dcbf
00000160: 4056 8649 b4f5 8b3f 23c0 6c2f 2773 a73f
00000170: 1bf6 af80 d2b8 a03f c52d 93b4 159c e3bf
00000180: 3bf3 0fb5 829e dbbf 4185 17e6 b9a9 d03f
00000190: af54 cd6d 9bb5 943f 4b17 f3e6 f46c c3bf
000001a0: 30a1 12df d583 8d3f 230a 16a4 b13d a63f
000001b0: 9511 4175 a2be d33f 42f3 0ec0 dd6e c6bf
000001c0: c1ce 31fa 6e37 983f 7632 c57a c701 ccbf
000001d0: d205 d757 c5c9 86bf 1174 56d9 d2cf ab3f
000001e0: 68aa bc59 8b48 da3f 2320 5e52 fcc8 c33f
000001f0: b077 00d8 a5ec a03f 8272 40ed f894 b83f
00000200: 3626 a6f8 1086 af3f 851c 56fe ecfa b13f
00000210: a987 cea5 b1e7 c7bf 6b30 ed7b 64ef b8bf
00000220: a0ed 046a c136 943f 0024 3ae9 dd2c a03f
00000230: 279f 4444 88c8 b5bf c1b2 9238 b353 a53f
00000240: 6fa8 2924 95d6 aabf c909 ca62 49ec e3bf
00000250: 49da c869 f749 913f 5add 695c eb54 b5bf
00000260: 8028 e628 cd4c 763f 475d ce6e 4be2 a03f
00000270: 5d69 3850 65e4 b13f 79d7 e8eb f1e2 9b3f
00000280: 4a4c 16b0 660f 9a3f 70b0 9976 8823 ae3f
00000290: 2082 f37f d2f2 8a3f 389a 2aba eaee ac3f
000002a0: 8129 ec0b 9f50 b0bf 14f8 702b 24c8 ca3f
000002b0: 6807 2800 da4f 9a3f c5c8 b060 4813 a63f
000002c0: cbb1 aadb 2b29 b8bf 9199 d67f 9868 ac3f
000002d0: 3d74 29a5 70f3 ae3f f0e4 689e c20b d0bf
000002e0: 0817 efa4 31f8 943f c6d7 08e0 8cd6 993f
000002f0: b5e9 be5e 50df b1bf 0d1f 5108 808c a73f
00000300: cc6c ecd0 fcc0 da3f b0db 4ca3 16c2 d43f
00000310: b29c 179a 4576 9f3f ff41 4d9a 4b46 b13f
00000320: 3859 95cc 9174 b5bf fbd5 755a 5b53 b23f
00000330: bde1 2b69 9db1 ae3f 0d00 3c6e 4e66 c4bf
00000340: 0e66 a525 35f5 963f 027e 8424 920a ab3f
00000350: 4d66 90fa f342 9b3f 0e4a 569a 5d6d aa3f
00000360: ec75 d8aa edbe c2bf ded1 b683 d44f ba3f
00000370: 2726 aa1b bb9a 973f a596 0c33 2c95 c8bf
00000380: 8040 732d a128 8a3f 133b 2656 17e6 a63f
00000390: 743f 9252 e747 c5bf cca9 2969 914d cb3f
000003a0: 162c e420 202d 9a3f fff7 fc24 cd01 c1bf
000003b0: 4108 7acd 03e8 a8bf 96b8 cfb5 e156 a83f
000003c0: f69a e86f 9356 c5bf e095 fa7d 4d7c 95bf
000003d0: f72e 391a bc36 d0bf 1167 22df 5d0a a63f
000003e0: dcda 3248 f8e2 b3bf f10c dec0 12f3 a23f
000003f0: 8271 bd68 2da9 c8bf ab52 2275 4c2b d33f
00000400: e0e1 1753 98e1 993f 2ee2 c7a9 9470 b03f
00000410: b2e5 0cd9 171a a43f 7925 ec62 8943 ae3f
00000420: 2b13 9f68 5464 b1bf 4300 1fcf d365 d53f
00000430: e0dd 5d58 239c 993f 37a9 0189 0750 aa3f
00000440: 39cb 2486 bd55 b8bf 50b2 90ee b92a af3f
00000450: 6c9b 20a8 cba0 e63f 4438 d71f f897 d63f
00000460: 37b4 5973 1042 a23f 22a9 6774 db10 ba3f
00000470: c0e5 3912 b414 983f c50e 94ec 84b3 b33f
00000480: c099 b4db dc96 a8bf 4e7c 333e 1fd8 ddbf
00000490: c02a ca00 9b72 883f fd21 2ade 4088 923f
000004a0: 4f1d ca3f 59fe a6bf 4f6e 5f0c f971 dbbf
000004b0: f037 5da4 b032 d73f 42f1 b72a b82d d8bf
000004c0: 617b f159 1447 963f 3a16 c1f6 bb0f ac3f
000004d0: c0d5 a5c7 40e6 6a3f 0e29 d3c1 03d0 ab3f
000004e0: a70f 7468 6238 e73f 84cf 6c5a 1687 c63f
000004f0: c0f6 eed1 a206 a23f e039 cb9d 2476 bc3f
00000500: f996 1492 27db ac3f d8aa 5197 3116 b33f
00000510: 3b33 efad c43a c6bf 5b3b 9b30 8d11 d5bf
00000520: c087 91a8 44a3 943f 30e8 2117 500a b4bf
00000530: 9c37 c9a9 a85c a1bf a77b 8c7f aba8 a13f
00000540: 29f5 8f70 af36 d63f ecf2 2e00 5ab3 e1bf
00000550: 7a52 ab28 0296 933f eef4 67df 0df1 a63f
00000560: 804c 3661 5f16 5cbf 7529 edc4 d341 a93f
00000570: 67ad 2c62 b62f e53f a003 9697 1e26 c0bf
00000580: ef62 fbe3 f1ad d3bf dfc0 b1b0 e86c b03f
00000590: 28f5 1522 4957 a5bf b952 4cdb 40bb ad3f
000005a0: 18a1 4cc8 46ec c2bf d2b4 1a8c b249 d23f
000005b0: dd5b c10d 6721 993f 23c6 f34a 0ef5 c8bf
000005c0: de4e e763 cdd7 8a3f 7b04 83eb 422b a93f
000005d0: 9d27 26a0 2a64 e4bf 15b0 60cf b022 afbf
000005e0: a08d b47b f03c 933f bfb4 9ea9 4ff8 9b3f
000005f0: dfc2 90b0 2a8e abbf 51db db2e 2c50 a03f
00000600: d62e 1d2a a1bf a33f df05 0fd7 42b1 dfbf
00000610: 3bd8 e412 b9f0 903f 5317 32aa 24d1 a13f
00000620: e0c4 6570 5de2 8a3f 3e9b cebd eb1e a53f
00000630: 36d4 4aed 13e8 d3bf 611b 6e49 a67d d3bf
00000640: 7e31 6990 d8e6 c6bf 3668 b1a7 e6f8 a03f
00000650: 75da 0e25 9a6b b1bf 803e 14b2 900c 9c3f
00000660: 7ceb ba5a e339 d73f 87fd dfc0 a624 d8bf
00000670: fe51 1c23 5daa 963f 31fe bc72 d817 ae3f
00000680: 80df 788e b6f4 923f 2c89 d2a4 1f08 ac3f
00000690: 39ea 63f9 2790 c2bf d6dc 7414 6983 cbbf
000006a0: 6d75 abfd cfc2 953f 447b 4645 bbb1 c1bf
000006b0: 00be f23e 6569 8b3f de2e 1cbd 2649 a33f
000006c0: 58c9 a620 e1f0 a2bf bd42 f127 4638 ce3f
000006d0: 052b 7f05 81ce 9b3f e34e dd79 3c7c cabf
000006e0: a98f 1121 3669 963f 5c2c 4094 20b0 aa3f
000006f0: 574a e27d f5b9 c2bf b5b5 351f c924 c1bf
00000700: 93ac fc08 f021 973f 3306 be76 4458 c2bf
00000710: c0d0 95ba 4e6d 823f 53de 655b 4b32 a43f
00000720: f5c6 be79 bb45 c8bf f2b5 b5dc bb74 b83f
00000730: a029 1dc4 d5de 973f 95e1 cc3d 40b0 ae3f
00000740: a936 12e8 ea7f aa3f a692 d3a4 cf1c aa3f
00000750: 01ca cb8b 472a c2bf 584f b3f6 b109 b53f
00000760: e6f9 e377 d673 993f 2687 1671 9b59 c6bf
00000770: 8898 ba97 bd50 963f 7cec 84bd 2acd a63f
00000780: b9b2 788b bb1a d63f 463b a28a ed20 e3bf
00000790: b8ce f7bf 2d31 943f 1a48 688b 03f2 ab3f
000007a0: 15fb 3a16 b4db aa3f d483 f08b ba6e a93f
000007b0: a7e3 a1a2 d754 c7bf ce74 4129 f341 af3f
000007c0: e642 e7a3 1b2a 983f 8dd4 f9db 98a1 ab3f
000007d0: 473e d88f 4c9f a33f 4bf5 b122 a10a a93f
000007e0: e146 70fb 2312 b73f 4b43 dda5 e6bd c23f
000007f0: 605e b3a6 5a43 9d3f c861 9489 3411 b43f

times f8 [3]
3665.603479385376 3683.7861716747284 3689.594539642334
00000000: 0000 40fb 34a3 ac40 0000 1885 92c7 ac40
00000010: 0000 8067 30d3 ac40
