package_metadata/openml/cps88wages/ground_truth/shap_kernel_3_xgboost.npz (npz, 438156 bytes, 2 tensors)

exp_values f8 [3, 4096, 6]
0	0x3f9d53c5b7444380	0.028639878569325372
1	0x3fd26b5002639c96	0.2877998374301084
2	0x3fa52bd78b131b0a	0.04135011265457507
3	0x3fab1b77a193f798	0.052943933938862375
4	0xbfba2b65520a56ec	-0.10222466710032635
5	0x3fb355aa90400f02	0.07552591344579798
6	0x3fbadae2f2192ddd	0.10490244303326031
7	0x3fd263a82aa525a6	0.2873325745063887
8	0x3f9c41383b2c4be2	0.027592543231616314
9	0x3faddce35e3c0176	0.058325867894384695
10	0xbf9a93feb94f3290	-0.02595518117941481
11	0x3f9c8dfc7e96e468	0.027885384775548167
12	0xbfd6982d33ca3326	-0.35303812081910946
13	0x3fd878ec55d79459	0.3823805654813604
14	0x3f964c8abf1368e4	0.021776359474508747
15	0x3fa971a3fbeed8b1	0.049695133689441014
16	0xbf7a0ff4a7451600	-0.0063628727696758425
17	0x3fa302a6c0d6953f	0.037129603423901696
18	0x3fdb0521ebdbde7e	0.42218826325504455
19	0xbfc182d6950eaa17	-0.1368053653544201
20	0x3fa50250a7b38930	0.04103328749785573
21	0xbfda98057f7c465e	-0.41552865457297183
22	0xbfbc6686c6cacedd	-0.1109394297916952
23	0x3fa94beeeef1851e	0.04940745035924919
24	0xbfc2666524f84272	-0.14374985032238247
25	0x3fb3c2ed961e7ea6	0.0771931163312681
26	0x3f9ad4d82b7f94dc	0.02620256200306846
27	0xbfc0400c30fba90b	-0.12695457832098386
28	0xbf95ec9a8244bf74	-0.021410383416138726
29	0x3facb7fceec6cf29	0.05609121718171501
30	0xbf91f06aed3a6c17	-0.01751868317533586
31	0xbfe2bc3d180c2d31	-0.5854783506087299
32	0xbfc098820e6d7fa7	-0.1296541758010765
33	0x3f99bfcc85ad8900	0.025145717295694148
34	0xbfa348edcda58ea9	-0.03766577849708359
35	0xbfd6c359358934a0	-0.35567312458153744
36	0xbfcb0737cfdb4d48	-0.21115777634859456
37	0xbfc01a1cf93cf5e5	-0.1257969109519045
38	0xbfe06e5f640b04c1	-0.5134732202497149
39	0x3f77123141d2f900	0.005632584009786834
40	0xbfb5a59f18a251bc	-0.08455843306939576
41	0x3f9ac0720bda4cac	0.026124746297295928
42	0x3fcf37efa9a83c2b	0.24389453681985293
43	0xbfe748534c353eeb	-0.7275787819325762
44	0x3f71bceecc47f880	0.004330570988257176
45	0x3fa939db23250ddb	0.04926953128827068
46	0x3f9df1327b788a83	0.029240406786025474
47	0xbfe250bdc85e5caf	-0.5723561204385045
48	0xbfd786498f86ea8a	-0.36757124916372474
49	0x3fcdd4f043e00b0d	0.23306086839883058
50	0x3f914c9d7e70837b	0.01689382633424284
51	0xbfb9aabc11559383	-0.10026145384979483
52	0xbf8fef1ac6b247d0	-0.015592774571164286
53	0x3fa451ac99a8288f	0.039685624844495775
54	0x3fd7fa80a6fd67a6	0.37466446216205396
55	0xbfc3a7788fd2119d	-0.1535483076332981
56	0x3fa4af492b1fd985	0.04039982463284545
57	0xbfc1a21db8d9db77	-0.13775989080360393
58	0x3fa480f40baafbbc	0.04004633562498536
59	0x3faf13d34bcb2b19	0.06069813060965696
60	0x3fda66a41d1bbea9	0.4125147136937622
61	0x3fb09c2e59e76a18	0.06488313383980715
62	0x3f9e4522701854e0	0.02956060227559909
63	0x3fb4d701e513fa2f	0.0814057525894689
64	0x3fa7627b832aa4a9	0.04567323661951523
65	0x3fb0016dbae2fe16	0.06252179920829123
66	0xbfc79e1f01ffc1e9	-0.18451297376260747
67	0xbfb8e5b9e8c3a10e	-0.09725534374922892
68	0x3f964ba170dd1ea0	0.02177288295140889
69	0x3f9fec2e65dcb51c	0.031174397437259235
70	0xbfb5ade0a08fc972	-0.08468440933191859
71	0x3fa81c05c71a7bf9	0.04708879523717963
72	0xbf7f109d1b326a80	-0.007584203430406888
73	0xbfe4c552778e0209	-0.6490871748974892
74	0x3f8e7d0798afe361	0.014886912676944144
75	0xbfb1f9b49bac4fa6	-0.0702164535580879
76	0x3f9e5022b3af8ff2	0.029602567879820137
77	0x3fa0a330ab6cd579	0.03249504177658031
78	0x3fb2617e09ca31c5	0.07180011500367474
79	0x3fa740fa5373ab2d	0.04541761654566865
80	0x3f9bfcf69a19d7b1	0.02733216586644688
81	0x3fa9064ae42b1a42	0.048876133301338345
82	0xbf9115515a292460	-0.016682883384678937
83	0x3faded65aca60693	0.0584518216374025
84	0xbf29f04c5ef88c00	-0.00019789631140651465
85	0x3fcfb0a71dbd2a91	0.24757851554962376
86	0x3f73d44700598ff3	0.004841115330780343
87	0x3f9f647427fc2438	0.030656638088690097
88	0xbfb95e66a9cbe0b4	-0.0990966953794466
89	0x3fada167ccca54cc	0.05787205099947243
90	0xbf9fb0ce6f3f6fb6	-0.030947900333430055
91	0xbfd28988907e4d1d	-0.28964437590293973
92	0x3f94bbfd3a374bc0	0.020248371771071083
93	0x3f9f4b1d1aebc165	0.030559973495600263
94	0xbfb6ddf9ce05b932	-0.08932458190767958
95	0x3faae5f2c4dd95ce	0.05253561642784242
96	0x3fd8fb8e30ea8e4c	0.3903537252137752
97	0x3fd1ff03d6baa342	0.28118988008150236
98	0x3fa2b5749fc286a4	0.03654064607804955
99	0x3fa0ef40380b0735	0.03307533916587461
100	0xbfa9eef64f61f5e0	-0.05065126151110255
101	0x3f981dd1a478c99d	0.02355125013691294
102	0x3fb2c9656e33e16e	0.07338556232924073
103	0xbfbddcac36518965	-0.11664844823966332
104	0x3f952bd13b7496fa	0.020674962285872824
105	0x3f96496461c93452	0.021764343708401697
106	0x3fa37a25f6944850	0.038041292524341075
107	0x3fa32624a2d9ab30	0.03740038383405986
108	0xbfc315dd2cf8becd	-0.14910473533517746
109	0x3fadaeab45db5166	0.057973243977957264
110	0x3f996a294d9d1827	0.024819035875474207
111	0xbfc485e2382f356a	-0.1603358053529676
112	0xbf715d163d3f32a0	-0.004239165184071553
113	0x3fa79412876f62f2	0.04605157759914914
114	0xbfbdc1ed2e6ddee3	-0.11624033340001065
115	0x3fd0b5edef0a460a	0.2611040911079675
116	0x3f9ddffede5b90fd	0.029174787828098115
117	0xbfc39845b51d318e	-0.1530844816537748
118	0xbf74651a2b47c590	-0.0049792310933168965
119	0x3fa920c7670b0d1a	0.04907820828295879
120	0xbfc136454f7df0d2	-0.1344687116760555
121	0x3f8fead9fbdc9340	0.015584662436205599
122	0xbfd1d854936069cd	-0.2788287581658125
123	0x3fa4c215173e44db	0.04054323109370169
124	0xbfad172162af0a38	-0.05681709603915802
125	0x3fa545cb3d463b78	0.041548110227373536
126	0xbfd35c61e238875f	-0.30251357166172527
127	0x3fd4be23508fb332	0.324105099366352
128	0x3fa46b0c481bbd38	0.03987921123722987
129	0x3fb1dab4d9e417d4	0.06974344558338369
130	0x3fa5ef491ecc580e	0.04284122944788758
131	0x3fa875270a67e5b0	0.04776880266212957
132	0xbfb3bb3f8112181e	-0.07707592869891797
133	0x3fd3719437111ae1	0.30380730989092625
134	0x3f967e680274ac30	0.02196657671917651
135	0x3fae4180acb0acc9	0.05909349544557469
136	0xbfb88adb71bf87a8	-0.09586879279188898
137	0x3fb017b48b80776b	0.06286171346479612
138	0x3fd51fa6cb7dc777	0.3300568568439454
139	0x3fca025c1866da7b	0.20319701377384888
140	0x3fa33daceff0bea0	0.03757992199859683
141	0x3fab60619f062184	0.0534697062130958
142	0xbfc077c747450b01	-0.12865534763303546
143	0x3fadfc4368652f6d	0.05856524133068217
144	0xbfa7e18cdb930147	-0.04664268665647114
145	0xbfe1065a20c7112f	-0.532025398272287
146	0x3f7bd0c1eb528700	0.006790883538231318
147	0x3f90efa14a214b02	0.016539116048373444
148	0xbfb1243602dfbeac	-0.06695878572622388
149	0xbfda83a24b9cbb72	-0.414284299697946
150	0x3fd3556f368aee4f	0.30208950354037695
151	0xbfd7932a283ccae5	-0.3683572190231373
152	0x3f97f1e642ecbc2d	0.02338371070362315
153	0x3fa7d5fdadd0b8ac	0.046554496257486505
154	0xbf976e66c1e9e282	-0.022882085404918324
155	0x3fae3ced770e4866	0.05905859068219925
156	0x3fe61bd1d46ae62b	0.6908959530621294
157	0x3fc9bfd3bf03b21c	0.2011665995299986
158	0x3f3ab48e62dc0000	0.00040749050354804695
159	0x3fc1651540ee79d5	0.1358973090218131
160	0x3fac3d8fe51861b0	0.05515718146870385
161	0x3fadf5054f7c5d21	0.058509984925132714
162	0xbfcde1477f2ad297	-0.23343747815456048
163	0xbfd5e2de22fd3e53	-0.3419719068233224
164	0x3f97ecd3624c5660	0.023364355921407287
165	0xbfb8f531e0228175	-0.09749137613335342
166	0xbf9868d42351f42c	-0.023837389617700364
167	0x3fa229c0cd2e97ea	0.035474801108008894
168	0x3fda1940d8a655b7	0.4077913394661112
169	0xbfdeb7c1ae99152e	-0.4799656109865563
170	0x3f9e69cd2e91e2f7	0.029700475661658534
171	0xbf94fedd7ef3b3e0	-0.02050348365166943
172	0xbfb40d32525327ae	-0.07832636365779308
173	0x3fabaa1f943ebcbf	0.054032313200303765
174	0x3fe804cd0d460457	0.750586057591259
175	0x3f93f70a84a10993	0.01949707445624822
176	0xbfd1d254fdc8f5c1	-0.27846264632884404
177	0x3fb83120925ac569	0.09449962208852515
178	0x3f8bccd1285bfe40	0.013574251217050137
179	0x3fb15ccd004df147	0.06782227761681724
180	0xbfb98c7f11f950c2	-0.0998000544435085
181	0x3fd1dfc7f0927c7d	0.2792835091913231
182	0x3f966cc35c23b1d0	0.021899273394341112
183	0xbfc5fa32e4fd0188	-0.17169796162671624
184	0x3fac26d41121d874	0.05498373707898532
185	0x3fabd58d8bf09b98	0.0543636544537584
186	0xbfe6a8052b596c34	-0.708010277430168
187	0xbfb58c936166d9e3	-0.08417626502964697
188	0x3f93bef54ef23cf2	0.019283135360237354
189	0x3f8a363a60e7ca40	0.012798744280165697
190	0xbfa7b7f6c2d5b7ac	-0.04632540825228601
191	0x3f97691d26b14da4	0.02286191509877046
192	0x3f982f2dd455d009	0.023617473683273747
193	0xbfe1697bbedbccfa	-0.5441263892847978
194	0x3f880f3ff79546a0	0.01174783682168662
195	0x3f9ddf8b9bd5e2fd	0.02917307032245996
196	0x3f8c7b4cad912623	0.0139070501774255
197	0x3fa1d81fa42ee420	0.03485201720418041
198	0xbfd503e348b5c09c	-0.32836229420264273
199	0xbfd8052cca30d638	-0.37531585450355776
200	0xbfcde5525bb158a6	-0.23356084325013632
201	0x3fa0dbd55abc5596	0.03292719586003583
202	0xbfa26d092a9ef8c2	-0.03598812718654322
203	0x3f94f89edb5c8b40	0.020479662073863425
204	0x3fd3ecd6987d8b54	0.3113304604686864
205	0xbfd899f2bafe2980	-0.3843962503530278
206	0x3f9a5d6d96ca622e	0.025747024849439075
207	0x3fa9f78295cdfb01	0.05071647719068118
208	0xbf9cda2b66266a7c	-0.028176000699753775
209	0x3fab31cb3db683bd	0.053114272387808616
210	0xbfc309eddf659c81	-0.14874051483204556
211	0xbfccbc6ebba5fd4c	-0.22450050508994435
212	0x3f93fa092007cbc0	0.019508497791274726
213	0xbfbf8734c276331e	-0.12315683124161267
214	0x3f9fec28dc686d13	0.031174314930564394
215	0x3fa3e2738ab43a41	0.0388370615784095
216	0xbfb59efc4702a409	-0.08445717557573586
217	0x3fc2738c27fbdfb9	0.1441512294038583
218	0x3f96c19f41f50da0	0.022222984696112058
219	0xbfcd35547bd59bd3	-0.22819000288583755
220	0xbf9fdcdd36947e96	-0.031115967232038765
221	0x3fa7bd9fef8d7a2c	0.04636859702326421
222	0xbfc376c431f3c78d	-0.15206196250033735
223	0xbfb8042eeb237c2a	-0.09381383171738436
224	0x3f971372840c02b0	0.022535123166565085
225	0xbfc3b39d9e559b8e	-0.15391893607303725
226	0xbf9a6142cccc9975	-0.025761646032287772
227	0x3f9d9ee7a73cb2a9	0.028926486570685004
228	0xbfc3474e73c721b6	-0.15061360028472642
229	0x3fb0cc7a32b77b1f	0.06562007654381972
230	0x3f99977cdbbec75c	0.024991942321953217
231	0x3faf27f7dafc4cd4	0.060851808053621476
232	0x3fa2cac6c8755562	0.03670331189156674
233	0x3fad606df02e13f1	0.0573763232887713
234	0xbfc0571bb2908b34	-0.12765833109832558
235	0x3fb3356964786bfe	0.07503374770060131
236	0x3f960040205396fc	0.02148533055596767
237	0xbfbe793be3febb6d	-0.11903738323483788
238	0x3fb0f2c85896aaf9	0.06620456850820834
239	0x3faa26e637c93373	0.05107802802067498
240	0x3fd4913b6f89ff55	0.32136426823125436
241	0xbfe5d21ee2434a8f	-0.6818994921871581
242	0x3f94aae2c16104a0	0.02018312745372397
243	0x3faa0a33c031b7f6	0.050859086238105464
244	0x3fb07c82c1f6b21f	0.06439988360825354
245	0x3fa4f5389ae698fa	0.040933388623033154
246	0xbfbdfd3b3a0fa4db	-0.11714525382525968
247	0x3fc14537e89e402b	0.13492487772282521
248	0x3f9c5f39f45a6130	0.027707009829641638
249	0x3fa3737f20d86853	0.03799054408973803
250	0x3fa7f547f3c1c3f6	0.046793221002083316
251	0x3fa801975ab07563	0.04688714010283481
252	0x3fb385f992dc6f51	0.07626304469561986
253	0x3fa07c527ec0a2c1	0.03219850346824194
254	0x3f9e8ba752e791f0	0.02982961123952238
255	0x3fa3e3238bcfb278	0.03884230691605678

times f8 [3]
0	0x40b38709c78c0000	4999.038201093674
1	0x40b38c2c16980000	5004.172219753265
2	0x40b382d26e240000	4994.821993112564
