package_metadata/openml/abalone/ground_truth/shap_kernel_3_xgboost.npz (npz, 192691 bytes, 2 tensors)

exp_values f8 [3, 1045, 8]
00000000: beea 5626 61d6 df3f 8094 926d 0808 c9bf
00000010: 0223 317d f384 be3f 60ee b059 82ed ba3f
00000020: 7b2d 6dca 7f14 ec3f 4b39 a340 ae7f e03f
00000030: 8b3b 4386 70e9 d13f b6dd 9d43 3b5e bd3f
00000040: 402a e997 047d 973f baf9 a795 1093 b3bf
00000050: 8466 6b4a d1cd b93f 90c0 5d84 5c87 d9bf
00000060: c0bb 989d 960d b0bf ef59 a67e 117a a5bf
00000070: a008 30fe 3222 debf 23d7 57ad 33df a03f
00000080: bff2 72e4 b75d 933f c8ba faad 1413 d23f
00000090: bfb8 def7 9d6f c0bf 60c1 b429 1b0f e53f
000000a0: 1318 2f9f 0784 f2bf cc87 8df2 ea83 c83f
000000b0: fcce 6ace de55 ed3f 6037 5957 f7b2 913f
000000c0: 73a1 4f8f 5958 b63f 916b 3234 5b9c c03f
000000d0: 8907 44bf 3e6a b33f 9b03 25d0 0c0b e53f
000000e0: 87ee 5bd1 f79b d6bf 7b8a cb18 b728 c5bf
000000f0: aff8 ede4 fe96 d03f 0020 1b8b 0a7a 3cbf
00000100: c5de 31fd 5da3 c93f b84f a4cd ca6f d33f
00000110: 70c7 f267 ec81 b8bf b97f d4d7 9f37 e53f
00000120: bd8c 001c 2979 ebbf b1b5 1dc0 1178 b03f
00000130: 41f1 24c1 2997 ac3f c02d 5bf0 7757 8cbf
00000140: 8dec 3a61 d894 c8bf d20b 62ff 4ab6 cbbf
00000150: e084 dcd4 9c0f 9dbf a6cb f096 f4cb e1bf
00000160: 0bf1 0ea2 a06d eb3f b77f 996a 246f c2bf
00000170: 0500 355d 1e8f d5bf 4084 32ce c782 bfbf
00000180: b369 2060 a3e2 e0bf e142 f41f 5719 bc3f
00000190: 923f f820 7b20 b7bf 780d 5774 5b31 e73f
000001a0: e6f7 292e 7f30 f2bf 5ba7 4817 36c4 a1bf
000001b0: bee1 4efc 9c74 f03f a0a8 accb 5edf 903f
000001c0: 2031 e0df 38d6 a5bf b7b3 184b a4ab c13f
000001d0: 00f0 9ede 23bb 4fbf 37ac ffda cb1b e2bf
000001e0: e8a8 2d77 6a93 f23f 3d0f d4ed d8e6 9b3f
000001f0: 0025 877d 2151 a2bf aecc 67a8 2e6e a33f
00000200: 0708 9031 fd07 cbbf 0372 da08 e02e debf
00000210: ae4f 46dd 79be cfbf 45e6 933a 60f4 e9bf
00000220: e028 6ba8 82bb ea3f 4c6d b393 9fbf dabf
00000230: 6ae2 7949 6011 eabf 00e0 0f30 52a0 5abf
00000240: 5eed 4e51 782f 983f 7da4 0d21 3ef1 a5bf
00000250: 6cd7 e755 2499 9bbf 4272 7ae5 372c e1bf
00000260: 0dda 5d4d 0cd2 e73f 250e ae9a d512 c03f
00000270: 44e5 cab6 7170 c4bf 6048 4854 de16 953f
00000280: 60b6 1cda 86c7 703f 7d6d 3f1f 7373 b53f
00000290: 59fe 0f38 e23b c43f d126 939b c256 d9bf
000002a0: 603f 5444 d32f d93f 4697 5f15 21ea c63f
000002b0: acea 75d3 890c debf 810c 4d65 dc66 acbf
000002c0: 4365 4f22 ef76 ba3f 5900 4250 6b30 b23f
000002d0: 1e22 dd5b 519e b53f 9d14 18dc abee e6bf
000002e0: b3c3 cfa5 0b58 e33f 8c0e 00ba 05a3 8f3f
000002f0: 2548 984e 2ce4 b8bf 4e49 1a15 fc49 a9bf
00000300: f90c a8e0 29da bebf 8355 34c3 778b b5bf
00000310: 8b13 f160 4411 b83f 76ff 7476 2068 c6bf
00000320: 69e2 9b85 d444 c3bf 3839 4195 d350 b3bf
00000330: 5d8f 1c09 72a2 dcbf 8013 8e0f ec74 79bf
00000340: 14cd ff20 cc35 b53f 9b53 8d97 d3af c23f
00000350: 56ae c7b9 1445 97bf 86e9 413a 54eb e33f
00000360: 7c89 8086 5c1f d7bf 8090 9ae8 c69f 863f
00000370: e901 e7b8 9f2c a1bf edaa 887f b38e 883f
00000380: 4b37 20d5 bf39 c03f a052 8920 1fa9 99bf
00000390: d22f 3e87 2f88 b43f 96f4 b89c 4f6a e63f
000003a0: 5084 7c74 bfca e1bf 16a6 e18d d87c a43f
000003b0: 485f 5f1a f311 cf3f ea37 5723 9a14 b03f
000003c0: 3c71 833a 26f0 d03f e3a9 6740 0929 b5bf
000003d0: ef19 e9c9 124b 923f 8a22 12e7 d5ed db3f
000003e0: 36fb e3e3 9316 e3bf 208a 6d40 e2c1 97bf
000003f0: 5135 9599 0088 b53f a6b0 8327 bb71 b13f
00000400: 148d 15d7 f253 b2bf 0b8b e21b a55f b1bf
00000410: dc59 a672 e856 c23f b926 673b ef5a debf
00000420: 9d47 ef49 cbdc d13f 3858 9683 a1df b4bf
00000430: cb8a f30d e5ca d9bf 5606 ca26 f5fd b4bf
00000440: ef6b 4b8d 850a d23f 4464 6f61 1fbc 94bf
00000450: 0413 3f8e ea10 b03f a7fe 2a94 0f1a c73f
00000460: ea8f a9cc ad0d b9bf 2985 6bad f283 c63f
00000470: 4e84 8651 7a25 c3bf 8035 0c44 a379 7fbf
00000480: ff5d 987f 7a21 d23f 314e 7a49 410f c1bf
00000490: be8a b3ad 2429 c03f 173e 37ac 5008 e23f
000004a0: 6673 4fa2 52d2 e0bf b08f 0f34 48f1 afbf
000004b0: 810a 3d72 958a b23f 5218 feb7 fb9a ae3f
000004c0: 8a9a c1ae 7510 b63f 0010 fda3 c4aa 81bf
000004d0: f900 af31 f577 a2bf 06fa fcaf 22cf e53f
000004e0: 6cb7 3c89 d6bd db3f 480f 61e9 8cea 773f
000004f0: 51eb 5714 1348 e33f f8ef 4f35 1968 94bf
00000500: ceda 1c76 e3d8 c9bf 0d63 1dc8 d5a1 c0bf
00000510: c0a1 e833 2447 b5bf dcc1 fcc8 9dbc e7bf
00000520: 9507 9b26 459a ea3f c8b7 14f0 f8d5 a73f
00000530: 4b47 17a8 c747 d1bf 6446 0436 d79e bd3f
00000540: 908d eaa0 85f6 abbf 7195 3b1f 2f46 a53f
00000550: 2548 43e0 c816 9d3f 155d f0a1 997f 983f
00000560: c17c 9f96 0e1a d53f 2541 b703 5b1e c53f
00000570: c763 b035 203c c53f 57eb 431d 04dc b83f
00000580: b16c 2800 65a5 c33f 50d3 b443 b30e c23f
00000590: 7b16 e6ae 8682 dabf e6f3 a444 2986 f03f
000005a0: f6ad 64af 1796 e1bf 84b5 62ff b522 cd3f
000005b0: b453 4217 c6bf e33f 00a0 7527 4803 9ebf
000005c0: ea95 6770 b3e5 df3f 64ca 3a66 8dea b43f
000005d0: 808f 830f fcc0 933f cd17 7eba c46c e7bf
000005e0: 7ba9 af70 8746 f33f 8b1e 3924 4bf1 d63f
000005f0: 64af 1839 28b0 d03f 49bf 1d39 201b c53f
00000600: 2772 f2e2 d5ff b83f e00a 345d f2d1 75bf
00000610: 23e2 1818 db11 a73f f616 0c69 d420 e2bf
00000620: c8af 58ce 79b7 dc3f 795c 2d2d ce2c b93f
00000630: 63b6 f6b4 9e0b cabf 3c04 2713 49dc b1bf
00000640: 5908 aafc 928b bcbf 8b67 392d ff64 b4bf
00000650: 4006 739b c72f aa3f 2e10 89e3 7485 e43f
00000660: d043 28cd 1b83 eabf efa0 f0be 5cd0 bb3f
00000670: 9b6f d381 a811 f73f 93f6 7ad1 23c0 adbf
00000680: 5008 c2e3 818c a0bf 51b9 34c0 c318 cf3f
00000690: bfed 0358 4504 c7bf 9bb4 eb77 efda ed3f
000006a0: 3886 d23d 53d5 edbf b70d 5e76 92ac c23f
000006b0: 362f 19bf 7b16 c23f 76ea f1cf 3a4d b6bf
000006c0: fd5e 2287 e4df c1bf 93b5 21b7 f1d1 c7bf
000006d0: f11e daef 0eb0 babf 800f 5c59 81c0 e8bf
000006e0: 3afe cbc7 89ca e83f fabb 5f7b 50a1 b5bf
000006f0: ddfb a6f1 92e7 e2bf e0fa 7d68 7d95 afbf
00000700: 1e58 3644 07be bfbf 8ced fa6e d1b8 d7bf
00000710: 0058 7191 3d01 8abf ec11 7574 5d77 ebbf
00000720: f81f 122e a116 ef3f 2f4a 4ddb 6f83 c3bf
00000730: 3c39 b0f4 cb42 e8bf ff1a aaa1 53c1 8bbf
00000740: 40c9 00d5 747f 8b3f c4ed 45db a9dd b8bf
00000750: 105f fcb0 91a8 a8bf 79a1 8948 0799 c03f
00000760: 17fb 5e33 a5ae c7bf 0aff 23a3 e336 b0bf
00000770: 51e5 a26a 0362 c4bf fe2c fe62 9c3d a23f
00000780: 4ddd b382 c36e b83f 0354 1a4a 0eea a23f
00000790: f4a4 4248 5c87 92bf 2752 846c 69f4 ebbf
000007a0: 078e 5dd3 bc2c ee3f 1b4b 6b93 eb6c 933f
000007b0: 9cd0 0364 fcfd dbbf 09c8 00c9 49e4 b83f
000007c0: 4964 4e7c 59a8 cf3f c0f0 f955 ee97 89bf
000007d0: 1a17 666a a1a0 933f 5013 bb4c 7bbc e9bf
000007e0: 1faf 66b8 cc82 d93f 11db 9723 f0a7 b13f
000007f0: 01e0 09d6 e39c d3bf dbf7 6205 af78 b3bf
0.49745968574613275 -0.19555764532302433 0.11921617323345049 0.10518660249447853 0.877502341617784 0.5155860197499263 0.2798730193289251 0.11471910858914822
0.02293784310522029 -0.07646278051104263 0.10079677645571833 -0.3988868038786757 -0.06270734164785008 -0.041946932516271455 -0.4708373529721346 0.03295289507870638
0.018912194555684488 0.28241459837128646 -0.12840628245380079 0.658094006974391 -1.1572338312266808 0.1915258106556038 0.9167322188936562 0.01728426428444807
0.08728561161809072 0.12977161453894984 0.07583992166112642 0.6575988831829024 -0.35326953358865193 -0.1653050299710975 0.2592160449638738 -0.0004345203152351651
0.20029806960132227 0.3036982544156177 -0.09573247468759205 0.6630400863104945 -0.8585401102940505 0.06433211269696561 0.055840782954393216 -0.01383870794543085
-0.19204239604537002 -0.21650063962814997 -0.028379869930294954 -0.5561469028528918 0.8571322598650409 -0.14401679234560813 -0.33686026670693564 -0.12308930191149248
-0.5276657941315562 0.10976166277056222 -0.0903393702976685 0.7247750541941249 -1.1368400386122572 -0.03470009836412543 1.028470025614396 0.016477090054799803
-0.04265001042230865 0.13805059115239057 -0.0009683537621110183 -0.5658931042975216 1.160990205326522 0.02724780036534401 -0.03577522904704189 0.03794999891024396
-0.21118130607652594 -0.47161103119449893 -0.24800036720682556 -0.8110810417267166 0.8353894509721407 -0.417945760954997 -0.8146211085396093 -0.0016251375784559485
0.023618583643594142 -0.04285616067392881 -0.026951377623809433 -0.5366477472303546 0.7443906317774364 0.12557478001336722 -0.15968152451913842 0.020595048803507487
0.0040965335518144685 0.08379287255177377 0.15807750451493766 -0.39592042153217927 0.39354402230036634 0.17902005714057107 -0.46951528215837857 -0.055472266546098055
0.10337729060792804 0.07105131825847034 0.08444698803680992 -0.7166346834861944 0.6044977415568752 0.015447659243370347 -0.09723164480990983 -0.049392583442698354
-0.12051641211296617 -0.08415936008198881 0.09401347510090667 -0.17505269798311546 -0.15053802989838808 -0.07545206445613395 -0.44741488351632147 -0.006215021240568386
0.08285213285107701 0.14599079990389616 -0.022724460448371474 0.6224766862717821 -0.3612891496178674 0.011046937917235988 -0.03354357845410389 0.011990930871510009
0.12676237017188394 -0.025059210167756363 0.0802030282194999 0.7004774151788691 -0.5559994959950334 0.0400149987406843 0.24273527896616032 0.06281436312494262
0.26465755190089957 -0.08265741178880819 0.017864507268564308 0.4363913303900878 -0.596506066416487 -0.023200545484892143 0.08410648107129261 0.06814164843280199
-0.07159345389441213 -0.0678656762197926 0.14327722166190326 -0.4743002014261993 0.2791012022036002 -0.08153733694629828 -0.40300871241030894 -0.08200008580208737
0.28189219282438577 -0.02024888069340515 0.06275812123119456 0.18048281416667075 -0.09786497351302584 0.17590173213742702 -0.14958123188719913 -0.0076843621798280415
0.2832933660551759 -0.13327804649144206 0.12625559312353646 0.5635150302495643 -0.5256741685985673 -0.06238771090991635 0.0724271205809064 0.059776178560284735
0.08618865505705223 -0.008626495604069362 -0.03607145530213702 0.6815350949544274 0.43346179391925577 0.0058389191017943 0.6025481602986053 -0.01992835414783653
-0.20193141238424633 -0.12993881484251127 -0.08311678187658966 -0.7417744565519189 0.8313318017974206 0.046554354960207045 -0.2700060979378704 0.11570496624724452
-0.0546151884966789 0.04155108696231025 0.028407229125896678 0.023924255856482796 0.3297153922012051 0.16498887711942092 0.16589739438566495 0.09710717882619001
0.1534849406024015 0.1410736160848054 -0.4142166812892822 1.032754200117091 -0.5495718408250798 0.22762179346083766 0.6171598867682548 -0.029309394272246436
0.49839483239187976 0.08170398469773371 0.01929086537064917 -0.7320274012024527 1.2047190095714473 0.35847738778509414 0.26075177741835476 0.16489031590344386
0.09765373984050339 -0.005327173933667523 0.045058104220917515 -0.5665075351432438 0.4486984744169118 0.09833992579420849 -0.20347961269492307 -0.06976753919208617
-0.11150473278579066 -0.07966608862025575 0.05114578030180583 0.6412910884905665 -0.8285044676759927 0.10864810620899211 1.441811091549403 -0.05810653621800301
-0.03232198624847682 0.24294325718933377 -0.17981783673881854 0.9329755155755665 -0.9322906691997508 0.14589148311288877 0.1413111384484808 -0.0871159322431739
-0.13964516256668694 -0.18609448854423913 -0.10424893718493046 -0.7734991784386551 0.7747239019663035 -0.08449271213588352 -0.590768310525046 -0.061687392239937244
-0.12399335303629797 -0.3706554015913859 -0.012697678566990334 -0.8583209299618466 0.9715124034710234 -0.15244863708592635 -0.7581538943357269 -0.013552335139377812
0.013426697492921691 -0.09713231662129035 -0.048161080221858055 0.12967005769611342 -0.18501725204802064 -0.06333754284787232 -0.15924112994052078 0.03562630375298602
0.09544012013417565 0.03694195417953241 -0.018094484243793965 -0.8735854262800488 0.9429611328345694 0.0189701851584899 -0.4373770691593195 0.09723340184498865
0.2473251206363634 -0.012496816633977281 0.0191674443426769 -0.8042580126426433 0.3986083794395529 0.0689687811753681 -0.3064508047314121 -0.07606023675449995

times f8 [3]
00000000: 0000 40ea 64a1 9340 0000 30cd 32af 9340
00000010: 0000 00fa 03a5 9340
1256.3485498428345 1259.7996108531952 1257.2538833618164
