package_metadata/openml/abalone/ground_truth/shap_kernel_3_ann.npz (npz, 192757 bytes, 2 tensors)

exp_values f8 [3, 1045, 8]
0	0x3fbd96e0009c577e	0.1155834199419967
1	0x3f964430a0300dfd	0.02174449899395191
2	0x3fb081ff0ae0f5ff	0.06448358550638743
3	0xbf8e0889caba1780	-0.014664722918734219
4	0x3fea0e8bb234639d	0.8142755966720078
5	0x3fb8f942b4ba64a6	0.09755341446215712
6	0x3fe3744520da662a	0.6079431192076232
7	0x3fbafef3b9886c60	0.1054527595483008
8	0x3fc0adc3c4d00df5	0.13030287847514868
9	0x3f2ae2f7e5dc1000	0.00020512844178466327
10	0xbfb04dd89810515b	-0.06368783676618277
11	0xbfe1b587d35e9c3f	-0.5534094932853647
12	0x3fc3ced003cfa303	0.1547489184006495
13	0x3fb2f9faf0064b4b	0.07412689552283529
14	0xbfda996512ab67b4	-0.4156124765701137
15	0xbf99cf99fa6a6f38	-0.025205999287762654
16	0xbfd0cd89f0b39b0c	-0.2625450945474064
17	0x3fc9d20a67a56611	0.20172243176311658
18	0x3fc11c7529088d9a	0.13368095878204828
19	0x3ffabbbd534f3dbf	1.6708348516730067
20	0xbffa3419c2b85888	-1.6377198797468129
21	0xbfd04f6366c4e6b1	-0.25484547649430583
22	0x3fe6b8e6df2509dd	0.7100710256857458
23	0x3f867121d6d55480	0.01095797001714005
24	0xbfbac53ea5df1f46	-0.1045722155532732
25	0x3fc261b9e0a54ece	0.14360736340551344
26	0x3fb82b479d1bc1dd	0.0944103964391227
27	0x3fea3bd8b6d9671b	0.8198054858469023
28	0xbfdce21f89bccd82	-0.45130146456650533
29	0xbfbc350d2e3dd39e	-0.11018450144713518
30	0x3fe31cb339e75b6f	0.5972534304554368
31	0x3fa7ace82f1dc4f0	0.046241050483226576
32	0xbfca13a46b979627	-0.20372443440935337
33	0x3fc3eef4071677bd	0.15572977396089796
34	0x3fa327ea173795f4	0.03741389783298735
35	0x3ff32ffaa70e30fa	1.1992136502840922
36	0xbff4a4094bc7e4ec	-1.2900479278744639
37	0xbfc51ee72778ecb8	-0.16500558307038715
38	0x3fe068753cd70aac	0.5127512157708529
39	0x3f999f09c8998978	0.02502074515212757
40	0x3fcca7917116300a	0.22386377355394443
41	0xbfc22fe35cb0b764	-0.14208642984288666
42	0xbfc1760a7a6124c5	-0.1364148232990258
43	0xbff5ad30448b54df	-1.3547823598394684
44	0x3ff21b50f7b164cb	1.1316690135484346
45	0x3fc2a6e315b4d0e8	0.14571798858526752
46	0xbfe569c5e92749a7	-0.6691617540148415
47	0xbfc358afa3d6e6e5	-0.15114398479436555
48	0xbfd820f262d893d2	-0.37701091435365897
49	0x3fd002589c147fa8	0.25014319650835626
50	0x3faeb20ad5ac6295	0.05995210512464159
51	0x3ffd1a527639e55b	1.818926297970697
52	0xbffb2ad62f204fc6	-1.6979581681125508
53	0xbfd34b4d053cf02e	-0.3014709998276456
54	0x3fe87ad7b05f676f	0.7649954266337157
55	0x3f85b1968c23c500	0.01059262862370014
56	0x3fd03f078b9f5947	0.2538470138073489
57	0xbfb55717204a6f7d	-0.08336014307354662
58	0x3f9b0f1fe9995710	0.026424883492231876
59	0xbff165e8ff6c3fe6	-1.0873804070906714
60	0x3ff663b934e507a0	1.3993465486714527
61	0x3fc81b092a199cde	0.18832506709734437
62	0xbfdb9191d8ce62e9	-0.4307598702667251
63	0x3fb63a962fcbb839	0.08683146159066348
64	0xbfb08d5894d57320	-0.06465676911961937
65	0xbfe860b802d4292b	-0.7618064933060728
66	0xbfc711df3010148d	-0.18023290488068647
67	0xbff8d1900496f8e8	-1.5511627368246597
68	0x3ff6768b99f50e76	1.4039417280154374
69	0x3fc538b64b053715	0.16579321539978112
70	0xbfeac24930795242	-0.8362165400272448
71	0xbfbbbb3e5b9f221b	-0.10832586037498297
72	0x3fcdc35483ca6632	0.2325235026844879
73	0xbf8dc1ff4014c1a0	-0.0145301762991899
74	0x3fa07ca6352a3c98	0.03220099829661044
75	0xbfe6aa3143b9e8ef	-0.7082754442956495
76	0x3febf80ceca70ea7	0.874029600345655
77	0x3fb801f71a616d07	0.09377998727852709
78	0xbfd0e209bb8feddc	-0.2637962657606445
79	0x3fb41624d338f780	0.07846288830566372
80	0x3fcb7f8110033958	0.21482861787667207
81	0xbf85b4ef54525625	-0.01059901214675125
82	0x3f70591ed2ef0980	0.003991241842358995
83	0xbfe9849b31f8da3a	-0.7974372840897737
84	0x3fe343c79d49d63a	0.6020238945045044
85	0x3fadf5ba6d286812	0.0585153825997652
86	0xbfe2d6fd77edf8d4	-0.5887439100622722
87	0xbfb295a8f36c389b	-0.0725961298269077
88	0x3fbd6b65673649e9	0.1149199845297414
89	0x3f810aa9c589dc00	0.008321119633576401
90	0xbfb80c1ec4b49772	-0.0939349394071465
91	0xbfe715ab811a2b9e	-0.7213952561881916
92	0x3fe395f0bcfd231e	0.6120532694995722
93	0x3fb59c9971fae40c	0.08442076714244723
94	0xbfd31825c5b07648	-0.2983488493499391
95	0xbfc14581ca4c43c6	-0.13493368509128184
96	0x3fc18ae2a79cbb04	0.13705094513121463
97	0xbfb773b7510fda91	-0.09160943726588246
98	0xbf9e76f090812973	-0.029750593967301463
99	0xbfe14b51ea63e022	-0.5404443338329694
100	0x3f9caa444cda9d80	0.02799326628760701
101	0x3fb96f7fc595e2c0	0.09935759137978106
102	0xbfe0e067627d0b89	-0.5273930476763421
103	0x3fa1aad36a395f07	0.03450642272644982
104	0xbfd26435e0e2495b	-0.28736636124917475
105	0x3fc3a856e384e129	0.15357481107072005
106	0x3f9e2b16ac550ff0	0.029461244839026735
107	0x3febfbc70eb86526	0.8744845664506655
108	0xbfe61bd49033aba9	-0.6908972565118933
109	0xbfc442c53a341d49	-0.1582876714894417
110	0x3fe06976ba8e48a6	0.5128739970844165
111	0x3fa68d867c4aebcf	0.04404850260967629
112	0xbfc8494696ce06d6	-0.18973619807734704
113	0x3f89912ae4b34800	0.012483916382198146
114	0x3fc4614c382bf972	0.1592192911411519
115	0x3fe9b66d8efe38da	0.8035190384705644
116	0xbfe3c73c8fdc395a	-0.6180708703775892
117	0xbfb0e6765820bf7b	-0.06601657535133924
118	0x3fd5998e279e2d70	0.3374972712415092
119	0x3fb3a7c32230ecd4	0.07677859863990771
120	0xbf90c58e56ed7093	-0.016378616386064037
121	0x3f9a717acf019451	0.02582351578202619
122	0x3f72dfc8d8038750	0.004607948824032551
123	0x3fd1bd4764908843	0.277177665908429
124	0xbfdfb11ca033544f	-0.4951850475748118
125	0xbfad6215b8ab2a75	-0.057388953011089074
126	0x3fc3ce12d01d1d5d	0.154726363771469
127	0x3f9943178031da79	0.024669997405420283
128	0x3fc3ec89f07fce14	0.15565609210135334
129	0xbf600a63f6e7a900	-0.001958079569921556
130	0xbfbcfe8e7a0fe723	-0.11325922470123521
131	0xbfe673774381fc1b	-0.701594955302315
132	0x3fe231148800eca3	0.56849123538213
133	0x3fb536d247c56cee	0.08286775829531098
134	0xbfde55fcd2cebf31	-0.4739982660930649
135	0xbfbe871e66cf3ed4	-0.11924924859999503
136	0x3fbf306fbec9ea8b	0.12183283241203406
137	0xbf920d4258edad98	-0.017628704717407823
138	0x3f8de12554e811e9	0.014589587834969957
139	0xbfc9c4befc850b90	-0.2013167126661668
140	0x3fc972e27a87c8c8	0.19881850226335573
141	0x3fb73832953311bb	0.0907012571579519
142	0xbfc2a0bd8397c387	-0.14553040433341044
143	0x3fab97a0c76d4da6	0.05389120516215522
144	0xbf83763e8d78aa92	-0.009502876942027148
145	0x3fad59b6a57b5f3f	0.05732508440058703
146	0x3fad51fcad45e5c3	0.05726613631390933
147	0x3fdd5982d7ff5e1e	0.4585883244849088
148	0xbfe2b54a82bd4cc9	-0.5846302560334148
149	0xbfb64b49c5815f75	-0.08708630630405685
150	0x3fbf683d4e9eb16e	0.12268431825095202
151	0x3f72c1376093bfa4	0.004578796689415219
152	0xbfa45e94fdf56f60	-0.039784103394338244
153	0x3fbdedc90b913125	0.11690956623460076
154	0x3fc5a24d7ee4a330	0.1690155858607567
155	0x3fef80cc7c2445ac	0.9844725060121866
156	0xbfbc8282428e8afb	-0.11136640667841029
157	0xbfb20a181360fb04	-0.07046652291408512
158	0x3fead593fd9066ae	0.8385715439246348
159	0x3fa64abffdab2142	0.04353904696978585
160	0x3fcc36bb682f30f6	0.22042028987051027
161	0xbfc81adfba45d783	-0.18832012744286084
162	0xbfb0bf23ec9a2f80	-0.06541656996176748
163	0xbff4c56bdc90e217	-1.2981985679490486
164	0x3ff3b609553c411f	1.2319424943453396
165	0x3fc51d01212384e1	0.16494764440634582
166	0xbfe81a105049b887	-0.7531816070675327
167	0x3fb50d1d470373ea	0.08223135932662698
168	0x3fa768fb0439bd5d	0.045722812906087575
169	0x3f97505a77c377e0	0.022767461356913432
170	0x3fa0343286d1dee9	0.031648234326835674
171	0xbfc43a3a0193197d	-0.15802693440327778
172	0x3fd745ada6f5f853	0.36362782768981566
173	0x3fb7821fa7f99dfa	0.09182927943185595
174	0x3fd03101a06fec7b	0.2529911104936173
175	0x3fbeb680db0982fb	0.119972280002468
176	0xbfccbe62db6055d6	-0.22456012450918078
177	0x3fca50a629b7dc4f	0.20558621441861866
178	0x3fc869f2bf9cd096	0.1907332835777466
179	0x3ff90ab6b8494b5e	1.5651156614955748
180	0xbfee377f134cf5f3	-0.9442744614568127
181	0xbfc7de8724dcbeaf	-0.18647851276317826
182	0x3fe9a8828772e431	0.8018200536236063
183	0x3fa101cc11efa9a0	0.03321683615634474
184	0x3fd121223ba2b5ab	0.2676473219279056
185	0x3fb0f523e152b70f	0.06624054194500338
186	0x3f93739948042df0	0.018995661755111415
187	0xbfeee87f5ba9fe24	-0.9658810415566603
188	0x3ff2b23fc4171a48	1.16851784322502
189	0x3fca93d2be0c1a11	0.20763620643283834
190	0xbfc2c9050f5bb6d0	-0.14675963640131906
191	0xbfc23b6e313af2e5	-0.14243867305585592
192	0x3fc2583652374733	0.14331702246141162
193	0x3f8f2a8d224068d0	0.01521787892129503
194	0xbfb51f4e712d4885	-0.08250894797427762
195	0xbfe057c8ec808982	-0.5107159251386266
196	0x3fe07967eca8b09a	0.5148200628514303
197	0x3facde58113d9787	0.05638385019737684
198	0xbfc931d50bb6d13e	-0.1968332583616163
199	0xbfbe99cdc91087af	-0.11953436049273479
200	0xbfd27f60d5a4c845	-0.28902455199852667
201	0x3fc687c01c4ebcd4	0.17601777441220767
202	0x3fb336268e2dd140	0.07504502268949853
203	0x3ff4c3c402c4c244	1.2977943523548143
204	0xbff41c7a800e7356	-1.2569527628140427
205	0xbfbd343ece5af316	-0.1140784505650568
206	0x3ff01510c36e405c	1.0051429399500398
207	0x3f98f4dbf31407c0	0.02437156363612991
208	0xbfc9f62c492b08ae	-0.20282510349904243
209	0x3fc5bd7359bad065	0.16984407311759067
210	0x3fa6f5deafa0e216	0.044844588221568824
211	0x3ff9c69bdf8dc7a2	1.6109884960719474
212	0xbffd5692ebe37474	-1.8336362089533198
213	0xbfc85063144cf34d	-0.18995321742286322
214	0x3fe14ff022852a0b	0.5410080599043011
215	0xbf46b70f1cb7e300	-0.0006932090558953996
216	0x3fcb8276afe87b59	0.21491893376602425
217	0xbfc1788306a4462a	-0.13649022888471168
218	0xbfbc77fbf6d0489a	-0.11120581413004729
219	0xbff805fb46eab113	-1.5014603395639525
220	0x3ff25d60533ad500	1.1477969409145885
221	0x3fc1bb1122530a30	0.13852132965082964
222	0xbfe8db04330e4ec7	-0.7767354008851378
223	0xbfc2c2ede60168ba	-0.14657376986253273
224	0x3fa0e0e328180f20	0.032965754169735684
225	0xbfdfdcc5b2e20b01	-0.4978498694328409
226	0xbfc26920e3823b4c	-0.1438332663423928
227	0xbff93db396b3e1e2	-1.5775638472388143
228	0x3ff62d08aba6d251	1.3859945969717453
229	0x3fc81ac4a0a4b1cc	0.1883168968573855
230	0xbfebbc9618eca11c	-0.866770790748919
231	0xbfbb62b3c9a7995f	-0.10697482751092967
232	0x3fa591331484259f	0.04212340951387294
233	0x3fa2593d30309369	0.03583708966497207
234	0x3f90bf138e0f32a0	0.016353898568740477
235	0x3fc571a3b56b7b46	0.16753050192252256
236	0xbfb5728f5502cd5d	-0.08377929521048118
237	0x3f97f0e636f8a3f6	0.023379895310572572
238	0x3fd0054a7dffa28a	0.25032293610141976
239	0x3fb2628f5f7c27cf	0.0718164070241578
240	0x3fce790fc2eda792	0.23806950586304915
241	0xbfc94c473f449740	-0.19764032925848518
242	0x3f8ba3e749d669b0	0.013496214810221868
243	0xbff30b658b2991a0	-1.1902823864012149
244	0x3ff47cb648f26bfa	1.2804472779741887
245	0x3fc2d3ee6bda43a4	0.14709263101806613
246	0xbfe4f1b19f851526	-0.6545036426183841
247	0x3fbe9e145844bbc5	0.11959960131637988
248	0x3fb8f2d25ff1d54b	0.09745516626738497
249	0x3f93e6384a156c80	0.019432906648358728
250	0xbfa0236d4bef6a84	-0.03152028610175697
251	0xbfe45a3badc0e7dd	-0.6360147851585186
252	0x3fe1500061e7435d	0.5410158073592403
253	0x3fb9f8da4b6acd5f	0.10145344105949537
254	0xbfc608909b3654ba	-0.1721363790390223
255	0xbfc019cf00e2a6e1	-0.12578761618833936

times f8 [3]
0	0x4089718b56200000	814.193035364151
1	0x4089af8fdb800000	821.9452428817749
2	0x40894adc27e00000	809.3574979305267
