package_metadata/openml/jungle_chess_2pcs_raw_endgame_complete/ground_truth/shap_kernel_3_xgboost.npz (npz, 564610 bytes, 2 tensors)

exp_values f8 [3, 4096, 6]
00000000: c524 34cb 6714 ce3f 16ca 0083 ab9d afbf
00000010: 1390 f12f 8bff d23f 92d3 f412 b481 cf3f
00000020: e613 bf5b 3a1e b0bf 70b3 a139 b4ed a4bf
00000030: 11ea a0eb df54 b43f e741 c2dc 7b98 b43f
00000040: a4cc 140d 8f08 c03f 3454 9170 18d2 b83f
00000050: 2050 22fb 6810 983f 9667 efa7 297d cdbf
00000060: 843b 938b fa56 cb3f 5ddc 07ed c8e5 bd3f
00000070: 0eab 51ad ccbc bc3f ab99 c9a4 abd3 c83f
00000080: 005a 93f2 0455 7cbf 060b 8402 cd4a d13f
00000090: 09b5 ae20 fb1b c53f ff25 1ff9 333f c1bf
000000a0: e744 ab69 ff43 c33f a021 3e22 0b28 acbf
000000b0: d9c8 0560 bc1c d13f b8ad cdeb 839a ae3f
000000c0: f2a3 5b6c 7f82 c53f 40f7 e031 192d 823f
000000d0: 5e9b 254c 5b6e cd3f dbf2 1baf 3c53 cb3f
000000e0: f844 5cbc 9167 b33f dde9 ca6f 0259 b7bf
000000f0: a08f 7bbd 6a9f 85bf 516d ecb8 492e c13f
00000100: 7fc0 9fa9 71bf bc3f 656a 16fd 33b0 adbf
00000110: b715 29e7 29c2 cb3f e871 c473 3939 b63f
00000120: 61d0 072e 986c aebf 3a96 85b4 63a7 b83f
00000130: e0f8 a242 8ac2 9f3f a898 844c 1968 863f
00000140: 00ba 96c0 ef01 7a3f 6b6e c83d 6cef e03f
00000150: b65a 99ff 1154 c43f 153c d396 6ed9 ae3f
00000160: 1003 8f75 a964 a13f 7730 5f34 dfee d33f
00000170: 2864 4e14 4a3e b13f 52cb b272 5754 d03f
00000180: a7a6 d4b1 c030 a33f f2f7 2df5 32cc cb3f
00000190: 539f 0404 1890 c33f c01b c643 e7a4 8e3f
000001a0: 246e 624b 6441 c6bf 511d 41a9 0485 d13f
000001b0: c8ef 42cf 6fe6 923f 53d7 2927 4fe2 bc3f
000001c0: 2098 2f59 ceb0 c2bf 8dec 3382 fbd6 a8bf
000001d0: 6fbb 4a5c 8cf9 bc3f 2269 8803 9fd4 bb3f
000001e0: b197 60cc 6360 b43f 15c8 00f1 3dce c33f
000001f0: 20de 00c4 3ae0 943f c9cd a71f 1626 9e3f
00000200: 324b 24c1 f032 c33f 899f 32a6 453d c83f
00000210: bdb8 0b6c ab5c d13f 3001 2537 f1fa ba3f
00000220: 4de8 fab3 3b01 b6bf c91b 80b3 420a 963f
00000230: e62c 8b51 bff8 c03f c0a5 2920 6479 8c3f
00000240: fa3f 38b3 d18c bf3f 596b 18e2 dda8 ba3f
00000250: 5a6b af8d b8e3 a33f 5bd0 da9b 50c3 b23f
00000260: 40f4 39cb 60e8 8d3f b610 f5ba d65e c03f
00000270: a598 c24d fe3d c13f 3f33 7c60 b602 9e3f
00000280: 417a c814 4e1a c53f a062 5162 6247 9ebf
00000290: 601f 1cbe 930c c93f a1c5 2e01 0f0c bd3f
000002a0: 8ff4 f9aa f9d6 b33f b950 9b88 2d1b a83f
000002b0: 51d5 6027 dde4 c83f 1876 83b5 bf30 a23f
000002c0: 9018 6162 cac1 ad3f 6f02 593d 98c0 b13f
000002d0: f044 a521 e819 bebf 8293 b9ef e4e3 cc3f
000002e0: 4a58 e5b1 5aae cd3f 80a7 13e9 b8b8 7abf
000002f0: e369 a0f1 03db b93f 849e 5905 ff2a a63f
00000300: a06c a213 c4de 803f 01f5 8605 58e4 b03f
00000310: dc4d 2d9c 5e06 d93f 68ff 12e9 792d a8bf
00000320: 7f22 c1d3 9bd6 843f 5ce5 6a11 cd94 ab3f
00000330: c0dc 15df 6963 843f 7542 28e1 d1a1 d03f
00000340: 9464 e3ef b6ce b9bf 1e4a 036f afe2 97bf
00000350: 44f5 5814 6f91 d53f ecf5 88f7 2b85 a23f
00000360: 00ad c3e7 ff04 9ebf 277c ef94 cfdd b53f
00000370: b4bb afa4 cb7b d03f 6f4c 76be 2503 b23f
00000380: 2e39 0519 a83b 8a3f 021e 0018 cfd1 b53f
00000390: 42a5 4507 3127 913f a033 5984 fc4a c73f
000003a0: 3d6a 456b 367a df3f 40e9 b519 c5ca 89bf
000003b0: 470f 148b 28be b6bf c01b fac1 fd68 bbbf
000003c0: 180a 5195 379f abbf b336 3ecc a02d d13f
000003d0: 1573 5d4d a709 b1bf 6014 3baf 8728 a3bf
000003e0: fa8e feee 31c9 ce3f f0b3 5a91 e3f3 cc3f
000003f0: 0e6d f5ce 8b32 b13f e3d7 eea7 1b1e c03f
00000400: b66e 776d dfc7 ca3f 954e 784c f6b4 d13f
00000410: 0094 bbd4 f07c 513f 9c44 eeac c5ea b5bf
00000420: 8173 71d6 fb36 a13f 78be fb17 1a37 ca3f
00000430: c3f9 a655 920f d0bf 006b 145f 6328 95bf
00000440: 8175 ba03 63ba c53f 9bef 7093 0895 de3f
00000450: c02a 603e 57d0 953f d7d5 0726 d7a2 b53f
00000460: 53a8 23ab 78bf cb3f 2f04 1071 1c64 b5bf
00000470: 1b68 2a73 a06b b9bf 5bc6 96f6 225e de3f
00000480: a722 72dd d63b bbbf cd75 9132 6f9c c53f
00000490: 6cd3 d2a1 9c88 c13f 70b7 4e65 f421 b3bf
000004a0: 6406 1ee8 0955 c13f 970c e205 dc8b ce3f
000004b0: c0e5 2852 9698 7abf 9036 d5da 9a3c c73f
000004c0: f67d 47d0 f4e4 c23f 947e 7892 5eee 873f
000004d0: e591 faae 030f c0bf a4f2 7828 676b d13f
000004e0: ac56 a426 6f34 be3f f904 dcf1 b57a a33f
000004f0: bc94 5274 f1b5 d03f b0e1 631d e8a6 bd3f
00000500: 70b0 fb55 0828 b4bf 7880 e144 057e c43f
00000510: 36af 8897 34de c43f e9b6 6886 6592 bebf
00000520: 882f 43fd f6c3 bf3f 596c b011 3124 c53f
00000530: 40da ee06 ffd4 9abf 12cc e17f bb3a c63f
00000540: 7f81 7a9b dab2 b93f bee3 3aee aed4 683f
00000550: 4f54 1dbf f071 bb3f 8030 d8de 708f 78bf
00000560: 07b7 5e75 5ae9 a83f 7051 975b 90fe c63f
00000570: 9cd6 a81c 199d cb3f a30a ab98 c26c b1bf
00000580: 4bb7 985f 3e7e c4bf d790 85ee 539f bf3f
00000590: 905c 9a29 fd42 c73f b826 4ac8 b9e6 a03f
000005a0: 91ec 9456 23ca c03f 4cfd 81c3 e06d c73f
000005b0: 1d50 39ba bccc b9bf d827 b3b6 df60 a2bf
000005c0: 37b2 7d6b d978 bcbf eba9 1b6a 2f1b c83f
000005d0: 555c c441 5de0 b13f 8057 d6b1 6bee 75bf
000005e0: d183 8ae0 04a8 ce3f d8da 7bdf 200d b63f
000005f0: d2cb d996 ea66 8cbf 369f d536 bc68 ce3f
00000600: a1d0 c895 7984 a83f 0fe9 1212 1dc4 b63f
00000610: 0b9e 6e2a 47fb ae3f 80d2 f87b 2af8 89bf
00000620: df4d ced1 525d b33f 9682 62d3 fca9 d63f
00000630: 0336 eee1 b141 d43f 61d3 9f2a 261b aa3f
00000640: 75f4 7f92 4bf8 c53f 8b48 9cf7 ba59 c23f
00000650: 3f37 9e84 e5d0 ab3f 883c c418 b64d c0bf
00000660: 5fef fe6d 4629 c3bf aeb0 dcb6 0383 c83f
00000670: 3910 b527 a91f b2bf f1be 8193 70e3 c0bf
00000680: bf90 c22d 9a40 c73f a2f6 98d1 4801 ac3f
00000690: 5618 41d2 0292 ac3f d8a7 1e4f 173e bcbf
000006a0: 2e16 a6ff dd64 cf3f 55ac e7b8 ca33 b13f
000006b0: 400b c239 9b66 80bf ad98 c235 9a53 d73f
000006c0: 5be7 ebc1 9edf 8ebf 62b8 84fa 543b c23f
000006d0: 98aa b02d 7f90 cd3f eb04 79b5 069e 883f
000006e0: b1cf 6c6a df4b bc3f 00ff d582 5334 533f
000006f0: 4ed1 e8e0 12a2 a03f f5c9 5a38 20bf c03f
00000700: 1fc7 c0da 986a d43f a067 e2e1 6dc4 a3bf
00000710: 94e0 c406 0a28 b2bf aa8c ddb2 0d59 bb3f
00000720: cd34 1853 59d9 b63f 2e16 3c1f 5a48 b83f
00000730: 483f 6806 5040 bf3f 6674 ee50 9c38 943f
00000740: 102f c298 b41a 903f 19ef 152a 9df8 c13f
00000750: d4a0 7197 c8b5 99bf 4d58 485e 5d90 c03f
00000760: fc7a 559e 76db d73f e065 b2c2 079a aebf
00000770: 8029 d53d aa10 6cbf 3b39 922a ee6d b13f
00000780: edab 316e 7bed c43f 3714 0d0e 6041 acbf
00000790: a759 292c ab42 c53f c061 5b69 7627 acbf
000007a0: b0ec 3999 834a b43f 46ef 1928 7fd1 c0bf
000007b0: ba82 cea5 9d77 a9bf 5a52 5f70 a9a6 cd3f
000007c0: 7af3 9e13 de7e b53f 97bf af7e 0b5c a1bf
000007d0: 001e d4f3 10bc 7bbf 4baa c9bb 83e8 d83f
000007e0: bbcc 88c4 cef0 d03f 0018 3f03 20de 2dbf
000007f0: a238 5093 5161 b5bf 80e7 7524 768c bf3f
0.23499772474341377 -0.06174980138930068 0.29684714967720643 0.24614573407748402 -0.06296124210264473 -0.04087603763114245 0.0794200849785869 0.08045171870822508
0.12526119364483634 0.09695580242380758 0.02350009949493892 -0.23038216304740605 0.21359187903587096 0.11678748881227947 0.11225585204526231 0.19395967050804805
-0.006917018247995177 0.2701904797142308 0.16491641136000393 -0.13474130310196128 0.15051262530918239 -0.05499300759317127 0.26737889649588237 0.05977260831317771
0.16804497519413492 0.00887508090465483 0.22993031709776351 0.21347769308331163 0.07579909180300948 -0.09120192746460228 -0.010557969958831681 0.1342250969836223
0.11229620352946944 -0.05798494781921163 0.2168629053796118 0.08681067539550436 -0.05942225992103612 0.09630416066428263 0.031015549008537202 0.010940740249292993
0.006349503071233276 0.5292264181802698 0.15881562214300055 0.06025262442710059 0.033971114731235486 0.31145458330571024 0.06735671039349767 0.2551478023626049
0.03748132868561287 0.2171691605726092 0.1528348941440024 0.014962965732378097 -0.17387059861072018 0.27374378708596675 0.018457171464191707 0.11282820421351163
-0.14602069239407545 -0.04851518597021096 0.11318280461521878 0.108713091242326 0.07959579219513448 0.1547315050862045 0.02038661786374807 0.02944216316423168
0.14999207907438855 0.18936987509846073 0.2712811045775075 0.10539157482435679 -0.08595631736798844 0.021523515897594856 0.13259116632102702 0.013903410178687348
0.12324247956735226 0.10413920183093008 0.038846747680244945 0.07329276852652937 0.014603382303216006 0.12789425019048445 0.13470438763505857 0.02930722202204383
0.16486526503372725 -0.029569184542512006 0.1956963232298632 0.11346524981379115 0.07749901222446652 0.047082350659964196 0.19448437140241961 0.03552817431203098
0.05811912966650923 0.0693450116896288 -0.11758280583787317 0.2257047815830014 0.23188337026903333 -0.006523821169347133 0.10099815987670228 0.043296784785352066
0.008237392281719658 0.06598425040188617 0.3910137677350727 -0.04722195596832429 0.010174958610279504 0.05386963689438559 0.009955241318250763 0.2598766993333251
-0.10081046444556058 -0.023325673247038485 0.33700158106860933 0.0361722697893859 -0.029315947075628124 0.08541581522102658 0.25755587656652357 0.0703605260844584
0.01280909849506581 0.08523268066357306 0.016751066273547062 0.1819759031517636 0.49183426356981724 -0.012593784186482382 -0.08883908648936965 -0.10707078920141466
-0.05394910524093549 0.2684099192200435 -0.06655355109019141 -0.037418594494319946 0.24051498574873859 0.22619289967897727 0.06717752268507501 0.1259188241944563
0.20922463269277153 0.27667005031364883 0.001067385851393654 -0.08561358901921995 0.03362261765207731 0.20480657740653263 -0.2509504162261715 -0.020661881139953486
0.16975057298706633 0.4778462829451599 0.021302569563014684 0.08451599768144234 0.21678074222956187 -0.08355882416073322 -0.09929850398694422 0.47449564057305843
-0.10638182550804719 0.168836497966295 0.1369815626291272 -0.07473685715987499 0.1354076751122647 0.23864317214256367 -0.0064931747352203195 0.1815370148200839
0.1476121918667414 0.011685122342043365 -0.12545820278059164 0.27218035652530603 0.11798758214384958 0.038045583509310484 0.26110493049266004 0.11582804410489334
-0.07873584841917292 0.16009584296535073 0.16303117179028853 -0.11942133456679084 0.1240839355770601 0.16516698230484186 -0.026203141019971676 0.1736673712181021
0.10038534446585422 0.0030311028111466845 0.1072073427761364 -0.00599617090257365 0.04865534479846017 0.1796436736318685 0.21573175334349493 -0.06806579806565564
-0.1601026503353132 0.12352490018162442 0.1817318394794012 0.03301029748861367 0.13116876342414632 0.18304070993688482 -0.10078029200059331 -0.03589533906195158
-0.11121901392261511 0.1883296268564004 0.06982977729454494 -0.005354328806239539 0.2395025345222437 0.08613782364032418 -0.013868172386741682 0.23757126500572107
0.04788570359633693 0.08892995539909897 0.06051084893197974 -0.012680370243381534 0.07564275381292117 0.3541252197556245 0.3165096956589368 0.05098838110271831
0.17163986829101288 0.1433633526835972 0.05432812923309748 -0.12737156113914616 -0.149697116574198 0.191498245514031 -0.07079560489097582 -0.13194091036302028
0.18165900453926118 0.05469729956210513 0.055801475683026666 -0.11032243425020682 0.24526572211122882 0.06719653143197608 -0.008008206081517977 0.36447768449796564
-0.015074959080709929 0.1424356673464358 0.23097219210588515 0.01202016106901956 0.11053272579448394 0.0011721435106152867 0.03248652453877075 0.13083269836131675
0.3190061699161663 -0.038608011077669646 -0.07092344918499044 0.10682759873229722 0.08925398138690639 0.09485400450292822 0.12207508236337816 0.01974720233885243
0.015726873229637894 0.1403995948311312 -0.025107511752509762 0.12940566161768388 0.3727699800710267 -0.05976890803976764 -0.0034259152440984653 0.06808365382514563
0.16349738007133344 -0.0551862733032426 0.1660970655090754 -0.05498857532592494 0.07926199427486114 -0.13139333208152432 -0.04974072121627189 0.2316486166661374
0.08396709422136253 -0.03390537187067293 -0.006771150799302017 0.3891915639748375 0.26469773476419406 -0.0002278722837429359 -0.0835162148143547 0.12323702230597

times f8 [3]
00000000: 0000 a89a a938 d040 0000 4997 f332 d040
00000010: 0000 a9c3 4a35 d040
16610.650064468384 16587.80610871315 16597.16819214821
