package_metadata/openml/jungle_chess_2pcs_raw_endgame_complete/ground_truth/shap_kernel_3_ann.npz (npz, 564514 bytes, 2 tensors)

exp_values f8 [3, 4096, 6]
0	0x3fd01f9746337bd5	0.25192815642907124
1	0xbfad21834e3bd061	-0.05689630823135939
2	0x3fd40a919dc31f9f	0.31314506918396917
3	0x3fcc081de09c685e	0.21899770228702925
4	0xbfb2fefdf9673386	-0.07420337046569445
5	0xbfa717848acd27f0	-0.04510130113938249
6	0x3faf85569ead1637	0.061564165944713194
7	0x3fb84268660e7863	0.09476330272306792
8	0x3fbc79beee4dfa4f	0.11123269384368338
9	0x3fb74f250ddabbfc	0.09105140293353026
10	0x3fa19d1db9d903bc	0.03440182584427684
11	0xbfd0edd148d4ab33	-0.264515229343192
12	0x3fd0a3fa0c342fb3	0.26000834647924903
13	0x3fc3ab81d536f399	0.15367148314353754
14	0x3fb925a1939dcd4b	0.09823045591274597
15	0x3fc334ae6c030719	0.15004520677580827
16	0xbf694e03290b5b00	-0.0030889569974122955
17	0x3fcf9d3673db9bfb	0.24698525101777577
18	0x3fb64d630460f69d	0.08711832863715548
19	0xbfc10cf42bac4691	-0.13320781834095333
20	0x3fb9120f480b1660	0.09793181904668691
21	0xbfb43b27e87959cc	-0.07902764726291095
22	0x3fd2da61dea5d0e1	0.29457899802151927
23	0x3fa57ec9f140c1c8	0.04198294706327804
24	0x3fc651751b3b1d58	0.17436088399538607
25	0x3f7d3766e2b1c580	0.007132913490850767
26	0x3fcdfec6856c5c9b	0.23433763041314112
27	0x3fca8d4fdc805955	0.2074374987284481
28	0x3fb3639ea7087f8e	0.07573882654150862
29	0xbfb5a280a45bb395	-0.08451084149028383
30	0xbf839d895c4b1800	-0.009577820900982914
31	0x3fc50a0ae392689f	0.16436897384557356
32	0x3fb83d01470f4675	0.09468086228232571
33	0xbfaf46b8bc688a4e	-0.06108643817812674
34	0x3fc8da4d2da6287f	0.19416203240354332
35	0x3fb83785a00f09ef	0.09459719808277332
36	0xbfac2972af574740	-0.05500372305290435
37	0x3fb866488df470e1	0.09531072107023732
38	0x3fa999e44cd7e0c0	0.05000222623852002
39	0x3f8612f668524153	0.010778355654367166
40	0x3f7f75abddb3e080	0.007680579520858655
41	0x3fe033e15071a962	0.506333024136705
42	0x3fc586a891d3b9c3	0.16817195053540787
43	0x3faa67a27cafa9d0	0.0515719201283279
44	0x3fa264bbc145af2d	0.035924784987257354
45	0x3fd307bcc7b09286	0.29734725476217994
46	0x3f9e28df65ad7620	0.029452791767985542
47	0x3fd129ddb6a065b9	0.2681803019964622
48	0x3f68ffad1f1db100	0.0030516034393511804
49	0x3fca2f104a4cc05b	0.20456126811905304
50	0x3fc78d494a7e97bd	0.1839992154829683
51	0x3f921381f2acf12c	0.017652540623417298
52	0xbfc17a7520865936	-0.1365496071636671
53	0x3fd3b9eba73e59d5	0.3082226880300401
54	0xbf989aea04396368	-0.024028450496504844
55	0x3fbb9d73cec84b90	0.10787128256224165
56	0xbfc5fc3cdcd6529f	-0.17176018508020705
57	0xbfb7073dcbaedbb2	-0.08995424483042205
58	0x3fbc8db9730e7b6e	0.1115375429057914
59	0x3fb61eb54464dd44	0.08640606803679868
60	0x3fb000d2cb9c6c47	0.06251256438228935
61	0x3fc22d0eddac6056	0.1420000631703739
62	0x3f66eceadad2fd00	0.002798517895456265
63	0x3fa6b79cc43af43a	0.04436960120572349
64	0x3fbf8a7b540ebd8e	0.1232068138331128
65	0x3fc39c63c0acb102	0.15321013362825658
66	0x3fd105abc1e54cf1	0.2659711259377238
67	0x3fb6871dbc46839d	0.0879992088944292
68	0xbfb6e718cfec88aa	-0.08946375919598162
69	0x3f89e9aa04d48dc7	0.012652710220726683
70	0x3fbc58ba3fb395af	0.11072887473309011
71	0xbf6e2e9e8d717500	-0.0036843392113455886
72	0x3fbb85586be19815	0.10750343927210822
73	0x3fbd08229c202d84	0.11340538322126831
74	0x3f907aeaf0be35ba	0.016093893951212947
75	0x3fbaa9460f682ee1	0.10414541126391043
76	0x3f8a6309452d8140	0.012884209083211418
77	0x3fbfe5df83929867	0.1246013351652394
78	0x3fc3926ba562a356	0.15290589881376587
79	0x3f82e4e60d860c1e	0.009225652015407756
80	0x3fc47012e54107b2	0.1596702212719357
81	0xbf9c782f0e3b3780	-0.027802214854822704
82	0x3fcb26032568054a	0.21209754301529876
83	0x3fbbe63f0cee3aa2	0.10898202958763162
84	0x3fb296f00327dd88	0.07261562420887036
85	0x3fa603ca57a8c708	0.04299766845760017
86	0x3fc8933367c3f1e9	0.1919922119776765
87	0x3fa675070a040400	0.04386159894239228
88	0x3fad1f2e30931c46	0.056878512792132116
89	0x3fb1fe6be4021577	0.07028841320614797
90	0xbfbf88576d182775	-0.12317415631710367
91	0x3fcc5520c9d832f6	0.22134790282907318
92	0x3fce7348cd85d8e2	0.2378932002572532
93	0x3f6d361b751f9080	0.0035658394126461546
94	0x3fb4ddf72eb44196	0.08151192560422368
95	0x3fad6f3967a1383c	0.05748919858943721
96	0x3f867935e9195d1c	0.010973378349417966
97	0x3fafdf75abb06a41	0.06225173683943242
98	0x3fd998f6d4f18fd0	0.3999611930396414
99	0xbfa96f3d7babf130	-0.049676820131909216
100	0x3f7e61941e8694c0	0.007417276945863083
101	0x3fa86d1629fb7388	0.047707264542373784
102	0xbf7b6fe6c5773d80	-0.0066985144143950626
103	0x3fd0dee2fab2f914	0.26360392076812045
104	0xbfb6954b739bc9df	-0.08821555683588354
105	0xbf88d8453b14d62a	-0.01213125311424353
106	0x3fd63aedffc30d0f	0.34734678246259504
107	0x3fa45970114a9d98	0.03974485598638039
108	0xbf9a0bd2a5df1360	-0.025435725568758172
109	0x3fb4ee9039bed985	0.08176518831064612
110	0x3fd01c3a44b8ae8b	0.25172287665439147
111	0x3fb34f808e9768a2	0.07543185693012558
112	0x3f85d21e6e68043f	0.0106546761935552
113	0x3fb5a17980439279	0.08449515706485923
114	0x3f91d61ded58bfd6	0.017418353663913276
115	0x3fc5eddef5536b08	0.1713217447166573
116	0x3fe01c33d7152506	0.5034426880676228
117	0xbf8d1ab3abe02b40	-0.014211085970620041
118	0xbfb6233505a5bd54	-0.08647471797825307
119	0xbfbce49623b2a0fc	-0.11286295291450082
120	0xbfae63a284760513	-0.05935390345531224
121	0x3fd1e16f7576a277	0.27938448401486177
122	0xbfaafd9ea7a3bc48	-0.052716215099160524
123	0xbfa03091404aa460	-0.031620539758770105
124	0x3fcff18d6ba42b94	0.2495590949623333
125	0x3fcd6b39fa1b705c	0.2298347922541123
126	0x3fa7c2b29860285a	0.04640730009130385
127	0x3fb6bf034a7cdd40	0.08885212486790284
128	0x3fc6db397a57df3f	0.17856520150939478
129	0x3fd1d4141859783d	0.2785692441738126
130	0x3f90fcf336b9e960	0.016589927878592703
131	0xbfb5e8fa4f497c59	-0.08558620868414958
132	0x3fa215ced9fd2119	0.035322631940802825
133	0x3fc9ccacb8d02b52	0.2015586759956372
134	0xbfcff751f28153d3	-0.24973511067460538
135	0xbf8988d377077fc0	-0.012468006200776816
136	0x3fc4762c9e2c2bb0	0.15985639308231958
137	0x3fdec19a6904f9fa	0.48056659942440627
138	0x3f9b96d7310e3f00	0.026942598694915
139	0x3fb420f5875338d3	0.0786279158957968
140	0x3fca788ab5afae20	0.2068036448612114
141	0xbfb70e7237b67c7a	-0.09006418094803506
142	0xbfbadea61bb7b8fb	-0.1049598519964298
143	0x3fdfc0367fe7e7e1	0.49610674372490676
144	0xbfbb10cb29b57087	-0.10572500007896411
145	0x3fc5bc9259c5f0c1	0.16981725104768056
146	0x3fbf4cbca735b42e	0.12226466257352861
147	0xbfb00adfbf9e5b30	-0.06266592434108698
148	0x3fc2e0f3ea49831c	0.14749001445581988
149	0x3fcecd9992935f58	0.24064941079154312
150	0xbf90cb5a926b2f31	-0.016400733172118712
151	0x3fc56c623455e9d4	0.16737010531853846
152	0x3fc6e86b8c3ba223	0.17896789882003458
153	0x3f767376b7ccca40	0.00548120855528339
154	0xbfc14d9652b2aa49	-0.13518027341827324
155	0x3fd1d13cb74c8190	0.27839582348135483
156	0x3fc3f2be6d8af35a	0.15584545468109462
157	0x3f985705f9a09020	0.02376946769813071
158	0x3fd03aae7ce18888	0.2535816401997484
159	0x3fbab1a70b802227	0.10427326231741373
160	0xbfb5b34a0e631722	-0.08476698733565205
161	0x3fc47b5210832b7e	0.1600134449602954
162	0x3fc275ab3296534c	0.14421596498564282
163	0xbfbc3f43237d6a53	-0.11034030548527456
164	0x3fbfec868b20d902	0.12470284363448417
165	0x3fc2cb7a027e1dd6	0.14683461305342743
166	0xbf7cfea9adaa7940	-0.007078802877599266
167	0x3fc6eea4a470108c	0.17915781048953183
168	0x3fba85635ede3f87	0.10359784189335929
169	0x3f94e8bf81d7dcaa	0.020419113445282612
170	0x3fb25d68493703d1	0.0717377833125419
171	0xbf932192cf17d0a0	-0.018682760133700627
172	0x3fb18dae8d246e62	0.06856814332825814
173	0x3fc4997359b3d4e7	0.16093294029238978
174	0x3fcf3882ea48f75e	0.24391209068010772
175	0xbfb6a5c2592d6bfc	-0.08846678425963711
176	0xbfc3fb9c350e4ea4	-0.15611603346461778
177	0x3fbdf8ed297c1805	0.11707956564723083
178	0x3fc1e616e4554f72	0.13983427189907222
179	0x3fad87f8f8c65c28	0.05767801319887439
180	0x3fc52204a57f76bd	0.16510065155937595
181	0x3fc8e6c9cb69520c	0.1945430987567679
182	0xbfabf64bdf5fe378	-0.05461346723308841
183	0xbf9b2e5951b36530	-0.026543994533175297
184	0xbfb3e96fb9383c92	-0.07778070709194854
185	0x3fd003f326d55020	0.25024107734975765
186	0x3fb662ae908a73af	0.08744326618984986
187	0xbf8143618ed00680	-0.008429300471110013
188	0x3fccb7ac0dc9f103	0.22435522721560383
189	0x3fb55aa6a92987d9	0.0834144747728084
190	0xbf89aebfa0d05e60	-0.012540337653305034
191	0x3fced4241de9def5	0.2408490320265099
192	0x3fa9b9105b9fea9a	0.050240050491955304
193	0x3fb557f77da8dd8f	0.08337351625310972
194	0x3fadd4cc43238c94	0.058264144130384526
195	0xbf877e0796913a80	-0.011470851213883693
196	0x3fb198da20aae30b	0.06873858735606235
197	0x3fd76bd19c110e80	0.36595573655015556
198	0x3fd3e2cf7929ba00	0.3107184108002059
199	0x3faa9f8691cffbbd	0.051998334216470245
200	0x3fccf688353b5e5c	0.22627356147016797
201	0x3fbc1762506b11de	0.10973181212745639
202	0x3fa89bf4a550c78a	0.04806484716426869
203	0xbfc1269ce7f8c4b0	-0.1339908726381842
204	0xbfc14a3ac98122e3	-0.1350778087528602
205	0x3fc983bc625c89e5	0.19933275988394353
206	0xbfab5c15f147b714	-0.053436933234349976
207	0xbfc22e0cb26e02df	-0.14203032219304298
208	0x3fc9743816fab6bb	0.1988592254833089
209	0x3f9a39e9f695c120	0.025611549067833583
210	0x3fab893405dc375e	0.05378115245376479
211	0xbfbe1fd3a428476f	-0.11767313726184424
212	0x3fce660886697770	0.23748880923352145
213	0x3fb1b85c8f53171e	0.06921938418517157
214	0xbf4be9c5010ee000	-0.0008518421110386143
215	0x3fd7e1793e8f7498	0.3731368170682088
216	0xbf8c2b91923fd2c9	-0.013754975581812616
217	0x3fc17d213433dd44	0.13663115548090776
218	0x3fcdea6fcb71f143	0.23371694024889153
219	0x3f950317e96a4fbb	0.02051961290506175
220	0x3fbb3f1985e7c035	0.10643157500430862
221	0xbf741cccd742c640	-0.004910278472537721
222	0x3fafa3473b938bf5	0.06179258920908374
223	0x3fc043045336e853	0.12704519332129624
224	0x3fd0c04d85545271	0.261737232403255
225	0xbfa41bc955c91e80	-0.03927449390590443
226	0xbfb22c152c23a232	-0.07098514869324715
227	0x3fbda383fd511b84	0.11577629980557275
228	0x3fb99d10182e8340	0.1000528391873674
229	0x3fb6491cba317125	0.08705310388308314
230	0x3fbed2181542d152	0.12039328116481343
231	0x3f975496a921e864	0.022783617089296007
232	0x3f910655cd63f570	0.0166257292375937
233	0x3fc0dc613d46c6a8	0.13172545902266575
234	0xbf984db7b2ae2764	-0.023733969002513247
235	0x3fbeaccb255603bf	0.11982412015460307
236	0x3fd7145a0a06e80c	0.36061717013547034
237	0xbfb117e1f54690ce	-0.06677067030119874
238	0x3f8b822c4b527140	0.013431879089971788
239	0x3fb317e78ae7f30a	0.07458350316296616
240	0x3fc4368c4460bb08	0.15791467036020657
241	0xbfa736bf0c0f9660	-0.04533955595233574
242	0x3fc21c1671c8add4	0.1414821677766286
243	0xbfb3756e53f3cb5d	-0.07601060437791092
244	0x3fb6c712f80b619a	0.08897512965939428
245	0xbfc049038f9d86f4	-0.12722820770709797
246	0xbfaf18b3fbb1e69f	-0.06073534438560312
247	0x3fcc2a0ac77dd945	0.22003302326965915
248	0x3fb31737026ab371	0.07457298096660538
249	0xbf9a15080f242c2b	-0.02547085373320727
250	0x3f756307166f2e80	0.005221393285818388
251	0x3fd9b1d91a7f0d16	0.40147998416451125
252	0x3fcd627b4195dc87	0.22956791593944478
253	0x3f2acd32f090f000	0.00020447966406489382
254	0xbfb3870338122377	-0.07627887839238477
255	0x3fc3d70bceee3ab5	0.15500018695862186

times f8 [3]
0	0x40ad4bf6bbe00000	3749.9819021224976
1	0x40ad7207e2580000	3769.0153987407684
2	0x40ad7afc54100000	3773.492828845978
