package_metadata/openml/wilt/ground_truth/shap_kernel_3_ann.npz (npz, 139117 bytes, 2 tensors)

exp_values f8 [3, 1206, 5]
000000 30 02 6a 1f 4f dc 5a bf 9c 18 62 2f 27 5d 9d bf
       -0.0016394398386695534 -0.028675663249054226
000010 91 b7 9b a8 7b 19 b8 3f 80 ad 8f d7 f5 df 4a 3f
       0.09413884035504184 0.0008201551819388281
000020 e3 a2 16 0f 92 03 80 bf 15 3b 25 87 96 2a 6e bf
       -0.007819310269796492 -0.0036824169157293565
000030 38 df 88 a9 69 17 d0 bf bd 67 7f 70 2e e6 d4 3f
       -0.251429000436008 0.32654915796376455
000040 d0 f5 e6 d2 f7 88 6e 3f 28 6e 99 70 1f e8 95 bf
       0.003727420836382868 -0.021393290755766042
000050 b0 dc d0 a9 04 44 a7 3f d5 a1 c7 44 e3 74 d3 3f
       0.04544081280658341 0.3040092631986487
000060 74 1b 55 1d 1f 9f bd 3f c0 d9 82 ec e9 88 b0 3f
       0.11570925203441879 0.06458913826177248
000070 24 4d 24 45 05 1e b2 3f 78 26 54 6c 45 5a 96 3f
       0.07077057779342916 0.02182873223958956
000080 6d 2c 83 28 69 8d de 3f f5 6a c4 57 99 4d d7 3f
       0.4773810287121652 0.3641112668134803
000090 c0 63 a4 21 d7 a1 8e bf 56 5d 04 3f dd 7b b1 3f
       -0.014957123483826495 0.06829626835348299
0000a0 61 10 07 c6 b7 21 8d bf 34 d5 3f 43 88 80 82 bf
       -0.014224467974493562 -0.009034218361174774
0000b0 fc f0 94 d8 2c e5 b6 3f a2 c6 00 d3 51 9a 9a bf
       0.08943443572656301 -0.025979307654955826
0000c0 06 39 68 62 54 16 91 bf 86 c8 71 a4 f8 3b 9e 3f
       -0.016686743265432312 0.029525647198575665
0000d0 e0 51 32 d8 51 dd 9d 3f 28 4f 46 67 28 13 d5 3f
       0.029164580174055987 0.32929430089392264
0000e0 97 06 55 4a e3 66 bc 3f 35 ee 6b 30 dd 27 bb 3f
       0.1109449440455371 0.10607702667396597
0000f0 e0 c2 24 54 a6 5d 72 bf d6 10 08 ea 4e ed bf bf
       -0.004483842584065839 -0.12471478665981137
000100 42 7a 06 6c c8 d6 c7 3f 9e e4 ac b4 be 4d 60 bf
       0.18624215387986182 -0.0019901966783462807
000110 40 01 29 bd ad 34 5d 3f 78 31 bd fd 5f 38 76 bf
       0.0017825791043293987 -0.005424857106686047
000120 13 30 4a ea 3a 93 c7 bf 7e d7 4d 05 4d 15 ce 3f
       -0.18418060722285698 0.2350250507258202
000130 44 d9 8e e2 69 ff 99 3f 7c ed ea 25 f3 8b 8c bf
       0.025388388112071128 -0.013938808054595901
000140 00 4b 16 64 cc f6 47 bf 99 fc 96 92 33 3c b5 3f
       -0.0007313249590644444 0.08294985131122913
000150 0e d8 bd 31 29 6f 7f bf fe 17 a4 ad 17 d5 7b bf
       -0.007674370684858557 -0.006795017712880378
000160 0e e5 36 0e 65 c3 86 bf 80 17 90 eb 9b 32 4a bf
       -0.011114873405733163 -0.0007994901017134154
000170 a8 7e 64 d2 1d 4d a8 bf d4 b3 4b 39 15 40 b7 3f
       -0.0474633521391728 0.09082157753773795
000180 50 de a7 9d 60 af 8c bf 65 ef 11 16 75 00 9d 3f
       -0.014006380854865302 0.028322057220506198
000190 b0 0e 62 31 13 7c 6e bf 2f ad 5f de 3f 92 a0 3f
       -0.003721272932183904 0.032365795035583005
0001a0 ab 5b 4b 07 89 79 83 3f 9c 65 69 e6 8d 41 94 bf
       0.009509153876406126 -0.01978131979772045
0001b0 5f f8 3b 9a a2 b1 a3 3f 1f 1c 11 cb 32 98 7f 3f
       0.03846462376348891 0.007713507090620047
0001c0 ec 74 16 e3 00 d8 81 3f c8 49 73 46 29 68 af 3f
       0.008712775163810048 0.06134156212796743
0001d0 b2 1b dd 55 7a 5c 8f bf d8 d6 00 78 25 56 77 bf
       -0.015313106294014254 -0.005697389948229513
0001e0 90 45 ec ff d1 ac 75 3f f8 9c 75 57 5e fc d5 3f
       0.00529176741726313 0.3435283521743737
0001f0 90 6b b7 55 1c 57 d8 bf 18 e9 f6 23 70 7a 93 3f
       -0.38031681414366236 0.019021751589869046
000200 21 90 1c 1a 31 c1 b1 3f 00 8b 2b 70 fc 4f 3f bf
       0.06935412299623113 -0.00047779000321505893
000210 2d 79 b6 7a 36 0d df 3f 33 d6 9a ff de 8b db bf
       0.48518144591970974 -0.43041205369385976
000220 c4 08 21 9e b3 fd 57 3f f0 f7 bb e6 62 67 52 3f
       0.0014642957762736478 0.001123282035166092
000230 10 63 0b 83 81 df 79 bf 7e e8 ac b7 3e be c9 3f
       -0.006316667466955264 0.20111831635023586
000240 f1 53 47 41 f5 5e bd bf 79 d7 5e 2d 37 7f 8c bf
       -0.11473019450870915 -0.01391451937875464
000250 5a bc 20 31 e7 17 83 bf 80 15 6a c0 da 87 4e bf
       -0.009322935282481893 -0.0009317224619997261
000260 ad 1f 5a 16 86 ad a0 3f 9d 91 40 be f2 64 a4 bf
       0.03257388136722681 -0.03983267376341646
000270 04 94 44 9a 62 27 92 bf 83 06 17 fa 72 31 b5 3f
       -0.017728367486729027 0.08278578382216932
000280 b0 e1 90 0c 97 78 77 bf 31 ee 26 d3 12 39 d0 3f
       -0.0057302379946623655 0.25348349209136517
000290 55 16 8a 56 c3 3e c6 bf be f8 c2 73 d8 d7 81 bf
       -0.17379037595326233 -0.008712473900569836
0002a0 3a 54 a2 b1 e6 17 85 bf d0 81 42 5c d4 e5 65 bf
       -0.010299494071924643 -0.002673067823778498
0002b0 ec b4 98 b6 b1 e2 9a bf 5c 8f 62 aa d9 de b8 3f
       -0.026255394716078337 0.09715042505064048
0002c0 73 90 9e 0e 89 ce 6d bf 76 29 9c 3a 10 6d 80 bf
       -0.003638522805845362 -0.008020521916041839
0002d0 90 44 30 54 d9 de 65 bf 9f f9 4d 17 d8 36 a1 3f
       -0.0026697392181707705 0.033621552319334606
0002e0 4c f8 f0 46 9d f6 7e bf b8 02 58 71 29 dd a4 3f
       -0.0075594085347444155 0.04074983128157811
0002f0 27 82 09 b3 bd ec 7d bf 99 37 3f 0b 0c c8 81 bf
       -0.007305851948871601 -0.00868234071085876
000300 9f 83 bf 38 e0 48 aa 3f 0c 61 87 51 4e e9 9b 3f
       0.051337248732813416 0.02725717899906592
000310 04 52 66 02 8e e8 80 bf e8 47 b1 4f 92 d0 79 bf
       -0.008256062935097404 -0.00630242493487463
000320 75 a1 f3 56 69 a7 82 bf 24 2e be 0e bb 37 c7 3f
       -0.009108374563269387 0.18138826579921485
000330 9d fa 52 c7 6e d2 b8 bf 08 78 92 73 42 37 76 bf
       -0.0969609486228173 -0.005423793388358085
000340 e0 8c ff cf 7d ae 8a bf 26 23 d1 f5 b5 8e 92 3f
       -0.0130281285382296 0.018122523430324076
000350 d4 2f 3c 5f 7a c0 db 3f 7e cc cf 7d 29 d1 d9 bf
       0.4336229257612534 -0.4033912399892826
000360 fa f5 cb 63 4e 8a 84 3f 40 20 60 63 21 a6 58 bf
       0.010029423161081564 -0.0015044523293017559
000370 38 e1 23 b8 7f c5 72 bf 01 f5 32 ce 85 7b 99 3f
       -0.004582880881791866 0.024885264120475096
000380 58 cf ce 43 12 4a 8f 3f 62 66 b9 b5 3a 2c 94 bf
       0.015277998632747078 -0.019699971524778433
000390 c2 a9 f7 6d b2 fd a4 3f 73 d2 ac b7 a7 a1 8b 3f
       0.040998054431685485 0.013491926472491067
0003a0 06 32 bf 6a 2e 95 a0 3f 28 19 d7 33 b1 0d 74 3f
       0.0323881631189558 0.0048958703968707065
0003b0 d1 56 e9 31 a8 95 87 3f e0 b5 df bb 9f 2b 76 bf
       0.011515916846444626 -0.005412696800687539
0003c0 90 ac 78 ac 90 74 7d bf 92 d5 db 81 9b 26 ce 3f
       -0.00719124329729505 0.23555320587881262
0003d0 be 18 81 bb d7 a0 c8 bf 25 1a 6e be b4 ad 93 bf
       -0.19240852981073958 -0.019217323420457916
0003e0 13 d8 7e ef 7d 8d a4 3f 69 64 c2 ff 9a d5 8a 3f
       0.04014199780014862 0.013102732591777593
0003f0 f3 9c 7c 2a 8c 14 c7 3f 81 c9 bb 7e 2f a5 c4 bf
       0.18031456064748105 -0.16129106224213888
000400 d5 17 59 0f cc 90 9f 3f 60 50 e6 13 d7 df 78 bf
       0.030825794636505883 -0.006072845599550986
000410 60 6b d3 9a b7 f5 80 bf b6 7c 15 7d 8c e2 c4 3f
       -0.008281168377313797 0.16316372020353292
000420 bd a0 8f db dc 24 be bf e2 42 ba a9 58 ac 9d 3f
       -0.11774998054864035 0.02897776161131816
000430 e3 3c ed 5c 40 b4 84 bf 70 0b c6 17 3d 97 67 3f
       -0.010109427295587675 0.0028797333927185684
000440 d1 d7 1c a3 e8 42 a5 bf 18 fc 1c c6 b6 94 b8 3f
       -0.041526098166670196 0.09601919495342803
000450 13 e1 32 12 86 d1 86 bf b9 7f 5b 78 35 ce 85 3f
       -0.011141822271711043 0.01064721845199289
000460 64 14 0b 4f 74 99 83 bf ed e3 ea 96 5e e3 c1 3f
       -0.009570034658631772 0.1397512661840489
000470 a5 70 a2 c1 95 a8 a9 bf e6 ec 54 7b 30 cf 93 bf
       -0.05011432636931205 -0.01934505226857377
000480 0b eb e0 d1 6a 57 88 bf 00 a8 33 a0 9b c4 45 bf
       -0.011885485200868759 -0.0006643066302818301
000490 75 e9 3f c5 33 ca ca 3f e6 d9 35 06 bd cd c3 bf
       0.20929572230654583 -0.15471613696327252
0004a0 a8 0c d2 04 60 c0 93 bf ef 7e ca 11 20 c8 96 3f
       -0.019288540167064966 0.02224779232585566
0004b0 90 29 c2 29 59 ab 7c bf 31 21 ed e6 5e 1a a1 bf
       -0.006999347966607408 -0.033404317559475045
0004c0 a3 19 68 8f 19 d4 be 3f ac 33 9a c2 69 ba 8b bf
       0.12042388678682996 -0.01353914857033963
0004d0 d6 5c 82 37 08 f8 83 bf 30 fa 6a ca ed 95 73 bf
       -0.009750427431113467 -0.004781655187513098
0004e0 f5 3b 2a 0a e9 b2 b9 bf 59 97 6c 83 fc c2 c5 3f
       -0.10038620470207589 0.17001301209637168
0004f0 b4 b9 6e 39 4e b6 73 bf f5 31 f8 25 ff 48 75 bf
       -0.004812532008982396 -0.005196568177336482
000500 e8 31 e6 9f a6 de 8b bf 3e 1a 01 2d 7b 2c b4 3f
       -0.013608266596542642 0.07880372856843906
000510 d2 77 1d e0 7f 88 91 3f a4 21 5f 76 cb 6b 9b bf
       0.01712226682081292 -0.026778391933278592
000520 68 a9 10 4b 59 55 82 bf 58 41 87 bf de 83 72 bf
       -0.008951852420143694 -0.004520292386999657
000530 46 16 8c cc 34 82 b5 3f 3d 7a 2e a0 bf 46 93 bf
       0.08401803964451302 -0.01882457175417528
000540 33 55 3f 07 cb d2 83 bf 50 b6 1b 27 2b 17 78 3f
       -0.00967939964167872 0.005881470265860125
000550 a5 7c 19 cf 36 e6 6c bf b8 28 ce 43 27 52 c4 bf
       -0.0035277433860723844 -0.15875712214284987
000560 27 28 02 a0 d4 b7 cd 3f a0 23 d7 74 33 74 63 bf
       0.232172563675989 -0.0023747448928798792
000570 e4 2b b5 e1 b0 4e 86 bf 20 c6 ac 05 6a e4 61 bf
       -0.010892278564503095 -0.0021841116662464494
000580 21 e8 bd 1b 7e e2 d9 3f 7a 74 a9 d9 f1 c9 d7 bf
       0.40444901189005306 -0.3717007279972858
000590 25 02 b4 a1 71 18 9e 3f 86 92 f2 cf fa 3b 69 bf
       0.029390120977952478 -0.0030803583791388393
0005a0 95 44 c3 ab 46 03 58 bf 7b 15 10 ad 25 e7 c5 3f
       -0.0014656248231868275 0.17111655187924754
0005b0 b0 50 1b 8d 98 e5 c1 bf 9c b1 a0 f9 2a a1 99 3f
       -0.13981921091056426 0.02502886913878087
0005c0 80 75 2b 6f 66 3b 36 3f 20 9f b0 f3 8b 4c 7b bf
       0.00033923388325070997 -0.006664797484553536
0005d0 2e b6 31 c6 80 a3 cc bf a9 50 05 c8 79 5b d2 3f
       -0.22373971631479733 0.28683323415067236
0005e0 34 18 f3 82 57 2e 8b 3f e3 d7 1a d6 4b 6a 8a bf
       0.013271983798755917 -0.012898056479894343
0005f0 0d e5 30 f3 7a b3 7d bf c4 be c9 96 7f 00 c6 bf
       -0.007251243851947875 -0.1718902097959384
000600 16 cd e3 d9 04 ce cd 3f c4 3b 68 b4 f6 66 7b 3f
       0.23284969939377537 0.006689990701956586
000610 e0 b5 b7 06 df 42 6e bf de 25 40 ae 3c d7 96 3f
       -0.0036939960461867954 0.022305439124499553
000620 83 a2 48 1a e4 85 c1 3f 47 8b 29 6e 9a ca b8 bf
       0.136898529847958 -0.09684148015507531
000630 40 55 80 07 07 a4 54 3f bc 02 3f 40 8c a0 7b bf
       0.001259810318520252 -0.006744907241171102
000640 be b9 f6 d5 b4 7c 93 3f 28 ad 62 3c d6 cf d8 3f
       0.019030404624283064 0.38768535515801483
000650 8d 4c 1e b9 18 b5 dc 3f 60 09 c6 8f d1 31 9b bf
       0.44855325773205196 -0.026557230377428964
000660 1e 25 73 0f df 29 b1 3f 65 6e 18 19 4f fb 71 bf
       0.06704515578453082 -0.0043900575415381825
000670 0c c7 81 a4 2b 8e d5 3f be f5 a5 a3 0d 83 d3 bf
       0.3368023973954315 -0.3048738573196167
000680 ca b3 c2 91 a2 fb 9a 3f 00 90 5b f2 b0 8d 1c bf
       0.02635053648616629 -0.00010892288681990658
000690 25 b6 29 17 9f 5b 8b 3f 66 2f 1e 97 6b 10 b5 bf
       0.013358347792030998 -0.08228180350687139
0006a0 4a ed 2c d6 9d 2b c1 3f ac d7 7d 3a fc 76 81 bf
       0.13414357145107153 -0.008527727637311099
0006b0 00 c5 5a 81 b2 73 28 3f e0 e5 bc cb 41 e0 8c bf
       0.0001865535165755175 -0.014099611311041593
0006c0 69 f1 87 dc 75 fb db bf cb ca 48 e2 8d a2 cc 3f
       -0.4372229245780291 0.22371076153793576
0006d0 01 a3 ee 7a 0e 95 9c bf 15 b6 2c 30 f3 98 b7 bf
       -0.02791235566442918 -0.09217758108271597
0006e0 70 dc 4e 40 4f 38 63 bf 1a 61 55 e9 85 9c 97 bf
       -0.0023461864352288184 -0.02305802570967428
0006f0 ec 2f 1c b4 42 65 a9 3f 8a 2b 9b 1c 80 da 92 bf
       0.04960068176850982 -0.018411638017635158
000700 eb ac 04 d7 95 25 aa 3f 80 3f 31 4d d1 a0 5f 3f
       0.05106800317511236 0.0019304317436485696
000710 fe 89 9b 85 f9 80 c1 3f 6b ea 4c 15 c3 e2 bc bf
       0.1367484953289732 -0.11283511419325414
000720 33 f3 c3 c5 64 2b a4 3f 41 9e 78 9f 2a 1e 81 bf
       0.03939356722000866 -0.008358319274591188
000730 00 12 41 30 5d a6 52 bf 34 9c e9 9b e6 09 c6 3f
       -0.0011382970851779861 0.17217714894215563
000740 59 5c 20 90 7b 34 e5 3f b8 a3 6c e5 cf cf 91 bf
       0.6626565756768158 -0.01739430272860762
000750 11 4a 49 6c aa 1e b0 3f f0 07 b4 25 01 93 80 bf
       0.06296792167385258 -0.008092888796912917
000760 90 ca 09 83 35 62 a5 bf bd ac f0 fe ee 8b be 3f
       -0.04176490044200876 0.11932271694301995
000770 52 e6 8e ff fc 6e 8f bf 68 aa 8c 75 a9 22 83 bf
       -0.01534841208364238 -0.009343456172776501
000780 f8 7d cc 46 df 51 74 bf 15 03 fc 4f 72 ca 8f bf
       -0.004960891889623557 -0.015522854867869232
000790 30 0d 64 77 cb ca b9 3f 34 a3 0c f5 f0 f5 88 bf
       0.10075065293135732 -0.012187845686257505
0007a0 34 e1 22 82 be 7e 87 bf 13 c8 49 f3 fe 3d 64 bf
       -0.011472214075511113 -0.002470968198672993
0007b0 5d f1 b4 b8 b3 d2 b5 3f a6 9c ca 9b b1 21 91 bf
       0.08524630793994477 -0.016730094083552992
0007c0 c0 0a cc 39 b9 27 59 3f f3 bd ea a7 af f4 85 bf
       0.001535349735775668 -0.010720608055037472
0007d0 7a 18 eb 74 b6 f5 95 3f a7 9b db d1 e3 26 88 3f
       0.021445132146958625 0.011792926637509483
0007e0 0d 14 26 67 db 32 a3 3f e0 50 59 e4 ea 88 76 bf
       0.03749738344325957 -0.005501668497874784
0007f0 60 d1 8e 95 06 6c 81 bf f8 93 fa 61 75 05 7f 3f
       -0.008506823958534582 0.007573565031326439

times f8 [3]
000000 00 00 00 82 99 ed 5d 40 00 00 00 a9 58 ae 5d 40
       119.71249437332153 118.72416138648987
000010 00 00 00 b5 07 c1 5d 40
       119.01609539985657
