package_metadata/openml/grid_stability/ground_truth/shap_kernel_3_xgboost.npz (npz, 593535 bytes, 2 tensors)

exp_values f8 [3, 2500, 12]
0	0x3fbf574b1b79eb9c	0.12242574139410894
1	0x3fd23e66f2ee1b06	0.2850587246288544
2	0x3fd446fe2511c211	0.31683305378013055
3	0x3fd427d4383026a1	0.31493096816175564
4	0xbf906ca3150f7897	-0.016039417419840687
5	0x0000000000000000	0.0
6	0x3f78e0382f9a6080	0.006073207355847043
7	0x0000000000000000	0.0
8	0xbfdc6ffbb65b5ee8	-0.44433491524021784
9	0x3fbbb27673d2ad54	0.10819187476834219
10	0xbfc5d6c30b6769f7	-0.1706165128405954
11	0x3fd4a3e412e5c8a9	0.3225031075045402
12	0x3fc60e6328751100	0.17231406665280957
13	0xbfce1de6aaa9baed	-0.23528750737337792
14	0xbfbd778afa9877d6	-0.11510532968574635
15	0xbfcc46d35281d319	-0.22091142204922035
16	0x0000000000000000	0.0
17	0xbf8ff673a08e3d01	-0.015606788003224016
18	0x0000000000000000	0.0
19	0xbf8468606b349b00	-0.009964707633640213
20	0xbfb595894bf30080	-0.08431299308995399
21	0xbfd31f054d564a93	-0.2987683539624097
22	0xbfd8018d75ca64ab	-0.37509476187694685
23	0x3fbad60a6710cd13	0.10482850090265954
24	0x3fc919f3abcdf60e	0.19610448731320712
25	0x3fd4b4946df8519e	0.32352171649224626
26	0x3fc699e922da75ad	0.17657198144744993
27	0xbfe5d612bf4b6896	-0.6823819862577405
28	0x0000000000000000	0.0
29	0x3f871d4609b50b07	0.011286303683510036
30	0x3f8541577d5da980	0.010378535760271701
31	0x0000000000000000	0.0
32	0xbfd66583948624d8	-0.3499459219388661
33	0x3fd249c3982fd402	0.28575219976420396
34	0xbfe1b7b4017b7f38	-0.5536747006371803
35	0xbf9d0cb4959abfa8	-0.02836877978432964
36	0x3fd3aacfb3e08bbc	0.3073004967320079
37	0x3fcdb6231e2c2dab	0.23212088559408292
38	0x3fcd1fa2916b5587	0.22752792454290846
39	0xbfe473da2513238b	-0.6391421054951122
40	0x0000000000000000	0.0
41	0xbfa2d7efe836d813	-0.036803719612564255
42	0xbf95fb0b4102c242	-0.02146546921057025
43	0x0000000000000000	0.0
44	0x3fde0119ba66e5a5	0.4688171692210637
45	0x3fbc3ccce1acd002	0.11030273923535108
46	0x3fbb8c3333228eef	0.107608032211427
47	0xbf867ffab84d7900	-0.010986288785428844
48	0x3fc6b6db81cbafea	0.17745536649397248
49	0x3fd24906128f95d8	0.28570701420389133
50	0x3fc5afab9975160c	0.16942353241954355
51	0xbff0c7f8e2715999	-1.0488213391705357
52	0xbf962200293f5600	-0.021614077107946272
53	0x0000000000000000	0.0
54	0x0000000000000000	0.0
55	0xbfa60652b7e90f90	-0.04301699156761096
56	0xbfd775fd89950e4e	-0.36657656131521754
57	0x3fb12c3784d62792	0.06708094590263006
58	0xbfdd778460e61ad7	-0.4604197450902751
59	0x3fbeb8b21acdd365	0.12000573305506419
60	0xbfe99bd990cc4513	-0.8002746418079901
61	0xbfd5a3b29654625a	-0.33811630898120415
62	0x3fc2f6773332458d	0.14814653396437585
63	0x3fb09198f16baec3	0.06472164053019029
64	0xbf9900d2a8e27340	-0.024417201574226555
65	0x3fa1f7e146b908df	0.03509429920497253
66	0x0000000000000000	0.0
67	0x0000000000000000	0.0
68	0x3fa53c8d07e3b704	0.04147759171779167
69	0x3fcee5a19481eb3c	0.24138278724043427
70	0xbfe169ce119c0d26	-0.5441656440674805
71	0xbfd47726aa0e1d6a	-0.31977240187594325
72	0x3fad920b5c25859a	0.05775485515438135
73	0x3fd0488a07ba32d5	0.25442744021056046
74	0xbfe6650717c98f0f	-0.6998324837299793
75	0x3fc8d2703a54fa68	0.1939220700096087
76	0x0000000000000000	0.0
77	0x0000000000000000	0.0
78	0xbf6420c961da5a00	-0.0024570401427113087
79	0xbf846760636b2160	-0.00996280005837552
80	0xbfd6b4afaaad495c	-0.3547782103315933
81	0x3fbab5b87ccd2466	0.10433533713252671
82	0x3fc7f7e1ca184d13	0.18725225799480735
83	0xbfd44d5e6a420a7a	-0.31722221733813394
84	0x3fc3bb4193b7d9c3	0.15415210449982739
85	0x3fc5444ef93c0e00	0.16614710969598434
86	0xbfd98acffc8c484b	-0.3990974394120072
87	0x0000000000000000	0.0
88	0x3fa84631f04ce140	0.04741054590562266
89	0x3fa0f37f42972ecb	0.0331077355181982
90	0x3f9778004ae8defc	0.02291870553219065
91	0xbf9cb5b16542da10	-0.02803685360478353
92	0x0000000000000000	0.0
93	0x3fa2d451e5b6f297	0.036776122371042046
94	0xbfc7ff2078bc2b23	-0.18747335334077161
95	0x3fe060e1fda4fd05	0.5118265108102668
96	0x3fdaa1a3a8d309ce	0.41611567961458895
97	0x3fcddbf2aa5af3d6	0.23327477758530674
98	0x3fd2aa93cdf6ebdb	0.2916612159130502
99	0x3fc467c57f430363	0.15941685403779635
100	0xbfa3b7ad3a1d20a0	-0.038510716766326114
101	0xbfa9cdb606a5fde8	-0.05039757567555708
102	0x0000000000000000	0.0
103	0x0000000000000000	0.0
104	0x3fdb1f84cc3fe86b	0.42379875131849215
105	0xbfd4a87d786ac23a	-0.32278382071948253
106	0x3fbb1788ca41289f	0.10582785547117844
107	0xbfdc2bc76f9ead1c	-0.4401720609700577
108	0x3fc8d3bc8a558e1f	0.19396168474769213
109	0xbfe7bc54346fdb31	-0.7417393707426979
110	0x3fbfd2f5a259ba92	0.1243127366412671
111	0xbfd568ad03ea041d	-0.3345139063094978
112	0x0000000000000000	0.0
113	0x3f9b916b5fec4b0f	0.026921918611218006
114	0x0000000000000000	0.0
115	0x3f8ce42f145a3880	0.014107101257902821
116	0x3fa332a7edb34e05	0.037495849386370884
117	0xbfa345770002003d	-0.037639349699930304
118	0xbfc722c2b1ed0f86	-0.1807483071116815
119	0x3fa5d52e2f74e8a4	0.042642062466670155
120	0x3fd6c48b7c084f23	0.3557461463217228
121	0x3fd42d943a545def	0.31528192230459146
122	0x3fd556dfacb6b77f	0.33342735163284226
123	0x3fd102af0e579953	0.26578880692104184
124	0x0000000000000000	0.0
125	0xbfa3f847a3f9db40	-0.03900359989795854
126	0x0000000000000000	0.0
127	0xbfa61e427bf33e48	-0.04319961321891391
128	0x3fda24a93880c55a	0.40848761098739816
129	0x3fd7378d48ab6c10	0.36276561829225873
130	0x3fd90ffecab54117	0.391601274449401
131	0x3fab249607c41bf1	0.05301350445557052
132	0x3fc4ea6a6cd90f2b	0.1634038001521899
133	0x3fc5adc76c023bcf	0.16936581395972758
134	0xbfe43265ae177b8f	-0.6311520004490933
135	0x3fbf3004338aa0ca	0.12182642229402343
136	0xbf8aff2f1d97c65f	-0.013182037439921133
137	0x0000000000000000	0.0
138	0x3f8feba4be7ece00	0.015586173118072644
139	0x0000000000000000	0.0
140	0xbfe39788e9bcc984	-0.6122479024109428
141	0xbfdd7be4b64b6ca8	-0.46068685342988624
142	0xbfc4ada8a50a0608	-0.16154964502861469
143	0xbfc11f51672e76cd	-0.13376824892195885
144	0xbfe7e3a2e6fd2fc8	-0.7465376388076885
145	0x3fd3f8bb63f7b145	0.3120563961263268
146	0x3fc636873ea7a5ee	0.1735390716487894
147	0x3fc402d5f5a1175d	0.156336541114963
148	0xbf8c6e1f82f70100	-0.013881918129186932
149	0x0000000000000000	0.0
150	0xbf9df2898a3cf913	-0.029245518743885656
151	0x0000000000000000	0.0
152	0x3fb267ae42aaa3f0	0.07189454200364742
153	0x3fd17b448b5fb174	0.2731486664840965
154	0xbfda4fcfcbd9a652	-0.4111213198399116
155	0xbfd345d2b14f8c31	-0.3011366588163496
156	0x3fd9704918035352	0.3974783644201142
157	0x3fc8fc02004b1812	0.19519066824267434
158	0x3fd36959e2cbe8ac	0.30330512188050807
159	0x3fc87f90284ed7c9	0.19139291732943622
160	0xbf7aea5776058700	-0.006571141857735219
161	0x3f757292cb3cb07a	0.00523621884694247
162	0x0000000000000000	0.0
163	0x0000000000000000	0.0
164	0x3fda1ec70f3d2eb5	0.4081285141771603
165	0xbfc2d3c5623439f5	-0.14708773894422192
166	0x3fc5fdf4e9750661	0.17181264304422242
167	0xbfd4b55f950754ca	-0.32357015183999904
168	0x3fc909114b1e2d4f	0.19558921974053553
169	0xbfa93d592cc6b787	-0.0492961756857389
170	0xbfe1c80e77b5e48d	-0.5556709611984317
171	0x3fcafcf6089208eb	0.2108447591636556
172	0x3f9d56320edeafe0	0.02864912238844386
173	0x3fa64758eb8e3eab	0.04351308703837494
174	0x0000000000000000	0.0
175	0x0000000000000000	0.0
176	0xbfd493b878418112	-0.32151614898431646
177	0xbfcfada4c26ba940	-0.24748668187323553
178	0xbfac74accad3f692	-0.05557765937736038
179	0xbfbb2547986822ce	-0.10603759261006049
180	0x3fcf329ac21a1681	0.24373182752258418
181	0x3fd68c1c39ef08f3	0.3523016515502057
182	0x3fbeb35179bd67da	0.11992367956318564
183	0x3fd11e845c21e0e4	0.26748761174486746
184	0x0000000000000000	0.0
185	0xbf66b0626d74b600	-0.002769653550464879
186	0xbf8fffb81d20c734	-0.015624464405934547
187	0x0000000000000000	0.0
188	0xbfc624d3363fd2ba	-0.17299881123439836
189	0x3fde30292b09c305	0.4716895027441271
190	0xbfc67c437dfe2abd	-0.1756672253798878
191	0x3fcbfc82332659f5	0.21864345071362803
192	0x3fa6fa4f813ef712	0.044878468062490864
193	0x3fc8c6f178dbcb2a	0.19357126618668846
194	0x3fbaac274e6dcf3e	0.10418935456055764
195	0xbfd8ed1c02c6ad9d	-0.389472010336897
196	0x3f8ba0e0de401140	0.01349044492963769
197	0x0000000000000000	0.0
198	0x3f8c4d985f822c84	0.013819876112640246
199	0x0000000000000000	0.0
200	0xbfacaf45fe22adc0	-0.0560247299884753
201	0xbfd5afb334ad48d1	-0.3388488783285882
202	0xbfe40ad836fd8ae8	-0.6263238023787752
203	0x3fd8d8e8555b6871	0.3882389863553107
204	0x3fc08886ace113c0	0.12916644517295417
205	0xbfd0ac477e81c379	-0.2605150924128377
206	0x3fcec0b07abbf1eb	0.24025541298750794
207	0x3fc3fdf16dba1c9e	0.15618722780002242
208	0x0000000000000000	0.0
209	0x3fa45cacc530bb99	0.0397695532523052
210	0x3f765719eb699800	0.005454159973487194
211	0x0000000000000000	0.0
212	0xbfc310b6bf5994d3	-0.14894756644495163
213	0x3fd605f237a7981a	0.34411292490983814
214	0x3fc4bb6fb265ea30	0.1619701024136062
215	0x3fe138699e4e0133	0.5381363002671037
216	0xbfb050e7135a3076	-0.06373447630375204
217	0x3fce23a51f0d058f	0.23546279922633714
218	0xbfd5a363748df582	-0.3380974424579436
219	0x3fcdfcf5c2e63e5d	0.23428222672054036
220	0x0000000000000000	0.0
221	0x3f9bd771cb61e5a8	0.027189043081738667
222	0xbf8aa85185df2c40	-0.013016354463522117
223	0x0000000000000000	0.0
224	0xbfcef3146f96872f	-0.24179320763237785
225	0x3fc973df1e068529	0.19884861913764354
226	0xbfcbf27b030b9088	-0.21833741806688445
227	0xbfdd0312e3872b56	-0.45331260890514125
228	0x3fd494bf2fcc48db	0.3215787855889524
229	0x3fba71c5be973bd0	0.10329852965445174
230	0x3fcc89e2376291a6	0.22295787529323013
231	0x3fd0320545cd6641	0.2530530149138919
232	0x0000000000000000	0.0
233	0x3f7de9834504e080	0.007302773258111128
234	0x0000000000000000	0.0
235	0x3f852e5c9def9d08	0.010342334337066564
236	0x3fd50d66729bad71	0.32894288246344333
237	0xbfd545ea3a7c4256	-0.33239227019752116
238	0xbfd197e1348e2622	-0.2748950017199566
239	0x3fc66b51078368d9	0.17515004031049022
240	0x3fd58f08ca9a279e	0.3368551233803546
241	0xbf9eac19c7264c23	-0.02995338705074969
242	0xbfade4188e183b01	-0.05838085875085675
243	0x3fc9c31a10df6af8	0.2012665350328786
244	0xbf62c29401fadc00	-0.0022900477195793023
245	0x0000000000000000	0.0
246	0x0000000000000000	0.0
247	0x3f695ca71321203b	0.0030959380319792985
248	0x3fcd1e4fc33bb7b9	0.22748753579020134
249	0xbfc1d80d6f7d2366	-0.13940589851179225
250	0x3fd430b5489a8394	0.31547290888016133
251	0xbfb58cee0ca4ea2b	-0.08418166931816333
252	0x3fc063381344cb15	0.12802792492728857
253	0x3fd73a0c2154e8d9	0.36291793112799337
254	0x3fc7ae19ce925c5c	0.18500063501844266
255	0x3fbe127d23e6a8d1	0.11746961714257799

times f8 [3]
0	0x40ed13d77da08000	59550.73408532143
1	0x40ec2660ae038000	57651.021241903305
2	0x40ea4c9a876d8000	53860.829031705856
