package_metadata/openml/grid_stability/ground_truth/shap_kernel_3_ann.npz (npz, 593604 bytes, 2 tensors)

exp_values f8 [3, 2500, 12]
0.09758320063700121 0.34217912801769923 0.30154992094207655 0.41359662922889245 0.0 -0.02672554312388531 0.033218704041398976 0.0
-0.3955027956555453 0.0877063450110945 -0.14335023635361685 0.353600500696242 0.14631355339111807 -0.2646896942601418 -0.2366275187829652 -0.3916637513104509
0.0 -0.10341567085670669 0.01990295184557911 0.0 -0.07243601319741182 -0.2953794388325422 -0.3909396580753767 0.08149320953282896
0.15340379460833822 0.3306599245700847 0.19731407230805476 -0.6503651137621272 0.028882518302048354 -0.0711278702418278 0.05592256683561742 0.0
-0.32930116741024695 0.3057908786537827 -0.6025722231129489 0.0 0.42073591495734247 0.2449178446119766 0.18560897203252852 -0.6521092281453044
0.10405123948898684 -0.10521616929696398 0.05507039539280044 0.0 0.5202450274986614 0.08076087216056992 0.07447520886948285 0.0
0.16678029960702803 0.2598071040755177 0.16118578442949352 -1.2034426283455142 0.21215610055785802 -0.10989154950767778 0.0 -0.11421802504256322
-0.38702038359747803 0.0 -0.49868440110487045 0.08134276448199085 -0.8694540846849024 -0.4069210879043754 0.10823635287012535 0.07875598424238202
-0.02061738080563269 -0.032356406621783664 0.0 0.0 0.03784004733631123 0.15064753415513438 -0.5650883999365789 -0.32764431629330676
0.042138988181674185 0.2560789192040371 -0.7599144902363778 0.19047547544605262 -0.02201756315243847 0.0 0.0 0.012879583829861874
-0.3514415282022478 0.10421116874259392 0.16327473414573213 -0.3101027570997752 0.14750209249107918 0.1344522072843954 -0.4889389704057864 0.056400190175348315
0.21020714248136116 -0.09329774982708254 0.0 -0.10550325394225879 0.0 0.03378950101091205 -0.20680883862460853 0.5861731974670347
0.36078625457241603 0.20893318818508375 0.32169430084319417 0.13537357706440922 0.2572667033956319 0.0 0.0 -0.10432577555795652
0.41387345024756816 -0.29525899221297125 0.1308706167171435 -0.47250200440102136 0.22035528744413296 -0.871801205568898 0.14567929891530082 -0.4688640054155234
-0.01149477288730306 -0.00534125156953924 0.0 0.0 0.07522110841138661 -0.026246062310946804 -0.1673939510626692 0.009568638892582615
0.3260353487456773 0.3216421639720171 0.332471292085595 0.2940911539784915 0.1391601380883262 -0.047240885663734744 0.0 0.0
0.422489934538368 0.34641223950762784 0.4230049690710452 0.09113369448384989 0.15276263509612778 0.19614139361282695 -0.4627455245199189 0.13798447504279962
-0.07791212079642944 0.0 0.0663836582563122 0.0 -0.5499157209357056 -0.3898303535815096 -0.13262113698689454 -0.07711688795688317
-0.7295232747250499 0.31141752593860683 0.08249018884684053 0.13688412040267955 -0.027385827084204895 0.021045407842960835 0.0 0.0
0.059861836165732 0.19698247475817982 -0.42548579573462303 -0.33105707564813963 0.4064642719327095 0.2112009340193304 0.318487390582619 0.18342825033131907
-0.10466351937814174 0.05107933421859534 0.0 0.0 0.42828848145823584 -0.14539951145849928 0.15198291621959206 -0.36850657284896565
0.1560403643077053 0.0 -0.5365693160539053 0.20359519140346585 -0.0443755706179299 -0.04618294165546004 0.0 0.06486726642759288
-0.30161529819274835 -0.2528659695226514 -0.12285631357442005 -0.07400853347222887 0.22358743403408618 0.414778858712976 0.0872846136498533 0.2875524174699884
-0.0688905073499213 0.0 0.045159885799561754 0.0 -0.23205007425065374 0.5173002726145514 -0.1544647268034848 0.23728144688312613
0.052720248837600625 0.18890797154824526 0.10601303166072741 -0.3815691902574865 0.0 0.055480107630820986 0.0 -0.05915675946030458
-0.09446376145329205 -0.3679245743975156 -0.6141236781032169 0.4325645780832095 0.2160845220322578 -0.300974084983904 0.33016369120759675 0.2169190552383002
0.0 0.0 0.014232335490126851 -0.010179563227065147 -0.12285350112890402 0.3563102582764524 0.23663570662152766 0.5634500701759554
-0.10461511174215703 0.23339896437572388 -0.29803669379770015 0.209085061566923 0.02719427281771127 0.0 -0.013800840926466162 0.0
-0.1458936256537478 0.2581899258499526 -0.24961035209426852 -0.4332623666941459 0.3282538245085202 0.08590423553839503 0.1592180368444494 0.28302609101129766
-0.030727452803624766 0.0 0.0 0.032517822042861626 0.32561624625035457 -0.3468513461819581 -0.34445017994377336 0.15087035142050204
0.3191616213692608 -0.04452152675399015 0.0 0.25835409213255084 0.036080973941825335 0.007127027684576515 0.0 0.008209627794723597
0.14257415672290089 -0.09051880659410419 0.3741066532899181 -0.08013461882574752 0.08600259379092993 0.3733415023423993 0.21028009013957963 0.08987500025816063
00000000: 30fb 5f6f 36fb b83f 9e6d 0d49 43e6 d53f
00000010: caaf 230a 984c d33f 1588 11ff 5d78 da3f
00000020: 0000 0000 0000 0000 005d bdd6 f05d 9bbf
00000030: e755 f2be 0a02 a13f 0000 0000 0000 0000
00000040: fd4b 34f5 ea4f d9bf 966e 794b ec73 b63f
00000050: ab9e 81f0 4c59 c2bf c1bb 95fe 63a1 d63f
00000060: 2461 630b 67ba c23f 04e0 1b0b adf0 d0bf
00000070: b9d3 407f cf49 cebf 550d bad6 0411 d9bf
00000080: 0000 0000 0000 0000 6234 390c 7379 babf
00000090: c01e 157d 7061 943f 0000 0000 0000 0000
000000a0: 434a bca3 2a8b b2bf 1d95 6c29 7fe7 d2bf
000000b0: 9e29 89c5 2705 d9bf a421 ca2d bddc b43f
000000c0: 216a 764c bca2 c33f f715 883e 8829 d53f
000000d0: 3445 cd67 9641 c93f 3d2a c27f cacf e4bf
000000e0: a038 22fe 6093 9d3f 0bd5 85a4 6f35 b2bf
000000f0: 09af 55f7 e1a1 ac3f 0000 0000 0000 0000
00000100: c6f1 2334 4513 d5bf 21eb cee7 1392 d33f
00000110: b0f0 f78a 4548 e3bf 0000 0000 0000 0000
00000120: a1a4 bf54 56ed da3f 175a 68ca 7759 cf3f
00000130: 62a8 5ce8 08c2 c73f 6db9 092c 14de e4bf
00000140: 76a5 b61e 1aa3 ba3f 600f 2466 72ef babf
00000150: 3e36 61d6 2f32 ac3f 0000 0000 0000 0000
00000160: 8a6d 60e6 d8a5 e03f afe0 b998 beac b43f
00000170: ed0a 75aa ce10 b33f 0000 0000 0000 0000
00000180: 39f2 368e 0e59 c53f d575 d1f9 ada0 d03f
00000190: 4136 5a5c bca1 c43f 44b3 b50e 4d41 f3bf
000001a0: 577d c55c ee27 cb3f 8103 3e43 da21 bcbf
000001b0: 0000 0000 0000 0000 9be8 2b7a 643d bdbf
000001c0: 52f0 9b24 f1c4 d8bf 0000 0000 0000 0000
000001d0: 3654 71fa 71ea dfbf c064 3721 e1d2 b43f
000001e0: 740c 635f 91d2 ebbf b887 26bf fe0a dabf
000001f0: e1c4 d0ab 60b5 bb3f 4571 af28 5a29 b43f
00000200: c050 2801 b91c 95bf 2566 83d8 0491 a0bf
00000210: 0000 0000 0000 0000 0000 0000 0000 0000
00000220: a6bc 934b c55f a33f 1aad 351c 6b48 c33f
00000230: 4d73 a244 3415 e2bf 55cd ccdd 1ff8 d4bf
00000240: b3ee 40d0 3d93 a53f 9349 cbd5 9863 d03f
00000250: cf4b 6a31 3851 e8bf 658c dd18 8061 c83f
00000260: 1098 b5a6 c58b 96bf 0000 0000 0000 0000
00000270: 0000 0000 0000 0000 80ca ae7a 9c60 8a3f
00000280: 436f 859b 047e d6bf de9b a049 95ad ba3f
00000290: 40a2 b5bd 2fe6 c43f 5c26 093c b9d8 d3bf
000002a0: c59d ab3b 59e1 c23f beab 94dc ba35 c13f
000002b0: 367f e8ad c64a dfbf 7925 9558 7ce0 ac3f
000002c0: 57e9 2b51 11e8 ca3f ab36 4c80 5ce2 b7bf
000002d0: 0000 0000 0000 0000 b8b7 4de1 4202 bbbf
000002e0: 0000 0000 0000 0000 507e 9483 db4c a13f
000002f0: c04d 3547 b678 cabf 8b34 1d4b eec1 e23f
00000300: e707 0f3b 1f17 d73f c7e7 269d 52be ca3f
00000310: 3697 5bb1 a396 d43f 64f9 1ddf eb53 c13f
00000320: 2fc6 5bc3 0e77 d03f 0000 0000 0000 0000
00000330: 0000 0000 0000 0000 f0b8 2612 18b5 babf
00000340: 46be 5f11 e77c da3f 76e5 d9f8 85e5 d2bf
00000350: 945b 674d 5ec0 c03f f198 0c0c 793d debf
00000360: 9e5f 8920 9a34 cc3f 6c04 51a4 cbe5 ebbf
00000370: 7fd0 4588 9ea5 c23f d6ff 612c de01 debf
00000380: 45df 014d 928a 87bf 005d f94c b5e0 75bf
00000390: 0000 0000 0000 0000 0000 0000 0000 0000
000003a0: c784 98c8 b041 b33f b6e0 186d 3fe0 9abf
000003b0: c062 ae3c 2a6d c5bf f312 e3f8 b898 833f
000003c0: 08f8 0c5e c3dd d43f 2191 d103 c995 d43f
000003d0: a474 97ab 3547 d53f 765a 18b4 63d2 d23f
000003e0: a583 ffd8 ffcf c13f 006d eb15 f52f a8bf
000003f0: 0000 0000 0000 0000 0000 0000 0000 0000
00000400: 6dd0 ee38 130a db3f efa3 e73d 9e2b d63f
00000410: 0d29 0d6f 8312 db3f b02d 5fad 8954 b73f
00000420: 81f2 e4dc b98d c33f 0abf 7a43 291b c93f
00000430: 1ebd 8b67 9f9d ddbf 0f10 d5ab 79a9 c13f
00000440: cb5c c87a 0cf2 b3bf 0000 0000 0000 0000
00000450: a01f 33f9 84fe b03f 0000 0000 0000 0000
00000460: 2b34 9fda e898 e1bf 8db9 e702 fbf2 d8bf
00000470: 6efb 0ebb baf9 c0bf f57d beaf eebd b3bf
00000480: 5dad d331 4158 e7bf deae 53c6 43ee d33f
00000490: 0e8a 56b7 131e b53f 6e51 3c3a 6b85 c13f
000004a0: 8062 cdbe 070b 9cbf a27e aa69 ed8c 953f
000004b0: 0000 0000 0000 0000 0000 0000 0000 0000
000004c0: 0a7d 38e9 35a6 ae3f 065b 7cc3 b836 c93f
000004d0: 7def 65c6 283b dbbf 7f29 4104 0a30 d5bf
000004e0: 4a61 bcb8 8203 da3f e9b3 3fd8 a108 cb3f
000004f0: 1268 afef 1862 d43f 35f2 2ab0 937a c73f
00000500: bd39 d078 3acb babf e0cd f00b 1227 aa3f
00000510: 0000 0000 0000 0000 0000 0000 0000 0000
00000520: ca76 4717 1469 db3f ecc8 4881 739c c2bf
00000530: a15f 5b1b 2d74 c33f 91d4 af97 9c95 d7bf
00000540: d05c c772 21f9 c33f 0000 0000 0000 0000
00000550: b4a2 0f6a 932b e1bf 0db2 5940 680f ca3f
00000560: c737 1711 65b8 a6bf 6628 1660 4aa5 a7bf
00000570: 0000 0000 0000 0000 a02e e323 249b b03f
00000580: 5a83 6d40 aa4d d3bf 70c0 57bf f42e d0bf
00000590: efc4 e8e8 8273 bfbf 6d5d e326 39f2 b2bf
000005a0: df89 7c56 839e cc3f d9a4 4fa0 bc8b da3f
000005b0: 10f3 11d1 4858 b63f 74d6 3a41 4267 d23f
000005c0: 60a0 12ec cea2 b1bf 0000 0000 0000 0000
000005d0: 0f4f 3351 321f a73f 0000 0000 0000 0000
000005e0: 6170 f81b d1b3 cdbf 9bec 224d b98d e03f
000005f0: 5dd6 000b 80c5 c3bf 58c1 270b 3d5f ce3f
00000600: 405f 3001 26fe aa3f cd6f e0eb 222e c83f
00000610: 49c1 ee87 ab23 bb3f 784b 542e a16b d8bf
00000620: 0000 0000 0000 0000 0db4 b47f e367 ac3f
00000630: 0000 0000 0000 0000 394e 7076 cb49 aebf
00000640: 585a 19ee c62e b8bf aea6 9b83 138c d7bf
00000650: ace1 24b3 e6a6 e3bf 89a0 1157 23af db3f
00000660: 8071 a659 a8a8 cb3f d8c2 fcce 2843 d3bf
00000670: a10c 04e4 6621 d53f 0759 10ec 00c4 cb3f
00000680: 0000 0000 0000 0000 0000 0000 0000 0000
00000690: 966d cebb d725 8d3f 80b6 2ed9 05d9 84bf
000006a0: cf38 8cb9 5373 bfbf 11b5 a18a c9cd d63f
000006b0: 10ae 802e 144a ce3f 51b5 0a71 c807 e23f
000006c0: 5396 9953 0ec8 babf 0efe 746b 04e0 cd3f
000006d0: 249f 377f 0813 d3bf dd8b c19e 4cc3 ca3f
000006e0: 05f2 8fc1 d0d8 9b3f 0000 0000 0000 0000
000006f0: 40e4 7d83 9d43 8cbf 0000 0000 0000 0000
00000700: ea58 706f a4ac c2bf 5aa9 eb09 2f86 d03f
00000710: 7074 7e65 3bf3 cfbf 9b7d e213 92ba dbbf
00000720: df43 4354 1c02 d53f 73ac 39ea d1fd b53f
00000730: e211 97b2 4161 c43f 41ba 3377 191d d23f
00000740: 4018 8673 0477 9fbf 0000 0000 0000 0000
00000750: 0000 0000 0000 0000 7727 6c0c 2da6 a03f
00000760: 7242 2c86 e5d6 d43f 9634 1bfd cf32 d6bf
00000770: b86d 7dc4 780b d6bf 26bf a43c b84f c33f
00000780: f9d5 7add 246d d43f 73b4 c08a 86cb a6bf
00000790: 0000 0000 0000 0000 1bd0 1f9a df88 d03f
000007a0: 250a 2d96 3479 a23f 00c6 2aed 3a31 7d3f
000007b0: 0000 0000 0000 0000 d417 2097 35d0 803f
000007c0: f997 30b6 de3f c23f da9f fe91 3d2c b7bf
000007d0: 4a28 4608 5df1 d73f 944e 22cf b383 b4bf
000007e0: 0306 b417 4404 b63f 0b35 b3c1 d3e4 d73f
000007f0: 6920 133f 75ea ca3f f737 d64a 0c02 b73f

times f8 [3]
38134.44673752785 38369.77608823776 35802.327481508255
00000000: 0080 ac4b ce9e e240 0000 b7d5 38bc e240
00000010: 0080 ba7a 4a7b e140
