package_metadata/openml/physiochemical_protein/ground_truth/shap_kernel_3_xgboost.npz (npz, 847094 bytes, 2 tensors)

exp_values f8 [3, 4096, 9]
000000 8b f7 0a 14 aa 85 c1 3f ae e3 25 c8 2f 8c ad 3f
       0.13689161280302317 0.05771016424382168
000010 49 21 25 14 1f 86 a9 3f 27 f5 c4 57 d7 4d 9f 3f
       0.04985139008437273 0.03057037804795928
000020 e6 c6 33 41 36 1b c8 bf 21 24 02 99 2c 52 db 3f
       -0.18833044227317614 0.42689051573012377
000030 8c 53 5b 09 e9 d0 a3 3f 00 ec f1 33 7b fd 4c 3f
       0.03870323409288465 0.0008847095085821044
000040 e6 f7 98 2e 81 37 94 bf a1 30 18 32 cd 50 e5 bf
       -0.01974298331173676 -0.6661134699256942
000050 0f fd d9 b7 30 db ae bf d3 28 12 9a c9 a9 ab bf
       -0.06026603931695195 -0.05402975087879871
000060 6e 55 88 7b a2 18 c3 3f b6 84 c6 14 b0 d3 d3 3f
       0.14918929130423514 0.3097953989873291
000070 50 00 6c e1 a7 13 93 3f ba 00 f5 97 27 c6 9a bf
       0.018629668363246588 -0.026146525048944304
000080 60 bb b2 8c 9f 10 a2 3f 0d a1 f6 35 a5 ba c4 bf
       0.03528307526118257 -0.16194596419268983
000090 86 6e 48 87 6a 68 ba bf 81 e1 9f b5 00 34 b4 3f
       -0.10315576365285936 0.07891849931900731
0000a0 14 e1 41 dd c4 32 a5 3f 81 e2 50 98 4c ba d7 3f
       0.04140296173949501 0.3707458007298002
0000b0 4a 6f b7 2b d0 33 d5 3f f8 18 36 93 3b 8a b0 bf
       0.33128742474740547 -0.06460926383997279
0000c0 a4 83 fc 19 b1 b1 c4 3f 06 7e 3f 28 9e 8d c3 3f
       0.16167272347322836 0.1527593323253173
0000d0 f4 a4 47 88 b3 18 d2 bf 19 24 b5 3e 31 b0 e0 3f
       -0.28275764759616995 0.5215078568227255
0000e0 ee 2b 44 fe 5c 29 cb bf d8 7b ab 99 6d f7 a3 3f
       -0.21219980635973407 0.038997101791885036
0000f0 e5 40 76 40 fa c5 bd 3f 79 dc 5c 96 b4 5a d1 bf
       0.11630214761521847 -0.27116121944295163
000100 0f 49 96 4f 73 35 b0 bf fa 7c c7 c1 e7 56 e7 bf
       -0.06331558888476628 -0.7293585572005263
000110 76 0b c8 8d e4 fc a1 bf 00 f1 7c ba 4c 58 c5 3f
       -0.0351325438569096 0.1667571936212724
000120 97 4c 40 5f 3f 05 d6 3f 08 f1 eb cf 36 64 a2 bf
       0.34407028486129704 -0.03592082298379934
000130 e0 88 43 7e cb 28 c6 bf c1 9c 10 0e 89 d4 bc bf
       -0.17311996140694585 -0.11261803239232206
000140 15 16 80 7a 39 14 d0 bf 78 03 85 9d ce 47 d6 3f
       -0.251234407071338 0.3481327570225896
000150 cf a4 93 31 cc 76 bd bf 51 a3 d4 b2 ec 8e d2 3f
       -0.11509395799989196 0.2899734255211586
000160 ef 6b 7b e6 3a 93 c6 3f 8b 9f eb 29 6c 90 d5 3f
       0.17636810544976764 0.3369398507479608
000170 5a 42 22 54 fa 71 b7 bf 18 f4 5b 3d 7f ad b5 bf
       -0.09158291391418896 -0.08467860458399945
000180 7e 01 22 a2 69 6e cf bf 7a 5b d2 aa c5 f3 d5 bf
       -0.24555702606813762 -0.3430036705189462
000190 4c 3e a2 0b f3 20 c5 bf 72 29 ab e4 68 04 c3 bf
       -0.16506803577475393 -0.14857207456072846
0001a0 d5 4a 9e d3 d0 fe b1 bf 80 da 65 a9 6f 14 82 bf
       -0.07029442945922011 -0.00882804141722926
0001b0 f6 69 e9 27 0c f6 c7 3f ac dd 99 8c bb 35 af bf
       0.18719627331559224 -0.06095682231255792
0001c0 18 a6 81 ed bf ca ac bf a1 e3 25 28 a4 47 d0 bf
       -0.05623435758827727 -0.25437263413146566
0001d0 81 41 e2 87 3a 5b c9 bf 47 5c 06 f4 12 67 a3 bf
       -0.19809657702399977 -0.037895767486752656
0001e0 a0 1b d1 95 8f db ce bf c8 56 b0 ed 0e 39 b1 3f
       -0.24107546630167764 0.06727689078283128
0001f0 b3 f0 36 ad b9 31 bb bf 17 d4 2c 7c 1d f0 b8 3f
       -0.10622749785301515 0.09741386682146956
000200 8d a7 bf 34 b2 71 8f 3f 18 ff 01 27 e6 6d a3 bf
       0.015353576884041842 -0.037947838079160856
000210 00 8d 83 ea ad cb 63 bf 97 71 cd 47 06 aa cf bf
       -0.002416457824539031 -0.24737623697263864
000220 c3 12 0f 0b 4f ee c3 bf af a3 21 4a 48 a0 c9 3f
       -0.15571010627731682 0.2002039300889726
000230 7f f6 ff ae 81 16 c1 bf 61 3f cf 54 36 b1 d1 bf
       -0.1334993462077598 -0.27644117624458003
000240 1c d4 80 46 81 c8 d5 bf c2 4d 7b 9e 4c 29 c0 3f
       -0.34036285290795987 0.12626035440790245
000250 8a 9e 3f 6a 00 b5 b0 bf 57 46 97 8c 22 18 d3 3f
       -0.06526186555822214 0.2983480809171843
000260 6d 21 fb 7d 7c 77 d1 3f f0 11 2c 88 28 64 bb bf
       0.2729178648264881 -0.10699704479709005
000270 00 79 0e c1 f5 4e 8d 3f 39 23 ed eb 96 ea a9 3f
       0.01431076045429025 0.050617901134108974
000280 2c 99 ac 8b 7d 2d bb bf f9 29 fb 8e 33 96 df 3f
       -0.10616287860884616 0.4935425659465689
000290 a6 7f 5e 6d 7b 12 bd 3f 08 f5 82 54 cb 4e d9 3f
       0.11356326503891853 0.39543421986657323
0002a0 03 5f 71 58 c8 bc d2 3f a8 e6 12 d8 39 32 d4 bf
       0.2927723754596487 -0.31556554890594635
0002b0 83 a0 cc 37 cd 94 cd 3f 65 1d 7a a3 94 f6 bc 3f
       0.23110356545044305 0.11313752165925946
0002c0 e6 c1 cf c1 27 25 b7 3f f8 81 c4 55 29 93 c8 3f
       0.09041069490172723 0.1919910115039014
0002d0 77 45 49 76 fe 7e e6 bf 14 3c 3c 96 8f 21 4a bf
       -0.7030021963384304 -0.0007974578006456645
0002e0 ed 08 6f f4 68 01 af 3f b4 32 c0 61 ff 37 a3 3f
       0.06055763229189091 0.03753660267111539
0002f0 c3 97 14 46 d8 4c d8 3f f3 f7 ec f7 aa 6d 89 bf
       0.3796902355555824 -0.012416206065264368
000300 fc 8d 5f 98 65 2e db 3f 56 96 33 80 70 b7 c4 bf
       0.4247068393726463 -0.16184812793578612
000310 de 0e 3f 7b d5 84 95 bf 00 7c 5d 7e b1 e2 b8 bf
       -0.021014533660276828 -0.09720906577193489
000320 e0 29 ca be 6d 20 9f 3f a0 8f 61 d8 8d a3 b2 3f
       0.030397143144492378 0.0728081372522511
000330 96 ec c2 40 7a 0e ce 3f cf 7d 2a 4c 3d 7f b1 bf
       0.23481681978396257 -0.06834776982804346
000340 1b ed 6b a7 a7 75 c6 bf e4 0d 70 e7 eb 8d c1 3f
       -0.17546554255373156 0.1371436004702523
000350 0a 00 94 a4 e2 d9 d1 bf 88 e6 34 be 3b e5 91 bf
       -0.2789236647804506 -0.01747601841382232
000360 c3 9d ad fc 77 d1 cb 3f 00 d0 9c 09 56 4f 33 bf
       0.21732997739603208 -0.0002946457913026723
000370 53 4a 7e bc 23 1f c1 bf 38 ba 46 f4 82 6c de bf
       -0.13376280502105206 -0.47537301879029625
000380 01 20 b4 96 e9 cd bc bf 79 56 34 a6 98 1a b4 bf
       -0.11251697472846446 -0.07853082711911864
000390 2a ef ef 12 43 3d d5 bf a7 f1 3e aa 08 97 88 3f
       -0.3318641362127318 0.01200682420300654
0003a0 f8 ca 9c 68 6d d0 ba bf e3 8b bc 16 e5 a2 eb 3f
       -0.10474284938826972 0.8636346286842776
0003b0 f7 37 04 be 23 a5 c2 bf 00 45 12 0b 21 42 82 bf
       -0.14566466119907748 -0.008915193701144464
0003c0 8d b7 75 e6 80 60 c9 3f 10 18 52 be a9 dd cd bf
       0.19825755360528455 -0.23332711976053178
0003d0 89 63 e4 0b d1 aa c2 3f 5e ff 45 cd 0e 13 d1 bf
       0.1458379085604771 -0.26678819700463474
0003e0 cb 69 38 db 50 7d b8 3f 25 74 49 ab 89 06 c8 3f
       0.09566216804561305 0.18769951690311007
0003f0 da 86 04 79 5d c2 d7 bf 2e 49 a8 2a 9b 96 b6 3f
       -0.37123810594685624 0.08823556701125732
000400 2c 9b c5 c0 61 0b bc bf 14 cc 0e 06 dd 5b c8 bf
       -0.10954867321343603 -0.19030344768324936
000410 c0 ec 61 48 39 d4 a2 3f bb 77 cf 11 e8 bb e0 bf
       0.036775388799435316 -0.5229378078326968
000420 c3 11 11 1b 7a 77 d4 3f 9c 80 0c f8 f4 20 99 bf
       0.31979229586820795 -0.024539783134173918
000430 56 2c 36 20 67 71 c6 bf e6 67 f1 12 04 aa e1 3f
       -0.17533577988465038 0.5520038957577043
000440 e3 53 54 7c a5 ad 80 3f f6 54 14 82 4c 29 b3 bf
       0.008143704277736979 -0.07484892059104084
000450 79 ab 80 d2 e3 dc d7 bf 6c 14 2a 93 2e fe da bf
       -0.3728570514382948 -0.42176403399964246
000460 54 20 4b a7 5f 01 b2 bf 05 61 1d 37 8b 57 cf bf
       -0.07033346018136061 -0.24485912505293342
000470 00 bd 6d 7c b9 45 69 3f 21 01 12 31 55 43 a2 3f
       0.003085005071106317 0.03566995834353493
000480 80 1f 6c e2 ad 13 d0 bf 24 39 ee d8 30 24 9e 3f
       -0.2512011252551858 0.029434931984320248
000490 22 83 fb 88 00 63 b2 bf 43 37 49 db ad 63 b8 bf
       -0.07182315201090408 -0.09527098277723405
0004a0 c7 e2 11 66 64 e4 c5 3f 20 36 e9 a5 4b 91 b9 3f
       0.17103247627144055 0.09987328339158141
0004b0 b6 61 65 c6 24 e0 c6 3f e5 07 82 9b be 2c bc bf
       0.17871532141977092 -0.11005774780826945
0004c0 43 e8 41 eb 0b 0d a2 3f 6a e1 b9 b0 69 23 cc 3f
       0.0352557873420243 0.2198307145042791
0004d0 c9 6a bf 82 1b 37 95 3f dd 00 57 bc e3 08 d1 3f
       0.020718030791480744 0.2661675776726165
0004e0 00 45 57 93 78 a5 9d bf a2 dc ab c1 3b c8 c1 bf
       -0.028951534264540335 -0.13892313915832682
0004f0 6e 90 0c cb c3 a8 ca 3f 66 d9 cc 80 59 fb b6 bf
       0.20827529348855783 -0.08977279085670417
000500 65 6a c0 2f 3b 24 d5 3f 66 f3 39 3b 6c b0 a8 3f
       0.3303363767933319 0.04822099898317482
000510 0e 5d d4 57 f7 49 c9 bf 16 b1 53 ea 3d 26 b2 3f
       -0.19756976879646299 0.07089602442619411
000520 bc ce 49 17 78 51 c2 bf 92 55 56 cb d5 c3 c8 3f
       -0.14311123978733586 0.19347641399933174
000530 55 3e 9d 76 56 3f d2 bf 05 3c 0f 22 1f 01 bd bf
       -0.285115829309665 -0.11329836446314807
000540 50 25 9e a1 e5 a1 aa 3f 42 e1 bc b5 c7 d6 ce bf
       0.05201642606614121 -0.24092956899563417
000550 8f 07 96 23 51 2f d3 bf ff e8 87 b5 02 32 be 3f
       -0.2997629973907516 0.1179506009283706
000560 af 63 04 ca ad 93 c1 bf 02 40 e9 9a ec c4 b5 bf
       -0.13731930126303157 -0.08503607542047578
000570 00 47 71 84 9b 82 75 bf 83 8f 8d d0 96 ee d2 bf
       -0.005251510133420956 -0.2958123242044552
000580 23 04 33 72 29 aa ca bf 07 ce 24 f7 ad 9b b9 bf
       -0.2083179290403062 -0.10003173145087639
000590 85 95 be 54 1c 51 b1 3f d4 b2 f0 77 7c f6 b2 3f
       0.06764390057522547 0.0740735810110878
0005a0 1b f2 77 6e 0a 03 e3 3f 69 c8 65 cc 62 91 c1 bf
       0.5941211850727685 -0.13724932651854552
0005b0 6b 94 f4 2f c5 63 ce bf 8e 18 6f 53 75 5c a1 bf
       -0.237419746795385 -0.033908525881586646
0005c0 67 20 e3 42 a9 ee e7 bf c0 82 8f 9a a1 77 9f bf
       -0.7478834444418795 -0.03072979455817193
0005d0 a9 09 d4 29 63 f0 cb bf 1a fb 1a 5c 52 d6 bd bf
       -0.2182735399474727 -0.11655153988520475
0005e0 ba ae 2c 4d 22 fe a6 bf 93 f8 dd 2b c3 8f d9 bf
       -0.04490763847419772 -0.3993995598210713
0005f0 c0 38 50 9e d1 cf 8e 3f 8f ec b1 a9 26 8b c0 bf
       0.015044820445862306 -0.12924655233277746
000600 1d c9 e5 b3 43 41 c9 bf a9 b0 79 f1 c6 1a a3 3f
       -0.1973042133718729 0.037313668229076065
000610 d9 fe c1 14 9c 8a dc bf 06 8b b9 19 0d 29 d8 3f
       -0.44596006419304285 0.3775055648058444
000620 d4 5b a8 5f 1f 59 a0 3f 4c de a9 10 b9 51 a6 bf
       0.03192995112129152 -0.043592246326565304
000630 52 8b 40 66 98 9e d9 3f a1 84 1b dc b3 45 b5 3f
       0.40030488954123655 0.08309482692449645
000640 58 68 a3 99 33 f0 b1 bf 1a e3 80 69 e7 c9 da bf
       -0.07007143498359036 -0.4185732393557814
000650 c8 97 26 b3 84 08 b8 bf e0 67 af 02 32 ae d1 3f
       -0.0938799798373956 0.27625704061722267
000660 06 6f ef 12 54 d9 d3 bf dc 9d 2c f2 66 52 af 3f
       -0.31013967370175555 0.061175553381243225
000670 83 a9 d6 42 5b 56 bf 3f 96 5f 87 73 f9 79 b1 bf
       0.12241144544410613 -0.06826743193175697
000680 e4 55 89 8d 79 e9 b3 3f 59 c9 5b ea f4 4f b4 bf
       0.077781292967607 -0.07934504243511266
000690 d6 d6 af 7c 7e 24 d0 3f 6d 3a 6c a7 79 ae bb bf
       0.25222742248966534 -0.10813103044004331
0006a0 b8 c8 9b 50 b5 d3 ce 3f 99 7f d8 06 3a c3 a2 bf
       0.24083582340205623 -0.036645711265236254
0006b0 f8 6e e9 9b 27 56 9f 3f 15 f4 03 05 02 88 af bf
       0.030602091685394378 -0.0615845328447692
0006c0 5a 43 a6 c7 a5 68 e0 bf a3 79 c2 40 f6 f0 b9 bf
       -0.5127743625072114 -0.10133303719565005
0006d0 7b 36 8f 66 8e 00 c2 bf c4 37 04 8f 4f 74 bd bf
       -0.1406419754770701 -0.1150560115968054
0006e0 d0 01 72 b6 3d c0 b8 3f 47 b1 24 d1 53 31 c8 bf
       0.09668336586219728 -0.18900535308911
0006f0 08 84 ce b4 5c 9b d0 3f 4c 91 24 88 6d 0a d3 bf
       0.2594825521173907 -0.29751146598052425
000700 97 5f f8 de 62 a2 a7 bf 94 44 d9 2e a4 23 d5 bf
       -0.046160783498805084 -0.33030037474697704
000710 2e 2d f8 64 f9 61 96 3f 47 05 36 d8 5b 7d b0 bf
       0.021858116901097784 -0.06441282299603755
000720 ef 27 7c 2a e5 06 c2 3f ed 61 27 f7 fe 97 c2 bf
       0.14083542417966963 -0.14526354854639525
000730 84 74 62 dd 46 8c be bf 19 7d db 96 da ce dc 3f
       -0.11932795433900095 0.45012535793462544
000740 f7 21 03 8a 84 c9 c3 3f 99 84 42 02 c6 8a a6 bf
       0.15458733309630165 -0.04402750756822477
000750 93 f4 ee 13 9e 72 d7 3f 00 60 fd a5 b2 6b 66 3f
       0.36637069651244153 0.0027369012094986545
000760 e4 59 62 d4 74 54 a5 bf 30 f6 e9 48 17 0c e2 bf
       -0.04165997593479512 -0.5639759468173846
000770 2b 3c 2c a9 3b e3 dc bf c0 91 7e f7 cd 3e 68 bf
       -0.4513692047193582 -0.0029596350468230337
000780 e3 07 38 3f 2f 47 98 bf f0 79 c7 e9 76 95 c5 bf
       -0.023709047540258054 -0.16862379469871724
000790 47 0a 90 f9 4b 14 98 bf e1 0d 7f d0 db 01 a7 bf
       -0.023514926058860543 -0.04493605537529866
0007a0 ba ff 3b 6c cb 28 be bf c9 f2 62 f9 85 70 c5 bf
       -0.11780997650566763 -0.16749643971515685
0007b0 79 c9 79 6d a3 d9 ba bf 1e ba 76 1b 8e d6 c5 bf
       -0.10488339827296568 -0.17061020222668416
0007c0 96 d9 5c 5e b7 36 96 bf 9f 88 0c e4 d2 87 71 bf
       -0.021693101057473983 -0.00427992228722665
0007d0 b7 c8 e3 c8 e2 d3 9c 3f 80 7e 4b c8 6b b8 75 3f
       0.028152030478800962 0.005302830719955076
0007e0 ad 54 12 ec 2c 66 bb bf 21 f9 9c 5e 63 ea b1 3f
       -0.10702782405344875 0.06998272952930452
0007f0 90 32 40 ae 13 83 99 bf 88 0c a0 ac a5 98 c8 bf
       -0.02491408110658938 -0.19215842179264464

times f8 [3]
000000 00 00 b6 75 8f 8d e7 40 00 00 b2 9f 2d 8f e7 40
       48236.483119010925 48249.4257440567
000010 00 00 95 4a b7 89 e7 40
       48205.72785425186
